…
          X       0.00      0.00      0.00         1

avg / total       0.93      0.89      0.91     11223

F-1 Score:
0.911321097583

Found 100004 word vectors.
Found 84 char vectors.
Found 103589 unique words.
Found 181 unique chars.
Found 16 unique labels.
3585 unique words not found in embedding.
97 unique chars not found in embedding.

Model Choice:
CE only
Model Choice:
_________________________________________________________________
Layer (type)                 Output Shape              Param #   
=================================================================
input_2 (InputLayer)         (None, 188, 25)           0         
_________________________________________________________________
embedding_2 (Embedding)      (None, 25, 64)            11648     
_________________________________________________________________
lambda_1 (Lambda)            (None, 25, 64)            0         
_________________________________________________________________
bidirectional_1 (Bidirection (None, 64)                49536     
_________________________________________________________________
lambda_2 (Lambda)            (None, 188, 64)           0         
_________________________________________________________________
bidirectional_2 (Bidirection (None, 188, 128)          49536     
_________________________________________________________________
crf_1 (CRF)                  (None, 188, 17)           2516      
=================================================================
Total params: 113,236
Trainable params: 113,236
Non-trainable params: 0
_________________________________________________________________
Epoch 1/3

4477/4477 [==============================] - 416s 93ms/step - loss: 0.1682 - acc: 0.9488
Epoch 2/3

4477/4477 [==============================] - 412s 92ms/step - loss: 0.1006 - acc: 0.9707
…
F-1 Score:
0.789053795071

Found 100004 word vectors.
Found 84 char vectors.
Found 103589 unique words.
Found 181 unique chars.
Found 16 unique labels.
3585 unique words not found in embedding.
97 unique chars not found in embedding.

Model Choice:
Both WE & CE
Model Choice:
__________________________________________________________________________________________________
Layer (type)                    Output Shape         Param #     Connected to                     
==================================================================================================
input_2 (InputLayer)            (None, 188, 25)      0                                            
__________________________________________________________________________________________________
embedding_2 (Embedding)         (None, 25, 64)       11648       input_2[0][0]                    
__________________________________________________________________________________________________
lambda_1 (Lambda)               (None, 25, 64)       0           embedding_2[0][0]                
__________________________________________________________________________________________________
input_1 (InputLayer)            (None, 188)          0                                            
__________________________________________________________________________________________________
bidirectional_1 (Bidirectional) (None, 64)           49536       lambda_1[0][0]                   
__________________________________________________________________________________________________
embedding_1 (Embedding)         (None, 188, 64)      6629760     input_1[0][0]                    
__________________________________________________________________________________________________
lambda_2 (Lambda)               (None, 188, 64)      0           bidirectional_1[0][0]            
__________________________________________________________________________________________________
add_1 (Add)                     (None, 188, 64)      0           embedding_1[0][0]                
                                                                 lambda_2[0][0]                   
__________________________________________________________________________________________________
bidirectional_2 (Bidirectional) (None, 188, 128)     49536       add_1[0][0]                      
__________________________________________________________________________________________________
crf_1 (CRF)                     (None, 188, 17)      2516        bidirectional_2[0][0]            
==================================================================================================
Total params: 6,742,996
Trainable params: 6,742,996
Non-trainable params: 0
__________________________________________________________________________________________________
Epoch 1/3

4477/4477 [==============================] - 439s 98ms/step - loss: 0.4171 - acc: 0.8814
…
          X       0.00      0.00      0.00         1

avg / total       0.91      0.82      0.86     11223

F-1 Score:
0.863330984261

Found 79170 word vectors.
Found 67 char vectors.
Found 90844 unique words.
Found 181 unique chars.
Found 16 unique labels.
11674 unique words not found in embedding.
114 unique chars not found in embedding.

Model Choice:
CE only
Model Choice:
_________________________________________________________________
Layer (type)                 Output Shape              Param #   
=================================================================
input_2 (InputLayer)         (None, 188, 25)           0         
_________________________________________________________________
embedding_2 (Embedding)      (None, 25, 200)           36400     
_________________________________________________________________
lambda_1 (Lambda)            (None, 25, 200)           0         
_________________________________________________________________
bidirectional_1 (Bidirection (None, 200)               481200    
_________________________________________________________________
lambda_2 (Lambda)            (None, 188, 200)          0         
_________________________________________________________________
bidirectional_2 (Bidirection (None, 188, 400)          481200    
_________________________________________________________________
crf_1 (CRF)                  (None, 188, 17)           7140      
=================================================================
Total params: 1,005,940
Trainable params: 1,005,940
Non-trainable params: 0
_________________________________________________________________
Epoch 1/3

4477/4477 [==============================] - 976s 218ms/step - loss: 0.1649 - acc: 0.9548
Epoch 2/3

4477/4477 [==============================] - 966s 216ms/step - loss: 0.0786 - acc: 0.9769
…
F-1 Score:
0.834840721764

Found 79170 word vectors.
Found 67 char vectors.
Found 90844 unique words.
Found 181 unique chars.
Found 16 unique labels.
11674 unique words not found in embedding.
114 unique chars not found in embedding.

Model Choice:
Both WE & CE
Model Choice:
__________________________________________________________________________________________________
Layer (type)                    Output Shape         Param #     Connected to                     
==================================================================================================
input_2 (InputLayer)            (None, 188, 25)      0                                            
__________________________________________________________________________________________________
embedding_2 (Embedding)         (None, 25, 200)      36400       input_2[0][0]                    
__________________________________________________________________________________________________
lambda_1 (Lambda)               (None, 25, 200)      0           embedding_2[0][0]                
__________________________________________________________________________________________________
input_1 (InputLayer)            (None, 188)          0                                            
__________________________________________________________________________________________________
bidirectional_1 (Bidirectional) (None, 200)          481200      lambda_1[0][0]                   
__________________________________________________________________________________________________
embedding_1 (Embedding)         (None, 188, 200)     18169000    input_1[0][0]                    
__________________________________________________________________________________________________
lambda_2 (Lambda)               (None, 188, 200)     0           bidirectional_1[0][0]            
__________________________________________________________________________________________________
add_1 (Add)                     (None, 188, 200)     0           embedding_1[0][0]                
                                                                 lambda_2[0][0]                   
__________________________________________________________________________________________________
bidirectional_2 (Bidirectional) (None, 188, 400)     481200      add_1[0][0]                      
__________________________________________________________________________________________________
crf_1 (CRF)                     (None, 188, 17)      7140        bidirectional_2[0][0]            
==================================================================================================
Total params: 19,174,940
Trainable params: 19,174,940
Non-trainable params: 0
__________________________________________________________________________________________________
Epoch 1/3

4477/4477 [==============================] - 1065s 238ms/step - loss: 0.5030 - acc: 0.8497
…
          X       0.00      0.00      0.00         1

avg / total       0.93      0.84      0.88     11223

F-1 Score:
0.884329578913

Found 300687 word vectors.
Found 55 char vectors.
Found 311198 unique words.
Found 181 unique chars.
Found 16 unique labels.
10511 unique words not found in embedding.
126 unique chars not found in embedding.

Model Choice:
CE only
Model Choice:
_________________________________________________________________
Layer (type)                 Output Shape              Param #   
=================================================================
input_2 (InputLayer)         (None, 188, 25)           0         
_________________________________________________________________
embedding_2 (Embedding)      (None, 25, 300)           54600     
_________________________________________________________________
lambda_1 (Lambda)            (None, 25, 300)           0         
_________________________________________________________________
bidirectional_1 (Bidirection (None, 300)               1081800   
_________________________________________________________________
lambda_2 (Lambda)            (None, 188, 300)          0         
_________________________________________________________________
bidirectional_2 (Bidirection (None, 188, 600)          1081800   
_________________________________________________________________
crf_1 (CRF)                  (None, 188, 17)           10540     
=================================================================
Total params: 2,228,740
Trainable params: 2,228,740
Non-trainable params: 0
_________________________________________________________________
Epoch 1/3

4477/4477 [==============================] - 1486s 332ms/step - loss: 0.1419 - acc: 0.9579
Epoch 2/3

4477/4477 [==============================] - 1469s 328ms/step - loss: 0.0633 - acc: 0.9810
…
F-1 Score:
0.869948763644

Found 300687 word vectors.
Found 55 char vectors.
Found 311198 unique words.
Found 181 unique chars.
Found 16 unique labels.
10511 unique words not found in embedding.
126 unique chars not found in embedding.

Model Choice:
Both WE & CE
Model Choice:
__________________________________________________________________________________________________
Layer (type)                    Output Shape         Param #     Connected to                     
==================================================================================================
input_2 (InputLayer)            (None, 188, 25)      0                                            
__________________________________________________________________________________________________
embedding_2 (Embedding)         (None, 25, 300)      54600       input_2[0][0]                    
__________________________________________________________________________________________________
lambda_1 (Lambda)               (None, 25, 300)      0           embedding_2[0][0]                
__________________________________________________________________________________________________
input_1 (InputLayer)            (None, 188)          0                                            
__________________________________________________________________________________________________
bidirectional_1 (Bidirectional) (None, 300)          1081800     lambda_1[0][0]                   
__________________________________________________________________________________________________
embedding_1 (Embedding)         (None, 188, 300)     93359700    input_1[0][0]                    
__________________________________________________________________________________________________
lambda_2 (Lambda)               (None, 188, 300)     0           bidirectional_1[0][0]            
__________________________________________________________________________________________________
add_1 (Add)                     (None, 188, 300)     0           embedding_1[0][0]                
                                                                 lambda_2[0][0]                   
__________________________________________________________________________________________________
bidirectional_2 (Bidirectional) (None, 188, 600)     1081800     add_1[0][0]                      
__________________________________________________________________________________________________
crf_1 (CRF)                     (None, 188, 17)      10540       bidirectional_2[0][0]            
==================================================================================================
Total params: 95,588,440
Trainable params: 95,588,440
Non-trainable params: 0
__________________________________________________________________________________________________
Epoch 1/3

4477/4477 [==============================] - 2012s 449ms/step - loss: 0.4254 - acc: 0.8828
…
