…
Found 181 unique chars.
Found 16 unique labels.
3585 unique words not found in embedding.
97 unique chars not found in embedding.
Mapping...
Data mapped!
Mapping...
Data mapped!
Padding...
Data padded!
Padded until 188 tokens.
Mapping...
Data mapped!
Mapping...
Data mapped!
Padding...
Data padded!
Padded until 25 chars.
Padded until 188 tokens.
Model Choice:
CE only
Model Choice:
_________________________________________________________________
Layer (type)                 Output Shape              Param #   
=================================================================
input_2 (InputLayer)         (None, 188, 25)           0         
_________________________________________________________________
embedding_2 (Embedding)      (None, 25, 64)            11648     
_________________________________________________________________
lambda_1 (Lambda)            (None, 25, 64)            0         
_________________________________________________________________
bidirectional_1 (Bidirection (None, 64)                49536     
_________________________________________________________________
lambda_2 (Lambda)            (None, 188, 64)           0         
_________________________________________________________________
bidirectional_2 (Bidirection (None, 188, 128)          49536     
_________________________________________________________________
crf_1 (CRF)                  (None, 188, 17)           2516      
=================================================================
Total params: 113,236
Trainable params: 113,236
Non-trainable params: 0
_________________________________________________________________
Epoch 1/3

   8/4477 [..............................] - ETA: 37:17 - loss: 2.8701 - acc: 0.0020
  16/4477 [..............................] - ETA: 22:01 - loss: 2.7048 - acc: 0.4568
  24/4477 [..............................] - ETA: 17:03 - loss: 2.1963 - acc: 0.6020
…
97 unique chars not found in embedding.
Mapping...
Data mapped!
Mapping...
Data mapped!
Padding...
Data padded!
Padded until 188 tokens.
Mapping...
Data mapped!
Mapping...
Data mapped!
Padding...
Data padded!
Padded until 25 chars.
Padded until 188 tokens.
Model Choice:
Both WE & CE
Model Choice:
__________________________________________________________________________________________________
Layer (type)                    Output Shape         Param #     Connected to                     
==================================================================================================
input_2 (InputLayer)            (None, 188, 25)      0                                            
__________________________________________________________________________________________________
embedding_2 (Embedding)         (None, 25, 64)       11648       input_2[0][0]                    
__________________________________________________________________________________________________
lambda_1 (Lambda)               (None, 25, 64)       0           embedding_2[0][0]                
__________________________________________________________________________________________________
input_1 (InputLayer)            (None, 188)          0                                            
__________________________________________________________________________________________________
bidirectional_1 (Bidirectional) (None, 64)           49536       lambda_1[0][0]                   
__________________________________________________________________________________________________
embedding_1 (Embedding)         (None, 188, 64)      6629760     input_1[0][0]                    
__________________________________________________________________________________________________
lambda_2 (Lambda)               (None, 188, 64)      0           bidirectional_1[0][0]            
__________________________________________________________________________________________________
add_1 (Add)                     (None, 188, 64)      0           embedding_1[0][0]                
                                                                 lambda_2[0][0]                   
__________________________________________________________________________________________________
bidirectional_2 (Bidirectional) (None, 188, 128)     49536       add_1[0][0]                      
__________________________________________________________________________________________________
crf_1 (CRF)                     (None, 188, 17)      2516        bidirectional_2[0][0]            
==================================================================================================
Total params: 6,742,996
Trainable params: 6,742,996
Non-trainable params: 0
__________________________________________________________________________________________________
Epoch 1/3

   8/4477 [..............................] - ETA: 35:58 - loss: 2.8167 - acc: 0.0237
…
Found 181 unique chars.
Found 16 unique labels.
11674 unique words not found in embedding.
114 unique chars not found in embedding.
Mapping...
Data mapped!
Mapping...
Data mapped!
Padding...
Data padded!
Padded until 188 tokens.
Mapping...
Data mapped!
Mapping...
Data mapped!
Padding...
Data padded!
Padded until 25 chars.
Padded until 188 tokens.
Model Choice:
CE only
Model Choice:
_________________________________________________________________
Layer (type)                 Output Shape              Param #   
=================================================================
input_2 (InputLayer)         (None, 188, 25)           0         
_________________________________________________________________
embedding_2 (Embedding)      (None, 25, 200)           36400     
_________________________________________________________________
lambda_1 (Lambda)            (None, 25, 200)           0         
_________________________________________________________________
bidirectional_1 (Bidirection (None, 200)               481200    
_________________________________________________________________
lambda_2 (Lambda)            (None, 188, 200)          0         
_________________________________________________________________
bidirectional_2 (Bidirection (None, 188, 400)          481200    
_________________________________________________________________
crf_1 (CRF)                  (None, 188, 17)           7140      
=================================================================
Total params: 1,005,940
Trainable params: 1,005,940
Non-trainable params: 0
_________________________________________________________________
Epoch 1/3

   8/4477 [..............................] - ETA: 49:58 - loss: 3.0146 - acc: 0.0000e+00
  16/4477 [..............................] - ETA: 36:45 - loss: 2.7217 - acc: 0.4441    
…
114 unique chars not found in embedding.
Mapping...
Data mapped!
Mapping...
Data mapped!
Padding...
Data padded!
Padded until 188 tokens.
Mapping...
Data mapped!
Mapping...
Data mapped!
Padding...
Data padded!
Padded until 25 chars.
Padded until 188 tokens.
Model Choice:
Both WE & CE
Model Choice:
__________________________________________________________________________________________________
Layer (type)                    Output Shape         Param #     Connected to                     
==================================================================================================
input_2 (InputLayer)            (None, 188, 25)      0                                            
__________________________________________________________________________________________________
embedding_2 (Embedding)         (None, 25, 200)      36400       input_2[0][0]                    
__________________________________________________________________________________________________
lambda_1 (Lambda)               (None, 25, 200)      0           embedding_2[0][0]                
__________________________________________________________________________________________________
input_1 (InputLayer)            (None, 188)          0                                            
__________________________________________________________________________________________________
bidirectional_1 (Bidirectional) (None, 200)          481200      lambda_1[0][0]                   
__________________________________________________________________________________________________
embedding_1 (Embedding)         (None, 188, 200)     18169000    input_1[0][0]                    
__________________________________________________________________________________________________
lambda_2 (Lambda)               (None, 188, 200)     0           bidirectional_1[0][0]            
__________________________________________________________________________________________________
add_1 (Add)                     (None, 188, 200)     0           embedding_1[0][0]                
                                                                 lambda_2[0][0]                   
__________________________________________________________________________________________________
bidirectional_2 (Bidirectional) (None, 188, 400)     481200      add_1[0][0]                      
__________________________________________________________________________________________________
crf_1 (CRF)                     (None, 188, 17)      7140        bidirectional_2[0][0]            
==================================================================================================
Total params: 19,174,940
Trainable params: 19,174,940
Non-trainable params: 0
__________________________________________________________________________________________________
Epoch 1/3

   8/4477 [..............................] - ETA: 1:02:55 - loss: 2.8304 - acc: 0.0244
…
Found 181 unique chars.
Found 16 unique labels.
10511 unique words not found in embedding.
126 unique chars not found in embedding.
Mapping...
Data mapped!
Mapping...
Data mapped!
Padding...
Data padded!
Padded until 188 tokens.
Mapping...
Data mapped!
Mapping...
Data mapped!
Padding...
Data padded!
Padded until 25 chars.
Padded until 188 tokens.
Model Choice:
CE only
Model Choice:
_________________________________________________________________
Layer (type)                 Output Shape              Param #   
=================================================================
input_2 (InputLayer)         (None, 188, 25)           0         
_________________________________________________________________
embedding_2 (Embedding)      (None, 25, 300)           54600     
_________________________________________________________________
lambda_1 (Lambda)            (None, 25, 300)           0         
_________________________________________________________________
bidirectional_1 (Bidirection (None, 300)               1081800   
_________________________________________________________________
lambda_2 (Lambda)            (None, 188, 300)          0         
_________________________________________________________________
bidirectional_2 (Bidirection (None, 188, 600)          1081800   
_________________________________________________________________
crf_1 (CRF)                  (None, 188, 17)           10540     
=================================================================
Total params: 2,228,740
Trainable params: 2,228,740
Non-trainable params: 0
_________________________________________________________________
Epoch 1/3

   8/4477 [..............................] - ETA: 59:29 - loss: 2.8921 - acc: 0.0160
  16/4477 [..............................] - ETA: 45:39 - loss: 2.6539 - acc: 0.4402
  24/4477 [..............................] - ETA: 40:17 - loss: 2.1509 - acc: 0.5831
…
126 unique chars not found in embedding.
Mapping...
Data mapped!
Mapping...
Data mapped!
Padding...
Data padded!
Padded until 188 tokens.
Mapping...
Data mapped!
Mapping...
Data mapped!
Padding...
Data padded!
Padded until 25 chars.
Padded until 188 tokens.
Model Choice:
Both WE & CE
Model Choice:
__________________________________________________________________________________________________
Layer (type)                    Output Shape         Param #     Connected to                     
==================================================================================================
input_2 (InputLayer)            (None, 188, 25)      0                                            
__________________________________________________________________________________________________
embedding_2 (Embedding)         (None, 25, 300)      54600       input_2[0][0]                    
__________________________________________________________________________________________________
lambda_1 (Lambda)               (None, 25, 300)      0           embedding_2[0][0]                
__________________________________________________________________________________________________
input_1 (InputLayer)            (None, 188)          0                                            
__________________________________________________________________________________________________
bidirectional_1 (Bidirectional) (None, 300)          1081800     lambda_1[0][0]                   
__________________________________________________________________________________________________
embedding_1 (Embedding)         (None, 188, 300)     93359700    input_1[0][0]                    
__________________________________________________________________________________________________
lambda_2 (Lambda)               (None, 188, 300)     0           bidirectional_1[0][0]            
__________________________________________________________________________________________________
add_1 (Add)                     (None, 188, 300)     0           embedding_1[0][0]                
                                                                 lambda_2[0][0]                   
__________________________________________________________________________________________________
bidirectional_2 (Bidirectional) (None, 188, 600)     1081800     add_1[0][0]                      
__________________________________________________________________________________________________
crf_1 (CRF)                     (None, 188, 17)      10540       bidirectional_2[0][0]            
==================================================================================================
Total params: 95,588,440
Trainable params: 95,588,440
Non-trainable params: 0
__________________________________________________________________________________________________
Epoch 1/3

   8/4477 [..............................] - ETA: 1:37:12 - loss: 2.7908 - acc: 0.1062
…
