…
Opening file id-ud-train.pos
Opening file id-ud-test.pos
Found 110561 word vectors.
Found 67 char vectors.
Found 121353 unique words.
Found 181 unique chars.
Found 16 unique labels.
10792 unique words not found in embedding.
114 unique chars not found in embedding.
Padded until 152 tokens.
Padded until 25 chars.
Padded until 152 tokens.
Model Choice:
CE only
Model Choice:
_________________________________________________________________
Layer (type)                 Output Shape              Param #   
=================================================================
input_2 (InputLayer)         (None, 152, 25)           0         
_________________________________________________________________
embedding_2 (Embedding)      (None, 25, 100)           18200     
_________________________________________________________________
lambda_1 (Lambda)            (None, 25, 100)           0         
_________________________________________________________________
bidirectional_1 (Bidirection (None, 100)               120600    
_________________________________________________________________
lambda_2 (Lambda)            (None, 152, 100)          0         
_________________________________________________________________
bidirectional_2 (Bidirection (None, 152, 200)          120600    
_________________________________________________________________
crf_1 (CRF)                  (None, 152, 17)           3740      
=================================================================
Total params: 263,140
Trainable params: 263,140
Non-trainable params: 0
_________________________________________________________________
Epoch 1/3

4475/4475 [==============================] - 282s 63ms/step - loss: 0.1753 - acc: 0.9465
Epoch 2/3

4475/4475 [==============================] - 281s 63ms/step - loss: 0.0984 - acc: 0.9710
…
Found 121353 unique words.
Found 181 unique chars.
Found 16 unique labels.
10792 unique words not found in embedding.
114 unique chars not found in embedding.
Padded until 152 tokens.
Padded until 25 chars.
Padded until 152 tokens.
Model Choice:
Both WE & CE
Model Choice:
__________________________________________________________________________________________________
Layer (type)                    Output Shape         Param #     Connected to                     
==================================================================================================
input_2 (InputLayer)            (None, 152, 25)      0                                            
__________________________________________________________________________________________________
embedding_2 (Embedding)         (None, 25, 100)      18200       input_2[0][0]                    
__________________________________________________________________________________________________
lambda_1 (Lambda)               (None, 25, 100)      0           embedding_2[0][0]                
__________________________________________________________________________________________________
input_1 (InputLayer)            (None, 152)          0                                            
__________________________________________________________________________________________________
bidirectional_1 (Bidirectional) (None, 100)          120600      lambda_1[0][0]                   
__________________________________________________________________________________________________
embedding_1 (Embedding)         (None, 152, 100)     12135400    input_1[0][0]                    
__________________________________________________________________________________________________
lambda_2 (Lambda)               (None, 152, 100)     0           bidirectional_1[0][0]            
__________________________________________________________________________________________________
add_1 (Add)                     (None, 152, 100)     0           embedding_1[0][0]                
                                                                 lambda_2[0][0]                   
__________________________________________________________________________________________________
bidirectional_2 (Bidirectional) (None, 152, 200)     120600      add_1[0][0]                      
__________________________________________________________________________________________________
crf_1 (CRF)                     (None, 152, 17)      3740        bidirectional_2[0][0]            
==================================================================================================
Total params: 12,398,540
Trainable params: 12,398,540
Non-trainable params: 0
__________________________________________________________________________________________________
Epoch 1/3

4475/4475 [==============================] - 330s 74ms/step - loss: 0.4098 - acc: 0.8818
…
Opening file id-ud-train.pos
Opening file id-ud-test.pos
Found 100004 word vectors.
Found 84 char vectors.
Found 103581 unique words.
Found 181 unique chars.
Found 16 unique labels.
3577 unique words not found in embedding.
97 unique chars not found in embedding.
Padded until 152 tokens.
Padded until 25 chars.
Padded until 152 tokens.
Model Choice:
CE only
Model Choice:
_________________________________________________________________
Layer (type)                 Output Shape              Param #   
=================================================================
input_2 (InputLayer)         (None, 152, 25)           0         
_________________________________________________________________
embedding_2 (Embedding)      (None, 25, 64)            11648     
_________________________________________________________________
lambda_1 (Lambda)            (None, 25, 64)            0         
_________________________________________________________________
bidirectional_1 (Bidirection (None, 64)                49536     
_________________________________________________________________
lambda_2 (Lambda)            (None, 152, 64)           0         
_________________________________________________________________
bidirectional_2 (Bidirection (None, 152, 128)          49536     
_________________________________________________________________
crf_1 (CRF)                  (None, 152, 17)           2516      
=================================================================
Total params: 113,236
Trainable params: 113,236
Non-trainable params: 0
_________________________________________________________________
Epoch 1/3

4475/4475 [==============================] - 175s 39ms/step - loss: 0.1974 - acc: 0.9383
Epoch 2/3

4475/4475 [==============================] - 174s 39ms/step - loss: 0.1215 - acc: 0.9650
…
Found 103581 unique words.
Found 181 unique chars.
Found 16 unique labels.
3577 unique words not found in embedding.
97 unique chars not found in embedding.
Padded until 152 tokens.
Padded until 25 chars.
Padded until 152 tokens.
Model Choice:
Both WE & CE
Model Choice:
__________________________________________________________________________________________________
Layer (type)                    Output Shape         Param #     Connected to                     
==================================================================================================
input_2 (InputLayer)            (None, 152, 25)      0                                            
__________________________________________________________________________________________________
embedding_2 (Embedding)         (None, 25, 64)       11648       input_2[0][0]                    
__________________________________________________________________________________________________
lambda_1 (Lambda)               (None, 25, 64)       0           embedding_2[0][0]                
__________________________________________________________________________________________________
input_1 (InputLayer)            (None, 152)          0                                            
__________________________________________________________________________________________________
bidirectional_1 (Bidirectional) (None, 64)           49536       lambda_1[0][0]                   
__________________________________________________________________________________________________
embedding_1 (Embedding)         (None, 152, 64)      6629248     input_1[0][0]                    
__________________________________________________________________________________________________
lambda_2 (Lambda)               (None, 152, 64)      0           bidirectional_1[0][0]            
__________________________________________________________________________________________________
add_1 (Add)                     (None, 152, 64)      0           embedding_1[0][0]                
                                                                 lambda_2[0][0]                   
__________________________________________________________________________________________________
bidirectional_2 (Bidirectional) (None, 152, 128)     49536       add_1[0][0]                      
__________________________________________________________________________________________________
crf_1 (CRF)                     (None, 152, 17)      2516        bidirectional_2[0][0]            
==================================================================================================
Total params: 6,742,484
Trainable params: 6,742,484
Non-trainable params: 0
__________________________________________________________________________________________________
Epoch 1/3

4475/4475 [==============================] - 196s 44ms/step - loss: 0.4205 - acc: 0.8813
…
Opening file id-ud-train.pos
Opening file id-ud-test.pos
Found 72664 word vectors.
Found 57 char vectors.
Found 84713 unique words.
Found 181 unique chars.
Found 16 unique labels.
12049 unique words not found in embedding.
124 unique chars not found in embedding.
Padded until 152 tokens.
Padded until 25 chars.
Padded until 152 tokens.
Model Choice:
CE only
Model Choice:
_________________________________________________________________
Layer (type)                 Output Shape              Param #   
=================================================================
input_2 (InputLayer)         (None, 152, 25)           0         
_________________________________________________________________
embedding_2 (Embedding)      (None, 25, 200)           36400     
_________________________________________________________________
lambda_1 (Lambda)            (None, 25, 200)           0         
_________________________________________________________________
bidirectional_1 (Bidirection (None, 200)               481200    
_________________________________________________________________
lambda_2 (Lambda)            (None, 152, 200)          0         
_________________________________________________________________
bidirectional_2 (Bidirection (None, 152, 400)          481200    
_________________________________________________________________
crf_1 (CRF)                  (None, 152, 17)           7140      
=================================================================
Total params: 1,005,940
Trainable params: 1,005,940
Non-trainable params: 0
_________________________________________________________________
Epoch 1/3

4475/4475 [==============================] - 679s 152ms/step - loss: 0.1769 - acc: 0.9456
Epoch 2/3

4475/4475 [==============================] - 678s 152ms/step - loss: 0.0900 - acc: 0.9733
…
Found 84713 unique words.
Found 181 unique chars.
Found 16 unique labels.
12049 unique words not found in embedding.
124 unique chars not found in embedding.
Padded until 152 tokens.
Padded until 25 chars.
Padded until 152 tokens.
Model Choice:
Both WE & CE
Model Choice:
__________________________________________________________________________________________________
Layer (type)                    Output Shape         Param #     Connected to                     
==================================================================================================
input_2 (InputLayer)            (None, 152, 25)      0                                            
__________________________________________________________________________________________________
embedding_2 (Embedding)         (None, 25, 200)      36400       input_2[0][0]                    
__________________________________________________________________________________________________
lambda_1 (Lambda)               (None, 25, 200)      0           embedding_2[0][0]                
__________________________________________________________________________________________________
input_1 (InputLayer)            (None, 152)          0                                            
__________________________________________________________________________________________________
bidirectional_1 (Bidirectional) (None, 200)          481200      lambda_1[0][0]                   
__________________________________________________________________________________________________
embedding_1 (Embedding)         (None, 152, 200)     16942800    input_1[0][0]                    
__________________________________________________________________________________________________
lambda_2 (Lambda)               (None, 152, 200)     0           bidirectional_1[0][0]            
__________________________________________________________________________________________________
add_1 (Add)                     (None, 152, 200)     0           embedding_1[0][0]                
                                                                 lambda_2[0][0]                   
__________________________________________________________________________________________________
bidirectional_2 (Bidirectional) (None, 152, 400)     481200      add_1[0][0]                      
__________________________________________________________________________________________________
crf_1 (CRF)                     (None, 152, 17)      7140        bidirectional_2[0][0]            
==================================================================================================
Total params: 17,948,740
Trainable params: 17,948,740
Non-trainable params: 0
__________________________________________________________________________________________________
Epoch 1/3

4475/4475 [==============================] - 743s 166ms/step - loss: 0.5320 - acc: 0.8470
…
Opening file id-ud-train.pos
Opening file id-ud-test.pos
Found 300687 word vectors.
Found 55 char vectors.
Found 311178 unique words.
Found 181 unique chars.
Found 16 unique labels.
10491 unique words not found in embedding.
126 unique chars not found in embedding.
Padded until 152 tokens.
Padded until 25 chars.
Padded until 152 tokens.
Model Choice:
CE only
Model Choice:
_________________________________________________________________
Layer (type)                 Output Shape              Param #   
=================================================================
input_2 (InputLayer)         (None, 152, 25)           0         
_________________________________________________________________
embedding_2 (Embedding)      (None, 25, 300)           54600     
_________________________________________________________________
lambda_1 (Lambda)            (None, 25, 300)           0         
_________________________________________________________________
bidirectional_1 (Bidirection (None, 300)               1081800   
_________________________________________________________________
lambda_2 (Lambda)            (None, 152, 300)          0         
_________________________________________________________________
bidirectional_2 (Bidirection (None, 152, 600)          1081800   
_________________________________________________________________
crf_1 (CRF)                  (None, 152, 17)           10540     
=================================================================
Total params: 2,228,740
Trainable params: 2,228,740
Non-trainable params: 0
_________________________________________________________________
Epoch 1/3

4475/4475 [==============================] - 1277s 285ms/step - loss: 0.3741 - acc: 0.9001
Epoch 2/3

4475/4475 [==============================] - 1276s 285ms/step - loss: 0.1870 - acc: 0.9356
…
Found 311178 unique words.
Found 181 unique chars.
Found 16 unique labels.
10491 unique words not found in embedding.
126 unique chars not found in embedding.
Padded until 152 tokens.
Padded until 25 chars.
Padded until 152 tokens.
Model Choice:
Both WE & CE
Model Choice:
__________________________________________________________________________________________________
Layer (type)                    Output Shape         Param #     Connected to                     
==================================================================================================
input_2 (InputLayer)            (None, 152, 25)      0                                            
__________________________________________________________________________________________________
embedding_2 (Embedding)         (None, 25, 300)      54600       input_2[0][0]                    
__________________________________________________________________________________________________
lambda_1 (Lambda)               (None, 25, 300)      0           embedding_2[0][0]                
__________________________________________________________________________________________________
input_1 (InputLayer)            (None, 152)          0                                            
__________________________________________________________________________________________________
bidirectional_1 (Bidirectional) (None, 300)          1081800     lambda_1[0][0]                   
__________________________________________________________________________________________________
embedding_1 (Embedding)         (None, 152, 300)     93353700    input_1[0][0]                    
__________________________________________________________________________________________________
lambda_2 (Lambda)               (None, 152, 300)     0           bidirectional_1[0][0]            
__________________________________________________________________________________________________
add_1 (Add)                     (None, 152, 300)     0           embedding_1[0][0]                
                                                                 lambda_2[0][0]                   
__________________________________________________________________________________________________
bidirectional_2 (Bidirectional) (None, 152, 600)     1081800     add_1[0][0]                      
__________________________________________________________________________________________________
crf_1 (CRF)                     (None, 152, 17)      10540       bidirectional_2[0][0]            
==================================================================================================
Total params: 95,582,440
Trainable params: 95,582,440
Non-trainable params: 0
__________________________________________________________________________________________________
Epoch 1/3

4475/4475 [==============================] - 1652s 369ms/step - loss: 0.4082 - acc: 0.8844
…
