…
Opening file id-ud-train.pos
Opening file id-ud-test.pos
Found 100004 word vectors.
Found 84 char vectors.
Found 103581 unique words.
Found 181 unique chars.
Found 16 unique labels.
3577 unique words not found in embedding.
97 unique chars not found in embedding.
Padded until 152 tokens.
Padded until 25 chars.
Padded until 152 tokens.
Model Choice:
CE only
Model Choice:
_________________________________________________________________
Layer (type)                 Output Shape              Param #   
=================================================================
input_2 (InputLayer)         (None, 152, 25)           0         
_________________________________________________________________
embedding_2 (Embedding)      (None, 25, 64)            11648     
_________________________________________________________________
lambda_1 (Lambda)            (None, 25, 64)            0         
_________________________________________________________________
bidirectional_1 (Bidirection (None, 64)                49536     
_________________________________________________________________
lambda_2 (Lambda)            (None, 152, 64)           0         
_________________________________________________________________
bidirectional_2 (Bidirection (None, 152, 128)          49536     
_________________________________________________________________
crf_1 (CRF)                  (None, 152, 17)           2516      
=================================================================
Total params: 113,236
Trainable params: 101,588
Non-trainable params: 11,648
_________________________________________________________________
Epoch 1/3

4475/4475 [==============================] - 149s 33ms/step - loss: 0.2648 - acc: 0.9154
Epoch 2/3

4475/4475 [==============================] - 150s 33ms/step - loss: 0.2047 - acc: 0.9312
…
Found 103581 unique words.
Found 181 unique chars.
Found 16 unique labels.
3577 unique words not found in embedding.
97 unique chars not found in embedding.
Padded until 152 tokens.
Padded until 25 chars.
Padded until 152 tokens.
Model Choice:
Both WE & CE
Model Choice:
__________________________________________________________________________________________________
Layer (type)                    Output Shape         Param #     Connected to                     
==================================================================================================
input_2 (InputLayer)            (None, 152, 25)      0                                            
__________________________________________________________________________________________________
embedding_2 (Embedding)         (None, 25, 64)       11648       input_2[0][0]                    
__________________________________________________________________________________________________
lambda_1 (Lambda)               (None, 25, 64)       0           embedding_2[0][0]                
__________________________________________________________________________________________________
input_1 (InputLayer)            (None, 152)          0                                            
__________________________________________________________________________________________________
bidirectional_1 (Bidirectional) (None, 64)           49536       lambda_1[0][0]                   
__________________________________________________________________________________________________
embedding_1 (Embedding)         (None, 152, 64)      6629248     input_1[0][0]                    
__________________________________________________________________________________________________
lambda_2 (Lambda)               (None, 152, 64)      0           bidirectional_1[0][0]            
__________________________________________________________________________________________________
add_1 (Add)                     (None, 152, 64)      0           embedding_1[0][0]                
                                                                 lambda_2[0][0]                   
__________________________________________________________________________________________________
bidirectional_2 (Bidirectional) (None, 152, 128)     49536       add_1[0][0]                      
__________________________________________________________________________________________________
crf_1 (CRF)                     (None, 152, 17)      2516        bidirectional_2[0][0]            
==================================================================================================
Total params: 6,742,484
Trainable params: 101,588
Non-trainable params: 6,640,896
__________________________________________________________________________________________________
Epoch 1/3

4475/4475 [==============================] - 143s 32ms/step - loss: 0.5661 - acc: 0.8411
…
