…
Found 181 unique chars.
Found 16 unique labels.
10792 unique words not found in embedding.
114 unique chars not found in embedding.
Mapping...
Data mapped!
Mapping...
Data mapped!
Padding...
Data padded!
Padded until 152 tokens.
Mapping...
Data mapped!
Mapping...
Data mapped!
Padding...
Data padded!
Padded until 25 chars.
Padded until 152 tokens.
Model Choice:
CE only
Model Choice:
_________________________________________________________________
Layer (type)                 Output Shape              Param #   
=================================================================
input_2 (InputLayer)         (None, 152, 25)           0         
_________________________________________________________________
embedding_2 (Embedding)      (None, 25, 100)           18200     
_________________________________________________________________
lambda_1 (Lambda)            (None, 25, 100)           0         
_________________________________________________________________
bidirectional_1 (Bidirection (None, 100)               120600    
_________________________________________________________________
lambda_2 (Lambda)            (None, 152, 100)          0         
_________________________________________________________________
bidirectional_2 (Bidirection (None, 152, 200)          120600    
_________________________________________________________________
crf_1 (CRF)                  (None, 152, 17)           3740      
=================================================================
Total params: 263,140
Trainable params: 263,140
Non-trainable params: 0
_________________________________________________________________
Epoch 1/3

   8/4475 [..............................] - ETA: 15:23 - loss: 2.8509 - acc: 0.0312
  16/4475 [..............................] - ETA: 9:59 - loss: 2.6472 - acc: 0.4757 
  24/4475 [..............................] - ETA: 8:11 - loss: 2.0801 - acc: 0.5918
…
114 unique chars not found in embedding.
Mapping...
Data mapped!
Mapping...
Data mapped!
Padding...
Data padded!
Padded until 152 tokens.
Mapping...
Data mapped!
Mapping...
Data mapped!
Padding...
Data padded!
Padded until 25 chars.
Padded until 152 tokens.
Model Choice:
Both WE & CE
Model Choice:
__________________________________________________________________________________________________
Layer (type)                    Output Shape         Param #     Connected to                     
==================================================================================================
input_2 (InputLayer)            (None, 152, 25)      0                                            
__________________________________________________________________________________________________
embedding_2 (Embedding)         (None, 25, 100)      18200       input_2[0][0]                    
__________________________________________________________________________________________________
lambda_1 (Lambda)               (None, 25, 100)      0           embedding_2[0][0]                
__________________________________________________________________________________________________
input_1 (InputLayer)            (None, 152)          0                                            
__________________________________________________________________________________________________
bidirectional_1 (Bidirectional) (None, 100)          120600      lambda_1[0][0]                   
__________________________________________________________________________________________________
embedding_1 (Embedding)         (None, 152, 100)     12135400    input_1[0][0]                    
__________________________________________________________________________________________________
lambda_2 (Lambda)               (None, 152, 100)     0           bidirectional_1[0][0]            
__________________________________________________________________________________________________
add_1 (Add)                     (None, 152, 100)     0           embedding_1[0][0]                
                                                                 lambda_2[0][0]                   
__________________________________________________________________________________________________
bidirectional_2 (Bidirectional) (None, 152, 200)     120600      add_1[0][0]                      
__________________________________________________________________________________________________
crf_1 (CRF)                     (None, 152, 17)      3740        bidirectional_2[0][0]            
==================================================================================================
Total params: 12,398,540
Trainable params: 12,398,540
Non-trainable params: 0
__________________________________________________________________________________________________
Epoch 1/3

   8/4475 [..............................] - ETA: 18:10 - loss: 3.0871 - acc: 0.0485
…
Found 181 unique chars.
Found 16 unique labels.
3577 unique words not found in embedding.
97 unique chars not found in embedding.
Mapping...
Data mapped!
Mapping...
Data mapped!
Padding...
Data padded!
Padded until 152 tokens.
Mapping...
Data mapped!
Mapping...
Data mapped!
Padding...
Data padded!
Padded until 25 chars.
Padded until 152 tokens.
Model Choice:
CE only
Model Choice:
_________________________________________________________________
Layer (type)                 Output Shape              Param #   
=================================================================
input_2 (InputLayer)         (None, 152, 25)           0         
_________________________________________________________________
embedding_2 (Embedding)      (None, 25, 64)            11648     
_________________________________________________________________
lambda_1 (Lambda)            (None, 25, 64)            0         
_________________________________________________________________
bidirectional_1 (Bidirection (None, 64)                49536     
_________________________________________________________________
lambda_2 (Lambda)            (None, 152, 64)           0         
_________________________________________________________________
bidirectional_2 (Bidirection (None, 152, 128)          49536     
_________________________________________________________________
crf_1 (CRF)                  (None, 152, 17)           2516      
=================================================================
Total params: 113,236
Trainable params: 113,236
Non-trainable params: 0
_________________________________________________________________
Epoch 1/3

   8/4475 [..............................] - ETA: 13:52 - loss: 2.7460 - acc: 0.0312
  16/4475 [..............................] - ETA: 8:21 - loss: 2.5849 - acc: 0.4375 
  24/4475 [..............................] - ETA: 6:30 - loss: 2.0713 - acc: 0.5916
…
97 unique chars not found in embedding.
Mapping...
Data mapped!
Mapping...
Data mapped!
Padding...
Data padded!
Padded until 152 tokens.
Mapping...
Data mapped!
Mapping...
Data mapped!
Padding...
Data padded!
Padded until 25 chars.
Padded until 152 tokens.
Model Choice:
Both WE & CE
Model Choice:
__________________________________________________________________________________________________
Layer (type)                    Output Shape         Param #     Connected to                     
==================================================================================================
input_2 (InputLayer)            (None, 152, 25)      0                                            
__________________________________________________________________________________________________
embedding_2 (Embedding)         (None, 25, 64)       11648       input_2[0][0]                    
__________________________________________________________________________________________________
lambda_1 (Lambda)               (None, 25, 64)       0           embedding_2[0][0]                
__________________________________________________________________________________________________
input_1 (InputLayer)            (None, 152)          0                                            
__________________________________________________________________________________________________
bidirectional_1 (Bidirectional) (None, 64)           49536       lambda_1[0][0]                   
__________________________________________________________________________________________________
embedding_1 (Embedding)         (None, 152, 64)      6629248     input_1[0][0]                    
__________________________________________________________________________________________________
lambda_2 (Lambda)               (None, 152, 64)      0           bidirectional_1[0][0]            
__________________________________________________________________________________________________
add_1 (Add)                     (None, 152, 64)      0           embedding_1[0][0]                
                                                                 lambda_2[0][0]                   
__________________________________________________________________________________________________
bidirectional_2 (Bidirectional) (None, 152, 128)     49536       add_1[0][0]                      
__________________________________________________________________________________________________
crf_1 (CRF)                     (None, 152, 17)      2516        bidirectional_2[0][0]            
==================================================================================================
Total params: 6,742,484
Trainable params: 6,742,484
Non-trainable params: 0
__________________________________________________________________________________________________
Epoch 1/3

   8/4475 [..............................] - ETA: 15:42 - loss: 2.8484 - acc: 0.0372
…
Found 181 unique chars.
Found 16 unique labels.
12049 unique words not found in embedding.
124 unique chars not found in embedding.
Mapping...
Data mapped!
Mapping...
Data mapped!
Padding...
Data padded!
Padded until 152 tokens.
Mapping...
Data mapped!
Mapping...
Data mapped!
Padding...
Data padded!
Padded until 25 chars.
Padded until 152 tokens.
Model Choice:
CE only
Model Choice:
_________________________________________________________________
Layer (type)                 Output Shape              Param #   
=================================================================
input_2 (InputLayer)         (None, 152, 25)           0         
_________________________________________________________________
embedding_2 (Embedding)      (None, 25, 200)           36400     
_________________________________________________________________
lambda_1 (Lambda)            (None, 25, 200)           0         
_________________________________________________________________
bidirectional_1 (Bidirection (None, 200)               481200    
_________________________________________________________________
lambda_2 (Lambda)            (None, 152, 200)          0         
_________________________________________________________________
bidirectional_2 (Bidirection (None, 152, 400)          481200    
_________________________________________________________________
crf_1 (CRF)                  (None, 152, 17)           7140      
=================================================================
Total params: 1,005,940
Trainable params: 1,005,940
Non-trainable params: 0
_________________________________________________________________
Epoch 1/3

   8/4475 [..............................] - ETA: 21:58 - loss: 2.8652 - acc: 8.2237e-04
  16/4475 [..............................] - ETA: 16:33 - loss: 2.5721 - acc: 0.4433    
…
124 unique chars not found in embedding.
Mapping...
Data mapped!
Mapping...
Data mapped!
Padding...
Data padded!
Padded until 152 tokens.
Mapping...
Data mapped!
Mapping...
Data mapped!
Padding...
Data padded!
Padded until 25 chars.
Padded until 152 tokens.
Model Choice:
Both WE & CE
Model Choice:
__________________________________________________________________________________________________
Layer (type)                    Output Shape         Param #     Connected to                     
==================================================================================================
input_2 (InputLayer)            (None, 152, 25)      0                                            
__________________________________________________________________________________________________
embedding_2 (Embedding)         (None, 25, 200)      36400       input_2[0][0]                    
__________________________________________________________________________________________________
lambda_1 (Lambda)               (None, 25, 200)      0           embedding_2[0][0]                
__________________________________________________________________________________________________
input_1 (InputLayer)            (None, 152)          0                                            
__________________________________________________________________________________________________
bidirectional_1 (Bidirectional) (None, 200)          481200      lambda_1[0][0]                   
__________________________________________________________________________________________________
embedding_1 (Embedding)         (None, 152, 200)     16942800    input_1[0][0]                    
__________________________________________________________________________________________________
lambda_2 (Lambda)               (None, 152, 200)     0           bidirectional_1[0][0]            
__________________________________________________________________________________________________
add_1 (Add)                     (None, 152, 200)     0           embedding_1[0][0]                
                                                                 lambda_2[0][0]                   
__________________________________________________________________________________________________
bidirectional_2 (Bidirectional) (None, 152, 400)     481200      add_1[0][0]                      
__________________________________________________________________________________________________
crf_1 (CRF)                     (None, 152, 17)      7140        bidirectional_2[0][0]            
==================================================================================================
Total params: 17,948,740
Trainable params: 17,948,740
Non-trainable params: 0
__________________________________________________________________________________________________
Epoch 1/3

   8/4475 [..............................] - ETA: 25:12 - loss: 2.9071 - acc: 0.0395
…
Found 181 unique chars.
Found 16 unique labels.
10491 unique words not found in embedding.
126 unique chars not found in embedding.
Mapping...
Data mapped!
Mapping...
Data mapped!
Padding...
Data padded!
Padded until 152 tokens.
Mapping...
Data mapped!
Mapping...
Data mapped!
Padding...
Data padded!
Padded until 25 chars.
Padded until 152 tokens.
Model Choice:
CE only
Model Choice:
_________________________________________________________________
Layer (type)                 Output Shape              Param #   
=================================================================
input_2 (InputLayer)         (None, 152, 25)           0         
_________________________________________________________________
embedding_2 (Embedding)      (None, 25, 300)           54600     
_________________________________________________________________
lambda_1 (Lambda)            (None, 25, 300)           0         
_________________________________________________________________
bidirectional_1 (Bidirection (None, 300)               1081800   
_________________________________________________________________
lambda_2 (Lambda)            (None, 152, 300)          0         
_________________________________________________________________
bidirectional_2 (Bidirection (None, 152, 600)          1081800   
_________________________________________________________________
crf_1 (CRF)                  (None, 152, 17)           10540     
=================================================================
Total params: 2,228,740
Trainable params: 2,228,740
Non-trainable params: 0
_________________________________________________________________
Epoch 1/3

   8/4475 [..............................] - ETA: 32:02 - loss: 2.8483 - acc: 0.0049
  16/4475 [..............................] - ETA: 26:24 - loss: 2.6277 - acc: 0.4264
  24/4475 [..............................] - ETA: 24:31 - loss: 2.2900 - acc: 0.5842
…
126 unique chars not found in embedding.
Mapping...
Data mapped!
Mapping...
Data mapped!
Padding...
Data padded!
Padded until 152 tokens.
Mapping...
Data mapped!
Mapping...
Data mapped!
Padding...
Data padded!
Padded until 25 chars.
Padded until 152 tokens.
Model Choice:
Both WE & CE
Model Choice:
__________________________________________________________________________________________________
Layer (type)                    Output Shape         Param #     Connected to                     
==================================================================================================
input_2 (InputLayer)            (None, 152, 25)      0                                            
__________________________________________________________________________________________________
embedding_2 (Embedding)         (None, 25, 300)      54600       input_2[0][0]                    
__________________________________________________________________________________________________
lambda_1 (Lambda)               (None, 25, 300)      0           embedding_2[0][0]                
__________________________________________________________________________________________________
input_1 (InputLayer)            (None, 152)          0                                            
__________________________________________________________________________________________________
bidirectional_1 (Bidirectional) (None, 300)          1081800     lambda_1[0][0]                   
__________________________________________________________________________________________________
embedding_1 (Embedding)         (None, 152, 300)     93353700    input_1[0][0]                    
__________________________________________________________________________________________________
lambda_2 (Lambda)               (None, 152, 300)     0           bidirectional_1[0][0]            
__________________________________________________________________________________________________
add_1 (Add)                     (None, 152, 300)     0           embedding_1[0][0]                
                                                                 lambda_2[0][0]                   
__________________________________________________________________________________________________
bidirectional_2 (Bidirectional) (None, 152, 600)     1081800     add_1[0][0]                      
__________________________________________________________________________________________________
crf_1 (CRF)                     (None, 152, 17)      10540       bidirectional_2[0][0]            
==================================================================================================
Total params: 95,582,440
Trainable params: 95,582,440
Non-trainable params: 0
__________________________________________________________________________________________________
Epoch 1/3

   8/4475 [..............................] - ETA: 44:38 - loss: 2.8575 - acc: 0.0794
…
