…
Padding...
Data padded!
Padding...
Data padded!
Padded until 83 tokens.
Mapping...
Data mapped!
Mapping...
Data mapped!
Padding...
Data padded!
Padding...
Data padded!
Padded until 24 chars.
Padded until 83 tokens.
Padded until 24 chars.
Padded until 83 tokens.
Model Choice:
__________________________________________________________________________________________________
Layer (type)                    Output Shape         Param #     Connected to                     
==================================================================================================
input_2 (InputLayer)            (None, 83, 24)       0                                            
__________________________________________________________________________________________________
embedding_2 (Embedding)         (None, 24, 64)       6080        input_2[0][0]                    
__________________________________________________________________________________________________
dropout_2 (Dropout)             (None, 24, 64)       0           embedding_2[0][0]                
__________________________________________________________________________________________________
input_1 (InputLayer)            (None, 83)           0                                            
__________________________________________________________________________________________________
lambda_1 (Lambda)               (None, 24, 64)       0           dropout_2[0][0]                  
__________________________________________________________________________________________________
embedding_1 (Embedding)         (None, 83, 64)       6489088     input_1[0][0]                    
__________________________________________________________________________________________________
bidirectional_1 (Bidirectional) (None, 128)          49536       lambda_1[0][0]                   
__________________________________________________________________________________________________
dropout_1 (Dropout)             (None, 83, 64)       0           embedding_1[0][0]                
__________________________________________________________________________________________________
lambda_2 (Lambda)               (None, 83, 128)      0           bidirectional_1[0][0]            
__________________________________________________________________________________________________
concatenate_1 (Concatenate)     (None, 83, 192)      0           dropout_1[0][0]                  
                                                                 lambda_2[0][0]                   
__________________________________________________________________________________________________
bidirectional_2 (Bidirectional) (None, 83, 384)      443520      concatenate_1[0][0]              
__________________________________________________________________________________________________
crf_1 (CRF)                     (None, 83, 10)       3970        bidirectional_2[0][0]            
==================================================================================================
Total params: 6,992,194
Trainable params: 6,992,194
Non-trainable params: 0
__________________________________________________________________________________________________
Train on 1506 samples, validate on 168 samples
Epoch 1/70

  32/1506 [..............................] - ETA: 2:09 - loss: 2.1841 - acc: 0.1944
…
Padding...
Data padded!
Padding...
Data padded!
Padded until 83 tokens.
Mapping...
Data mapped!
Mapping...
Data mapped!
Padding...
Data padded!
Padding...
Data padded!
Padded until 24 chars.
Padded until 83 tokens.
Padded until 24 chars.
Padded until 83 tokens.
Model Choice:
__________________________________________________________________________________________________
Layer (type)                    Output Shape         Param #     Connected to                     
==================================================================================================
input_2 (InputLayer)            (None, 83, 24)       0                                            
__________________________________________________________________________________________________
embedding_2 (Embedding)         (None, 24, 64)       6080        input_2[0][0]                    
__________________________________________________________________________________________________
dropout_2 (Dropout)             (None, 24, 64)       0           embedding_2[0][0]                
__________________________________________________________________________________________________
input_1 (InputLayer)            (None, 83)           0                                            
__________________________________________________________________________________________________
lambda_1 (Lambda)               (None, 24, 64)       0           dropout_2[0][0]                  
__________________________________________________________________________________________________
embedding_1 (Embedding)         (None, 83, 64)       6454208     input_1[0][0]                    
__________________________________________________________________________________________________
bidirectional_1 (Bidirectional) (None, 128)          49536       lambda_1[0][0]                   
__________________________________________________________________________________________________
dropout_1 (Dropout)             (None, 83, 64)       0           embedding_1[0][0]                
__________________________________________________________________________________________________
lambda_2 (Lambda)               (None, 83, 128)      0           bidirectional_1[0][0]            
__________________________________________________________________________________________________
concatenate_1 (Concatenate)     (None, 83, 192)      0           dropout_1[0][0]                  
                                                                 lambda_2[0][0]                   
__________________________________________________________________________________________________
bidirectional_2 (Bidirectional) (None, 83, 384)      443520      concatenate_1[0][0]              
__________________________________________________________________________________________________
crf_1 (CRF)                     (None, 83, 10)       3970        bidirectional_2[0][0]            
==================================================================================================
Total params: 6,957,314
Trainable params: 6,957,314
Non-trainable params: 0
__________________________________________________________________________________________________
Train on 753 samples, validate on 84 samples
Epoch 1/70

 32/753 [>.............................] - ETA: 1:11 - loss: 2.1249 - acc: 0.2640
…
Padding...
Data padded!
Padding...
Data padded!
Padded until 83 tokens.
Mapping...
Data mapped!
Mapping...
Data mapped!
Padding...
Data padded!
Padding...
Data padded!
Padded until 24 chars.
Padded until 83 tokens.
Padded until 24 chars.
Padded until 83 tokens.
Model Choice:
__________________________________________________________________________________________________
Layer (type)                    Output Shape         Param #     Connected to                     
==================================================================================================
input_2 (InputLayer)            (None, 83, 24)       0                                            
__________________________________________________________________________________________________
embedding_2 (Embedding)         (None, 24, 64)       6080        input_2[0][0]                    
__________________________________________________________________________________________________
dropout_2 (Dropout)             (None, 24, 64)       0           embedding_2[0][0]                
__________________________________________________________________________________________________
input_1 (InputLayer)            (None, 83)           0                                            
__________________________________________________________________________________________________
lambda_1 (Lambda)               (None, 24, 64)       0           dropout_2[0][0]                  
__________________________________________________________________________________________________
embedding_1 (Embedding)         (None, 83, 64)       6453376     input_1[0][0]                    
__________________________________________________________________________________________________
bidirectional_1 (Bidirectional) (None, 128)          49536       lambda_1[0][0]                   
__________________________________________________________________________________________________
dropout_1 (Dropout)             (None, 83, 64)       0           embedding_1[0][0]                
__________________________________________________________________________________________________
lambda_2 (Lambda)               (None, 83, 128)      0           bidirectional_1[0][0]            
__________________________________________________________________________________________________
concatenate_1 (Concatenate)     (None, 83, 192)      0           dropout_1[0][0]                  
                                                                 lambda_2[0][0]                   
__________________________________________________________________________________________________
bidirectional_2 (Bidirectional) (None, 83, 384)      443520      concatenate_1[0][0]              
__________________________________________________________________________________________________
crf_1 (CRF)                     (None, 83, 10)       3970        bidirectional_2[0][0]            
==================================================================================================
Total params: 6,956,482
Trainable params: 6,956,482
Non-trainable params: 0
__________________________________________________________________________________________________
Train on 753 samples, validate on 84 samples
Epoch 1/70

 32/753 [>.............................] - ETA: 1:11 - loss: 2.2380 - acc: 0.0395
…
Padding...
Data padded!
Padding...
Data padded!
Padded until 83 tokens.
Mapping...
Data mapped!
Mapping...
Data mapped!
Padding...
Data padded!
Padding...
Data padded!
Padded until 24 chars.
Padded until 83 tokens.
Padded until 24 chars.
Padded until 83 tokens.
Model Choice:
__________________________________________________________________________________________________
Layer (type)                    Output Shape         Param #     Connected to                     
==================================================================================================
input_2 (InputLayer)            (None, 83, 24)       0                                            
__________________________________________________________________________________________________
embedding_2 (Embedding)         (None, 24, 64)       6080        input_2[0][0]                    
__________________________________________________________________________________________________
dropout_2 (Dropout)             (None, 24, 64)       0           embedding_2[0][0]                
__________________________________________________________________________________________________
input_1 (InputLayer)            (None, 83)           0                                            
__________________________________________________________________________________________________
lambda_1 (Lambda)               (None, 24, 64)       0           dropout_2[0][0]                  
__________________________________________________________________________________________________
embedding_1 (Embedding)         (None, 83, 64)       6452288     input_1[0][0]                    
__________________________________________________________________________________________________
bidirectional_1 (Bidirectional) (None, 128)          49536       lambda_1[0][0]                   
__________________________________________________________________________________________________
dropout_1 (Dropout)             (None, 83, 64)       0           embedding_1[0][0]                
__________________________________________________________________________________________________
lambda_2 (Lambda)               (None, 83, 128)      0           bidirectional_1[0][0]            
__________________________________________________________________________________________________
concatenate_1 (Concatenate)     (None, 83, 192)      0           dropout_1[0][0]                  
                                                                 lambda_2[0][0]                   
__________________________________________________________________________________________________
bidirectional_2 (Bidirectional) (None, 83, 384)      443520      concatenate_1[0][0]              
__________________________________________________________________________________________________
crf_1 (CRF)                     (None, 83, 10)       3970        bidirectional_2[0][0]            
==================================================================================================
Total params: 6,955,394
Trainable params: 6,955,394
Non-trainable params: 0
__________________________________________________________________________________________________
Train on 753 samples, validate on 84 samples
Epoch 1/70

 32/753 [>.............................] - ETA: 1:10 - loss: 2.3868 - acc: 0.0243
…
Padding...
Data padded!
Padding...
Data padded!
Padded until 58 tokens.
Mapping...
Data mapped!
Mapping...
Data mapped!
Padding...
Data padded!
Padding...
Data padded!
Padded until 24 chars.
Padded until 58 tokens.
Padded until 24 chars.
Padded until 58 tokens.
Model Choice:
__________________________________________________________________________________________________
Layer (type)                    Output Shape         Param #     Connected to                     
==================================================================================================
input_2 (InputLayer)            (None, 58, 24)       0                                            
__________________________________________________________________________________________________
embedding_2 (Embedding)         (None, 24, 64)       6080        input_2[0][0]                    
__________________________________________________________________________________________________
dropout_2 (Dropout)             (None, 24, 64)       0           embedding_2[0][0]                
__________________________________________________________________________________________________
input_1 (InputLayer)            (None, 58)           0                                            
__________________________________________________________________________________________________
lambda_1 (Lambda)               (None, 24, 64)       0           dropout_2[0][0]                  
__________________________________________________________________________________________________
embedding_1 (Embedding)         (None, 58, 64)       6451648     input_1[0][0]                    
__________________________________________________________________________________________________
bidirectional_1 (Bidirectional) (None, 128)          49536       lambda_1[0][0]                   
__________________________________________________________________________________________________
dropout_1 (Dropout)             (None, 58, 64)       0           embedding_1[0][0]                
__________________________________________________________________________________________________
lambda_2 (Lambda)               (None, 58, 128)      0           bidirectional_1[0][0]            
__________________________________________________________________________________________________
concatenate_1 (Concatenate)     (None, 58, 192)      0           dropout_1[0][0]                  
                                                                 lambda_2[0][0]                   
__________________________________________________________________________________________________
bidirectional_2 (Bidirectional) (None, 58, 384)      443520      concatenate_1[0][0]              
__________________________________________________________________________________________________
crf_1 (CRF)                     (None, 58, 10)       3970        bidirectional_2[0][0]            
==================================================================================================
Total params: 6,954,754
Trainable params: 6,954,754
Non-trainable params: 0
__________________________________________________________________________________________________
Train on 753 samples, validate on 84 samples
Epoch 1/70

 32/753 [>.............................] - ETA: 1:02 - loss: 2.4299 - acc: 0.0213
…
Padding...
Data padded!
Padding...
Data padded!
Padded until 67 tokens.
Mapping...
Data mapped!
Mapping...
Data mapped!
Padding...
Data padded!
Padding...
Data padded!
Padded until 24 chars.
Padded until 67 tokens.
Padded until 24 chars.
Padded until 67 tokens.
Model Choice:
__________________________________________________________________________________________________
Layer (type)                    Output Shape         Param #     Connected to                     
==================================================================================================
input_2 (InputLayer)            (None, 67, 24)       0                                            
__________________________________________________________________________________________________
embedding_2 (Embedding)         (None, 24, 64)       6080        input_2[0][0]                    
__________________________________________________________________________________________________
dropout_2 (Dropout)             (None, 24, 64)       0           embedding_2[0][0]                
__________________________________________________________________________________________________
input_1 (InputLayer)            (None, 67)           0                                            
__________________________________________________________________________________________________
lambda_1 (Lambda)               (None, 24, 64)       0           dropout_2[0][0]                  
__________________________________________________________________________________________________
embedding_1 (Embedding)         (None, 67, 64)       6450624     input_1[0][0]                    
__________________________________________________________________________________________________
bidirectional_1 (Bidirectional) (None, 128)          49536       lambda_1[0][0]                   
__________________________________________________________________________________________________
dropout_1 (Dropout)             (None, 67, 64)       0           embedding_1[0][0]                
__________________________________________________________________________________________________
lambda_2 (Lambda)               (None, 67, 128)      0           bidirectional_1[0][0]            
__________________________________________________________________________________________________
concatenate_1 (Concatenate)     (None, 67, 192)      0           dropout_1[0][0]                  
                                                                 lambda_2[0][0]                   
__________________________________________________________________________________________________
bidirectional_2 (Bidirectional) (None, 67, 384)      443520      concatenate_1[0][0]              
__________________________________________________________________________________________________
crf_1 (CRF)                     (None, 67, 10)       3970        bidirectional_2[0][0]            
==================================================================================================
Total params: 6,953,730
Trainable params: 6,953,730
Non-trainable params: 0
__________________________________________________________________________________________________
Train on 753 samples, validate on 84 samples
Epoch 1/70

 32/753 [>.............................] - ETA: 1:03 - loss: 2.5395 - acc: 0.0281
…
Padding...
Data padded!
Padding...
Data padded!
Padded until 67 tokens.
Mapping...
Data mapped!
Mapping...
Data mapped!
Padding...
Data padded!
Padding...
Data padded!
Padded until 24 chars.
Padded until 67 tokens.
Padded until 24 chars.
Padded until 67 tokens.
Model Choice:
__________________________________________________________________________________________________
Layer (type)                    Output Shape         Param #     Connected to                     
==================================================================================================
input_2 (InputLayer)            (None, 67, 24)       0                                            
__________________________________________________________________________________________________
embedding_2 (Embedding)         (None, 24, 64)       6080        input_2[0][0]                    
__________________________________________________________________________________________________
dropout_2 (Dropout)             (None, 24, 64)       0           embedding_2[0][0]                
__________________________________________________________________________________________________
input_1 (InputLayer)            (None, 67)           0                                            
__________________________________________________________________________________________________
lambda_1 (Lambda)               (None, 24, 64)       0           dropout_2[0][0]                  
__________________________________________________________________________________________________
embedding_1 (Embedding)         (None, 67, 64)       6448960     input_1[0][0]                    
__________________________________________________________________________________________________
bidirectional_1 (Bidirectional) (None, 128)          49536       lambda_1[0][0]                   
__________________________________________________________________________________________________
dropout_1 (Dropout)             (None, 67, 64)       0           embedding_1[0][0]                
__________________________________________________________________________________________________
lambda_2 (Lambda)               (None, 67, 128)      0           bidirectional_1[0][0]            
__________________________________________________________________________________________________
concatenate_1 (Concatenate)     (None, 67, 192)      0           dropout_1[0][0]                  
                                                                 lambda_2[0][0]                   
__________________________________________________________________________________________________
bidirectional_2 (Bidirectional) (None, 67, 384)      443520      concatenate_1[0][0]              
__________________________________________________________________________________________________
crf_1 (CRF)                     (None, 67, 10)       3970        bidirectional_2[0][0]            
==================================================================================================
Total params: 6,952,066
Trainable params: 6,952,066
Non-trainable params: 0
__________________________________________________________________________________________________
Train on 753 samples, validate on 84 samples
Epoch 1/70

 32/753 [>.............................] - ETA: 1:03 - loss: 2.4774 - acc: 0.0442
…
Padding...
Data padded!
Padding...
Data padded!
Padded until 67 tokens.
Mapping...
Data mapped!
Mapping...
Data mapped!
Padding...
Data padded!
Padding...
Data padded!
Padded until 24 chars.
Padded until 67 tokens.
Padded until 24 chars.
Padded until 67 tokens.
Model Choice:
__________________________________________________________________________________________________
Layer (type)                    Output Shape         Param #     Connected to                     
==================================================================================================
input_2 (InputLayer)            (None, 67, 24)       0                                            
__________________________________________________________________________________________________
embedding_2 (Embedding)         (None, 24, 64)       6080        input_2[0][0]                    
__________________________________________________________________________________________________
dropout_2 (Dropout)             (None, 24, 64)       0           embedding_2[0][0]                
__________________________________________________________________________________________________
input_1 (InputLayer)            (None, 67)           0                                            
__________________________________________________________________________________________________
lambda_1 (Lambda)               (None, 24, 64)       0           dropout_2[0][0]                  
__________________________________________________________________________________________________
embedding_1 (Embedding)         (None, 67, 64)       6450880     input_1[0][0]                    
__________________________________________________________________________________________________
bidirectional_1 (Bidirectional) (None, 128)          49536       lambda_1[0][0]                   
__________________________________________________________________________________________________
dropout_1 (Dropout)             (None, 67, 64)       0           embedding_1[0][0]                
__________________________________________________________________________________________________
lambda_2 (Lambda)               (None, 67, 128)      0           bidirectional_1[0][0]            
__________________________________________________________________________________________________
concatenate_1 (Concatenate)     (None, 67, 192)      0           dropout_1[0][0]                  
                                                                 lambda_2[0][0]                   
__________________________________________________________________________________________________
bidirectional_2 (Bidirectional) (None, 67, 384)      443520      concatenate_1[0][0]              
__________________________________________________________________________________________________
crf_1 (CRF)                     (None, 67, 10)       3970        bidirectional_2[0][0]            
==================================================================================================
Total params: 6,953,986
Trainable params: 6,953,986
Non-trainable params: 0
__________________________________________________________________________________________________
Train on 753 samples, validate on 84 samples
Epoch 1/70

 32/753 [>.............................] - ETA: 1:02 - loss: 2.4129 - acc: 0.0357
…
Padding...
Data padded!
Padding...
Data padded!
Padded until 58 tokens.
Mapping...
Data mapped!
Mapping...
Data mapped!
Padding...
Data padded!
Padding...
Data padded!
Padded until 24 chars.
Padded until 58 tokens.
Padded until 24 chars.
Padded until 58 tokens.
Model Choice:
__________________________________________________________________________________________________
Layer (type)                    Output Shape         Param #     Connected to                     
==================================================================================================
input_2 (InputLayer)            (None, 58, 24)       0                                            
__________________________________________________________________________________________________
embedding_2 (Embedding)         (None, 24, 64)       6080        input_2[0][0]                    
__________________________________________________________________________________________________
dropout_2 (Dropout)             (None, 24, 64)       0           embedding_2[0][0]                
__________________________________________________________________________________________________
input_1 (InputLayer)            (None, 58)           0                                            
__________________________________________________________________________________________________
lambda_1 (Lambda)               (None, 24, 64)       0           dropout_2[0][0]                  
__________________________________________________________________________________________________
embedding_1 (Embedding)         (None, 58, 64)       6451136     input_1[0][0]                    
__________________________________________________________________________________________________
bidirectional_1 (Bidirectional) (None, 128)          49536       lambda_1[0][0]                   
__________________________________________________________________________________________________
dropout_1 (Dropout)             (None, 58, 64)       0           embedding_1[0][0]                
__________________________________________________________________________________________________
lambda_2 (Lambda)               (None, 58, 128)      0           bidirectional_1[0][0]            
__________________________________________________________________________________________________
concatenate_1 (Concatenate)     (None, 58, 192)      0           dropout_1[0][0]                  
                                                                 lambda_2[0][0]                   
__________________________________________________________________________________________________
bidirectional_2 (Bidirectional) (None, 58, 384)      443520      concatenate_1[0][0]              
__________________________________________________________________________________________________
crf_1 (CRF)                     (None, 58, 10)       3970        bidirectional_2[0][0]            
==================================================================================================
Total params: 6,954,242
Trainable params: 6,954,242
Non-trainable params: 0
__________________________________________________________________________________________________
Train on 753 samples, validate on 84 samples
Epoch 1/70

 32/753 [>.............................] - ETA: 1:02 - loss: 2.4594 - acc: 0.0095
…
Padding...
Data padded!
Padding...
Data padded!
Padded until 83 tokens.
Mapping...
Data mapped!
Mapping...
Data mapped!
Padding...
Data padded!
Padding...
Data padded!
Padded until 24 chars.
Padded until 83 tokens.
Padded until 24 chars.
Padded until 83 tokens.
Model Choice:
__________________________________________________________________________________________________
Layer (type)                    Output Shape         Param #     Connected to                     
==================================================================================================
input_2 (InputLayer)            (None, 83, 24)       0                                            
__________________________________________________________________________________________________
embedding_2 (Embedding)         (None, 24, 64)       6080        input_2[0][0]                    
__________________________________________________________________________________________________
dropout_2 (Dropout)             (None, 24, 64)       0           embedding_2[0][0]                
__________________________________________________________________________________________________
input_1 (InputLayer)            (None, 83)           0                                            
__________________________________________________________________________________________________
lambda_1 (Lambda)               (None, 24, 64)       0           dropout_2[0][0]                  
__________________________________________________________________________________________________
embedding_1 (Embedding)         (None, 83, 64)       6451712     input_1[0][0]                    
__________________________________________________________________________________________________
bidirectional_1 (Bidirectional) (None, 128)          49536       lambda_1[0][0]                   
__________________________________________________________________________________________________
dropout_1 (Dropout)             (None, 83, 64)       0           embedding_1[0][0]                
__________________________________________________________________________________________________
lambda_2 (Lambda)               (None, 83, 128)      0           bidirectional_1[0][0]            
__________________________________________________________________________________________________
concatenate_1 (Concatenate)     (None, 83, 192)      0           dropout_1[0][0]                  
                                                                 lambda_2[0][0]                   
__________________________________________________________________________________________________
bidirectional_2 (Bidirectional) (None, 83, 384)      443520      concatenate_1[0][0]              
__________________________________________________________________________________________________
crf_1 (CRF)                     (None, 83, 10)       3970        bidirectional_2[0][0]            
==================================================================================================
Total params: 6,954,818
Trainable params: 6,954,818
Non-trainable params: 0
__________________________________________________________________________________________________
Train on 753 samples, validate on 84 samples
Epoch 1/70

 32/753 [>.............................] - ETA: 1:11 - loss: 2.1125 - acc: 0.2342
…
Padding...
Data padded!
Padding...
Data padded!
Padded until 67 tokens.
Mapping...
Data mapped!
Mapping...
Data mapped!
Padding...
Data padded!
Padding...
Data padded!
Padded until 24 chars.
Padded until 67 tokens.
Padded until 24 chars.
Padded until 67 tokens.
Model Choice:
__________________________________________________________________________________________________
Layer (type)                    Output Shape         Param #     Connected to                     
==================================================================================================
input_2 (InputLayer)            (None, 67, 24)       0                                            
__________________________________________________________________________________________________
embedding_2 (Embedding)         (None, 24, 64)       6080        input_2[0][0]                    
__________________________________________________________________________________________________
dropout_2 (Dropout)             (None, 24, 64)       0           embedding_2[0][0]                
__________________________________________________________________________________________________
input_1 (InputLayer)            (None, 67)           0                                            
__________________________________________________________________________________________________
lambda_1 (Lambda)               (None, 24, 64)       0           dropout_2[0][0]                  
__________________________________________________________________________________________________
embedding_1 (Embedding)         (None, 67, 64)       6452160     input_1[0][0]                    
__________________________________________________________________________________________________
bidirectional_1 (Bidirectional) (None, 128)          49536       lambda_1[0][0]                   
__________________________________________________________________________________________________
dropout_1 (Dropout)             (None, 67, 64)       0           embedding_1[0][0]                
__________________________________________________________________________________________________
lambda_2 (Lambda)               (None, 67, 128)      0           bidirectional_1[0][0]            
__________________________________________________________________________________________________
concatenate_1 (Concatenate)     (None, 67, 192)      0           dropout_1[0][0]                  
                                                                 lambda_2[0][0]                   
__________________________________________________________________________________________________
bidirectional_2 (Bidirectional) (None, 67, 384)      443520      concatenate_1[0][0]              
__________________________________________________________________________________________________
crf_1 (CRF)                     (None, 67, 10)       3970        bidirectional_2[0][0]            
==================================================================================================
Total params: 6,955,266
Trainable params: 6,955,266
Non-trainable params: 0
__________________________________________________________________________________________________
Train on 753 samples, validate on 84 samples
Epoch 1/70

 32/753 [>.............................] - ETA: 1:04 - loss: 2.5057 - acc: 0.0189
…
Padding...
Data padded!
Padding...
Data padded!
Padded until 67 tokens.
Mapping...
Data mapped!
Mapping...
Data mapped!
Padding...
Data padded!
Padding...
Data padded!
Padded until 24 chars.
Padded until 67 tokens.
Padded until 24 chars.
Padded until 67 tokens.
Model Choice:
__________________________________________________________________________________________________
Layer (type)                    Output Shape         Param #     Connected to                     
==================================================================================================
input_2 (InputLayer)            (None, 67, 24)       0                                            
__________________________________________________________________________________________________
embedding_2 (Embedding)         (None, 24, 64)       6080        input_2[0][0]                    
__________________________________________________________________________________________________
dropout_2 (Dropout)             (None, 24, 64)       0           embedding_2[0][0]                
__________________________________________________________________________________________________
input_1 (InputLayer)            (None, 67)           0                                            
__________________________________________________________________________________________________
lambda_1 (Lambda)               (None, 24, 64)       0           dropout_2[0][0]                  
__________________________________________________________________________________________________
embedding_1 (Embedding)         (None, 67, 64)       6450304     input_1[0][0]                    
__________________________________________________________________________________________________
bidirectional_1 (Bidirectional) (None, 128)          49536       lambda_1[0][0]                   
__________________________________________________________________________________________________
dropout_1 (Dropout)             (None, 67, 64)       0           embedding_1[0][0]                
__________________________________________________________________________________________________
lambda_2 (Lambda)               (None, 67, 128)      0           bidirectional_1[0][0]            
__________________________________________________________________________________________________
concatenate_1 (Concatenate)     (None, 67, 192)      0           dropout_1[0][0]                  
                                                                 lambda_2[0][0]                   
__________________________________________________________________________________________________
bidirectional_2 (Bidirectional) (None, 67, 384)      443520      concatenate_1[0][0]              
__________________________________________________________________________________________________
crf_1 (CRF)                     (None, 67, 10)       3970        bidirectional_2[0][0]            
==================================================================================================
Total params: 6,953,410
Trainable params: 6,953,410
Non-trainable params: 0
__________________________________________________________________________________________________
Train on 753 samples, validate on 84 samples
Epoch 1/70

 32/753 [>.............................] - ETA: 1:18 - loss: 2.1872 - acc: 0.0393
…
Padding...
Data padded!
Padding...
Data padded!
Padded until 83 tokens.
Mapping...
Data mapped!
Mapping...
Data mapped!
Padding...
Data padded!
Padding...
Data padded!
Padded until 24 chars.
Padded until 83 tokens.
Padded until 24 chars.
Padded until 83 tokens.
Model Choice:
__________________________________________________________________________________________________
Layer (type)                    Output Shape         Param #     Connected to                     
==================================================================================================
input_2 (InputLayer)            (None, 83, 24)       0                                            
__________________________________________________________________________________________________
embedding_2 (Embedding)         (None, 24, 64)       6080        input_2[0][0]                    
__________________________________________________________________________________________________
dropout_2 (Dropout)             (None, 24, 64)       0           embedding_2[0][0]                
__________________________________________________________________________________________________
input_1 (InputLayer)            (None, 83)           0                                            
__________________________________________________________________________________________________
lambda_1 (Lambda)               (None, 24, 64)       0           dropout_2[0][0]                  
__________________________________________________________________________________________________
embedding_1 (Embedding)         (None, 83, 64)       6452544     input_1[0][0]                    
__________________________________________________________________________________________________
bidirectional_1 (Bidirectional) (None, 128)          49536       lambda_1[0][0]                   
__________________________________________________________________________________________________
dropout_1 (Dropout)             (None, 83, 64)       0           embedding_1[0][0]                
__________________________________________________________________________________________________
lambda_2 (Lambda)               (None, 83, 128)      0           bidirectional_1[0][0]            
__________________________________________________________________________________________________
concatenate_1 (Concatenate)     (None, 83, 192)      0           dropout_1[0][0]                  
                                                                 lambda_2[0][0]                   
__________________________________________________________________________________________________
bidirectional_2 (Bidirectional) (None, 83, 384)      443520      concatenate_1[0][0]              
__________________________________________________________________________________________________
crf_1 (CRF)                     (None, 83, 10)       3970        bidirectional_2[0][0]            
==================================================================================================
Total params: 6,955,650
Trainable params: 6,955,650
Non-trainable params: 0
__________________________________________________________________________________________________
Train on 753 samples, validate on 84 samples
Epoch 1/70

 32/753 [>.............................] - ETA: 1:11 - loss: 1.8716 - acc: 0.7878
…
Padding...
Data padded!
Padding...
Data padded!
Padded until 63 tokens.
Mapping...
Data mapped!
Mapping...
Data mapped!
Padding...
Data padded!
Padding...
Data padded!
Padded until 24 chars.
Padded until 63 tokens.
Padded until 24 chars.
Padded until 63 tokens.
Model Choice:
__________________________________________________________________________________________________
Layer (type)                    Output Shape         Param #     Connected to                     
==================================================================================================
input_2 (InputLayer)            (None, 63, 24)       0                                            
__________________________________________________________________________________________________
embedding_2 (Embedding)         (None, 24, 64)       6080        input_2[0][0]                    
__________________________________________________________________________________________________
dropout_2 (Dropout)             (None, 24, 64)       0           embedding_2[0][0]                
__________________________________________________________________________________________________
input_1 (InputLayer)            (None, 63)           0                                            
__________________________________________________________________________________________________
lambda_1 (Lambda)               (None, 24, 64)       0           dropout_2[0][0]                  
__________________________________________________________________________________________________
embedding_1 (Embedding)         (None, 63, 64)       6451520     input_1[0][0]                    
__________________________________________________________________________________________________
bidirectional_1 (Bidirectional) (None, 128)          49536       lambda_1[0][0]                   
__________________________________________________________________________________________________
dropout_1 (Dropout)             (None, 63, 64)       0           embedding_1[0][0]                
__________________________________________________________________________________________________
lambda_2 (Lambda)               (None, 63, 128)      0           bidirectional_1[0][0]            
__________________________________________________________________________________________________
concatenate_1 (Concatenate)     (None, 63, 192)      0           dropout_1[0][0]                  
                                                                 lambda_2[0][0]                   
__________________________________________________________________________________________________
bidirectional_2 (Bidirectional) (None, 63, 384)      443520      concatenate_1[0][0]              
__________________________________________________________________________________________________
crf_1 (CRF)                     (None, 63, 10)       3970        bidirectional_2[0][0]            
==================================================================================================
Total params: 6,954,626
Trainable params: 6,954,626
Non-trainable params: 0
__________________________________________________________________________________________________
Train on 753 samples, validate on 84 samples
Epoch 1/70

 32/753 [>.............................] - ETA: 1:02 - loss: 2.2313 - acc: 0.1029
…
Padding...
Data padded!
Padding...
Data padded!
Padded until 67 tokens.
Mapping...
Data mapped!
Mapping...
Data mapped!
Padding...
Data padded!
Padding...
Data padded!
Padded until 24 chars.
Padded until 67 tokens.
Padded until 24 chars.
Padded until 67 tokens.
Model Choice:
__________________________________________________________________________________________________
Layer (type)                    Output Shape         Param #     Connected to                     
==================================================================================================
input_2 (InputLayer)            (None, 67, 24)       0                                            
__________________________________________________________________________________________________
embedding_2 (Embedding)         (None, 24, 64)       6080        input_2[0][0]                    
__________________________________________________________________________________________________
dropout_2 (Dropout)             (None, 24, 64)       0           embedding_2[0][0]                
__________________________________________________________________________________________________
input_1 (InputLayer)            (None, 67)           0                                            
__________________________________________________________________________________________________
lambda_1 (Lambda)               (None, 24, 64)       0           dropout_2[0][0]                  
__________________________________________________________________________________________________
embedding_1 (Embedding)         (None, 67, 64)       6451008     input_1[0][0]                    
__________________________________________________________________________________________________
bidirectional_1 (Bidirectional) (None, 128)          49536       lambda_1[0][0]                   
__________________________________________________________________________________________________
dropout_1 (Dropout)             (None, 67, 64)       0           embedding_1[0][0]                
__________________________________________________________________________________________________
lambda_2 (Lambda)               (None, 67, 128)      0           bidirectional_1[0][0]            
__________________________________________________________________________________________________
concatenate_1 (Concatenate)     (None, 67, 192)      0           dropout_1[0][0]                  
                                                                 lambda_2[0][0]                   
__________________________________________________________________________________________________
bidirectional_2 (Bidirectional) (None, 67, 384)      443520      concatenate_1[0][0]              
__________________________________________________________________________________________________
crf_1 (CRF)                     (None, 67, 10)       3970        bidirectional_2[0][0]            
==================================================================================================
Total params: 6,954,114
Trainable params: 6,954,114
Non-trainable params: 0
__________________________________________________________________________________________________
Train on 753 samples, validate on 84 samples
Epoch 1/70

 32/753 [>.............................] - ETA: 1:06 - loss: 2.1497 - acc: 0.1834
…
Padding...
Data padded!
Padding...
Data padded!
Padded until 57 tokens.
Mapping...
Data mapped!
Mapping...
Data mapped!
Padding...
Data padded!
Padding...
Data padded!
Padded until 24 chars.
Padded until 57 tokens.
Padded until 24 chars.
Padded until 57 tokens.
Model Choice:
__________________________________________________________________________________________________
Layer (type)                    Output Shape         Param #     Connected to                     
==================================================================================================
input_2 (InputLayer)            (None, 57, 24)       0                                            
__________________________________________________________________________________________________
embedding_2 (Embedding)         (None, 24, 64)       6080        input_2[0][0]                    
__________________________________________________________________________________________________
dropout_2 (Dropout)             (None, 24, 64)       0           embedding_2[0][0]                
__________________________________________________________________________________________________
input_1 (InputLayer)            (None, 57)           0                                            
__________________________________________________________________________________________________
lambda_1 (Lambda)               (None, 24, 64)       0           dropout_2[0][0]                  
__________________________________________________________________________________________________
embedding_1 (Embedding)         (None, 57, 64)       6422976     input_1[0][0]                    
__________________________________________________________________________________________________
bidirectional_1 (Bidirectional) (None, 128)          49536       lambda_1[0][0]                   
__________________________________________________________________________________________________
dropout_1 (Dropout)             (None, 57, 64)       0           embedding_1[0][0]                
__________________________________________________________________________________________________
lambda_2 (Lambda)               (None, 57, 128)      0           bidirectional_1[0][0]            
__________________________________________________________________________________________________
concatenate_1 (Concatenate)     (None, 57, 192)      0           dropout_1[0][0]                  
                                                                 lambda_2[0][0]                   
__________________________________________________________________________________________________
bidirectional_2 (Bidirectional) (None, 57, 384)      443520      concatenate_1[0][0]              
__________________________________________________________________________________________________
crf_1 (CRF)                     (None, 57, 10)       3970        bidirectional_2[0][0]            
==================================================================================================
Total params: 6,926,082
Trainable params: 6,926,082
Non-trainable params: 0
__________________________________________________________________________________________________
Train on 300 samples, validate on 34 samples
Epoch 1/70

 32/300 [==>...........................] - ETA: 22s - loss: 2.2196 - acc: 0.1212
…
Padding...
Data padded!
Padding...
Data padded!
Padded until 58 tokens.
Mapping...
Data mapped!
Mapping...
Data mapped!
Padding...
Data padded!
Padding...
Data padded!
Padded until 24 chars.
Padded until 58 tokens.
Padded until 24 chars.
Padded until 58 tokens.
Model Choice:
__________________________________________________________________________________________________
Layer (type)                    Output Shape         Param #     Connected to                     
==================================================================================================
input_2 (InputLayer)            (None, 58, 24)       0                                            
__________________________________________________________________________________________________
embedding_2 (Embedding)         (None, 24, 64)       6080        input_2[0][0]                    
__________________________________________________________________________________________________
dropout_2 (Dropout)             (None, 24, 64)       0           embedding_2[0][0]                
__________________________________________________________________________________________________
input_1 (InputLayer)            (None, 58)           0                                            
__________________________________________________________________________________________________
lambda_1 (Lambda)               (None, 24, 64)       0           dropout_2[0][0]                  
__________________________________________________________________________________________________
embedding_1 (Embedding)         (None, 58, 64)       6425344     input_1[0][0]                    
__________________________________________________________________________________________________
bidirectional_1 (Bidirectional) (None, 128)          49536       lambda_1[0][0]                   
__________________________________________________________________________________________________
dropout_1 (Dropout)             (None, 58, 64)       0           embedding_1[0][0]                
__________________________________________________________________________________________________
lambda_2 (Lambda)               (None, 58, 128)      0           bidirectional_1[0][0]            
__________________________________________________________________________________________________
concatenate_1 (Concatenate)     (None, 58, 192)      0           dropout_1[0][0]                  
                                                                 lambda_2[0][0]                   
__________________________________________________________________________________________________
bidirectional_2 (Bidirectional) (None, 58, 384)      443520      concatenate_1[0][0]              
__________________________________________________________________________________________________
crf_1 (CRF)                     (None, 58, 10)       3970        bidirectional_2[0][0]            
==================================================================================================
Total params: 6,928,450
Trainable params: 6,928,450
Non-trainable params: 0
__________________________________________________________________________________________________
Train on 300 samples, validate on 34 samples
Epoch 1/70

 32/300 [==>...........................] - ETA: 21s - loss: 2.5785 - acc: 0.0267
…
Padding...
Data padded!
Padding...
Data padded!
Padded until 66 tokens.
Mapping...
Data mapped!
Mapping...
Data mapped!
Padding...
Data padded!
Padding...
Data padded!
Padded until 24 chars.
Padded until 66 tokens.
Padded until 24 chars.
Padded until 66 tokens.
Model Choice:
__________________________________________________________________________________________________
Layer (type)                    Output Shape         Param #     Connected to                     
==================================================================================================
input_2 (InputLayer)            (None, 66, 24)       0                                            
__________________________________________________________________________________________________
embedding_2 (Embedding)         (None, 24, 64)       6080        input_2[0][0]                    
__________________________________________________________________________________________________
dropout_2 (Dropout)             (None, 24, 64)       0           embedding_2[0][0]                
__________________________________________________________________________________________________
input_1 (InputLayer)            (None, 66)           0                                            
__________________________________________________________________________________________________
lambda_1 (Lambda)               (None, 24, 64)       0           dropout_2[0][0]                  
__________________________________________________________________________________________________
embedding_1 (Embedding)         (None, 66, 64)       6423296     input_1[0][0]                    
__________________________________________________________________________________________________
bidirectional_1 (Bidirectional) (None, 128)          49536       lambda_1[0][0]                   
__________________________________________________________________________________________________
dropout_1 (Dropout)             (None, 66, 64)       0           embedding_1[0][0]                
__________________________________________________________________________________________________
lambda_2 (Lambda)               (None, 66, 128)      0           bidirectional_1[0][0]            
__________________________________________________________________________________________________
concatenate_1 (Concatenate)     (None, 66, 192)      0           dropout_1[0][0]                  
                                                                 lambda_2[0][0]                   
__________________________________________________________________________________________________
bidirectional_2 (Bidirectional) (None, 66, 384)      443520      concatenate_1[0][0]              
__________________________________________________________________________________________________
crf_1 (CRF)                     (None, 66, 10)       3970        bidirectional_2[0][0]            
==================================================================================================
Total params: 6,926,402
Trainable params: 6,926,402
Non-trainable params: 0
__________________________________________________________________________________________________
Train on 300 samples, validate on 34 samples
Epoch 1/70

 32/300 [==>...........................] - ETA: 22s - loss: 2.0282 - acc: 0.2108
…
Padding...
Data padded!
Padding...
Data padded!
Padded until 57 tokens.
Mapping...
Data mapped!
Mapping...
Data mapped!
Padding...
Data padded!
Padding...
Data padded!
Padded until 24 chars.
Padded until 57 tokens.
Padded until 24 chars.
Padded until 57 tokens.
Model Choice:
__________________________________________________________________________________________________
Layer (type)                    Output Shape         Param #     Connected to                     
==================================================================================================
input_2 (InputLayer)            (None, 57, 24)       0                                            
__________________________________________________________________________________________________
embedding_2 (Embedding)         (None, 24, 64)       6080        input_2[0][0]                    
__________________________________________________________________________________________________
dropout_2 (Dropout)             (None, 24, 64)       0           embedding_2[0][0]                
__________________________________________________________________________________________________
input_1 (InputLayer)            (None, 57)           0                                            
__________________________________________________________________________________________________
lambda_1 (Lambda)               (None, 24, 64)       0           dropout_2[0][0]                  
__________________________________________________________________________________________________
embedding_1 (Embedding)         (None, 57, 64)       6423232     input_1[0][0]                    
__________________________________________________________________________________________________
bidirectional_1 (Bidirectional) (None, 128)          49536       lambda_1[0][0]                   
__________________________________________________________________________________________________
dropout_1 (Dropout)             (None, 57, 64)       0           embedding_1[0][0]                
__________________________________________________________________________________________________
lambda_2 (Lambda)               (None, 57, 128)      0           bidirectional_1[0][0]            
__________________________________________________________________________________________________
concatenate_1 (Concatenate)     (None, 57, 192)      0           dropout_1[0][0]                  
                                                                 lambda_2[0][0]                   
__________________________________________________________________________________________________
bidirectional_2 (Bidirectional) (None, 57, 384)      443520      concatenate_1[0][0]              
__________________________________________________________________________________________________
crf_1 (CRF)                     (None, 57, 10)       3970        bidirectional_2[0][0]            
==================================================================================================
Total params: 6,926,338
Trainable params: 6,926,338
Non-trainable params: 0
__________________________________________________________________________________________________
Train on 300 samples, validate on 34 samples
Epoch 1/70

 32/300 [==>...........................] - ETA: 22s - loss: 2.1473 - acc: 0.2942
…
Padding...
Data padded!
Padding...
Data padded!
Padded until 63 tokens.
Mapping...
Data mapped!
Mapping...
Data mapped!
Padding...
Data padded!
Padding...
Data padded!
Padded until 24 chars.
Padded until 63 tokens.
Padded until 24 chars.
Padded until 63 tokens.
Model Choice:
__________________________________________________________________________________________________
Layer (type)                    Output Shape         Param #     Connected to                     
==================================================================================================
input_2 (InputLayer)            (None, 63, 24)       0                                            
__________________________________________________________________________________________________
embedding_2 (Embedding)         (None, 24, 64)       6080        input_2[0][0]                    
__________________________________________________________________________________________________
dropout_2 (Dropout)             (None, 24, 64)       0           embedding_2[0][0]                
__________________________________________________________________________________________________
input_1 (InputLayer)            (None, 63)           0                                            
__________________________________________________________________________________________________
lambda_1 (Lambda)               (None, 24, 64)       0           dropout_2[0][0]                  
__________________________________________________________________________________________________
embedding_1 (Embedding)         (None, 63, 64)       6424384     input_1[0][0]                    
__________________________________________________________________________________________________
bidirectional_1 (Bidirectional) (None, 128)          49536       lambda_1[0][0]                   
__________________________________________________________________________________________________
dropout_1 (Dropout)             (None, 63, 64)       0           embedding_1[0][0]                
__________________________________________________________________________________________________
lambda_2 (Lambda)               (None, 63, 128)      0           bidirectional_1[0][0]            
__________________________________________________________________________________________________
concatenate_1 (Concatenate)     (None, 63, 192)      0           dropout_1[0][0]                  
                                                                 lambda_2[0][0]                   
__________________________________________________________________________________________________
bidirectional_2 (Bidirectional) (None, 63, 384)      443520      concatenate_1[0][0]              
__________________________________________________________________________________________________
crf_1 (CRF)                     (None, 63, 10)       3970        bidirectional_2[0][0]            
==================================================================================================
Total params: 6,927,490
Trainable params: 6,927,490
Non-trainable params: 0
__________________________________________________________________________________________________
Train on 300 samples, validate on 34 samples
Epoch 1/70

 32/300 [==>...........................] - ETA: 22s - loss: 2.0438 - acc: 0.6121
…
Padding...
Data padded!
Padding...
Data padded!
Padded until 58 tokens.
Mapping...
Data mapped!
Mapping...
Data mapped!
Padding...
Data padded!
Padding...
Data padded!
Padded until 24 chars.
Padded until 58 tokens.
Padded until 24 chars.
Padded until 58 tokens.
Model Choice:
__________________________________________________________________________________________________
Layer (type)                    Output Shape         Param #     Connected to                     
==================================================================================================
input_2 (InputLayer)            (None, 58, 24)       0                                            
__________________________________________________________________________________________________
embedding_2 (Embedding)         (None, 24, 64)       6080        input_2[0][0]                    
__________________________________________________________________________________________________
dropout_2 (Dropout)             (None, 24, 64)       0           embedding_2[0][0]                
__________________________________________________________________________________________________
input_1 (InputLayer)            (None, 58)           0                                            
__________________________________________________________________________________________________
lambda_1 (Lambda)               (None, 24, 64)       0           dropout_2[0][0]                  
__________________________________________________________________________________________________
embedding_1 (Embedding)         (None, 58, 64)       6422720     input_1[0][0]                    
__________________________________________________________________________________________________
bidirectional_1 (Bidirectional) (None, 128)          49536       lambda_1[0][0]                   
__________________________________________________________________________________________________
dropout_1 (Dropout)             (None, 58, 64)       0           embedding_1[0][0]                
__________________________________________________________________________________________________
lambda_2 (Lambda)               (None, 58, 128)      0           bidirectional_1[0][0]            
__________________________________________________________________________________________________
concatenate_1 (Concatenate)     (None, 58, 192)      0           dropout_1[0][0]                  
                                                                 lambda_2[0][0]                   
__________________________________________________________________________________________________
bidirectional_2 (Bidirectional) (None, 58, 384)      443520      concatenate_1[0][0]              
__________________________________________________________________________________________________
crf_1 (CRF)                     (None, 58, 10)       3970        bidirectional_2[0][0]            
==================================================================================================
Total params: 6,925,826
Trainable params: 6,925,826
Non-trainable params: 0
__________________________________________________________________________________________________
Train on 300 samples, validate on 34 samples
Epoch 1/70

 32/300 [==>...........................] - ETA: 21s - loss: 2.2181 - acc: 0.1291
…
Padding...
Data padded!
Padding...
Data padded!
Padded until 58 tokens.
Mapping...
Data mapped!
Mapping...
Data mapped!
Padding...
Data padded!
Padding...
Data padded!
Padded until 24 chars.
Padded until 58 tokens.
Padded until 24 chars.
Padded until 58 tokens.
Model Choice:
__________________________________________________________________________________________________
Layer (type)                    Output Shape         Param #     Connected to                     
==================================================================================================
input_2 (InputLayer)            (None, 58, 24)       0                                            
__________________________________________________________________________________________________
embedding_2 (Embedding)         (None, 24, 64)       6080        input_2[0][0]                    
__________________________________________________________________________________________________
dropout_2 (Dropout)             (None, 24, 64)       0           embedding_2[0][0]                
__________________________________________________________________________________________________
input_1 (InputLayer)            (None, 58)           0                                            
__________________________________________________________________________________________________
lambda_1 (Lambda)               (None, 24, 64)       0           dropout_2[0][0]                  
__________________________________________________________________________________________________
embedding_1 (Embedding)         (None, 58, 64)       6424320     input_1[0][0]                    
__________________________________________________________________________________________________
bidirectional_1 (Bidirectional) (None, 128)          49536       lambda_1[0][0]                   
__________________________________________________________________________________________________
dropout_1 (Dropout)             (None, 58, 64)       0           embedding_1[0][0]                
__________________________________________________________________________________________________
lambda_2 (Lambda)               (None, 58, 128)      0           bidirectional_1[0][0]            
__________________________________________________________________________________________________
concatenate_1 (Concatenate)     (None, 58, 192)      0           dropout_1[0][0]                  
                                                                 lambda_2[0][0]                   
__________________________________________________________________________________________________
bidirectional_2 (Bidirectional) (None, 58, 384)      443520      concatenate_1[0][0]              
__________________________________________________________________________________________________
crf_1 (CRF)                     (None, 58, 10)       3970        bidirectional_2[0][0]            
==================================================================================================
Total params: 6,927,426
Trainable params: 6,927,426
Non-trainable params: 0
__________________________________________________________________________________________________
Train on 300 samples, validate on 34 samples
Epoch 1/70

 32/300 [==>...........................] - ETA: 21s - loss: 2.2201 - acc: 0.0837
…
Padding...
Data padded!
Padding...
Data padded!
Padded until 58 tokens.
Mapping...
Data mapped!
Mapping...
Data mapped!
Padding...
Data padded!
Padding...
Data padded!
Padded until 24 chars.
Padded until 58 tokens.
Padded until 24 chars.
Padded until 58 tokens.
Model Choice:
__________________________________________________________________________________________________
Layer (type)                    Output Shape         Param #     Connected to                     
==================================================================================================
input_2 (InputLayer)            (None, 58, 24)       0                                            
__________________________________________________________________________________________________
embedding_2 (Embedding)         (None, 24, 64)       6080        input_2[0][0]                    
__________________________________________________________________________________________________
dropout_2 (Dropout)             (None, 24, 64)       0           embedding_2[0][0]                
__________________________________________________________________________________________________
input_1 (InputLayer)            (None, 58)           0                                            
__________________________________________________________________________________________________
lambda_1 (Lambda)               (None, 24, 64)       0           dropout_2[0][0]                  
__________________________________________________________________________________________________
embedding_1 (Embedding)         (None, 58, 64)       6424000     input_1[0][0]                    
__________________________________________________________________________________________________
bidirectional_1 (Bidirectional) (None, 128)          49536       lambda_1[0][0]                   
__________________________________________________________________________________________________
dropout_1 (Dropout)             (None, 58, 64)       0           embedding_1[0][0]                
__________________________________________________________________________________________________
lambda_2 (Lambda)               (None, 58, 128)      0           bidirectional_1[0][0]            
__________________________________________________________________________________________________
concatenate_1 (Concatenate)     (None, 58, 192)      0           dropout_1[0][0]                  
                                                                 lambda_2[0][0]                   
__________________________________________________________________________________________________
bidirectional_2 (Bidirectional) (None, 58, 384)      443520      concatenate_1[0][0]              
__________________________________________________________________________________________________
crf_1 (CRF)                     (None, 58, 10)       3970        bidirectional_2[0][0]            
==================================================================================================
Total params: 6,927,106
Trainable params: 6,927,106
Non-trainable params: 0
__________________________________________________________________________________________________
Train on 300 samples, validate on 34 samples
Epoch 1/70

 32/300 [==>...........................] - ETA: 21s - loss: 2.4939 - acc: 0.0377
…
Padding...
Data padded!
Padding...
Data padded!
Padded until 67 tokens.
Mapping...
Data mapped!
Mapping...
Data mapped!
Padding...
Data padded!
Padding...
Data padded!
Padded until 24 chars.
Padded until 67 tokens.
Padded until 24 chars.
Padded until 67 tokens.
Model Choice:
__________________________________________________________________________________________________
Layer (type)                    Output Shape         Param #     Connected to                     
==================================================================================================
input_2 (InputLayer)            (None, 67, 24)       0                                            
__________________________________________________________________________________________________
embedding_2 (Embedding)         (None, 24, 64)       6080        input_2[0][0]                    
__________________________________________________________________________________________________
dropout_2 (Dropout)             (None, 24, 64)       0           embedding_2[0][0]                
__________________________________________________________________________________________________
input_1 (InputLayer)            (None, 67)           0                                            
__________________________________________________________________________________________________
lambda_1 (Lambda)               (None, 24, 64)       0           dropout_2[0][0]                  
__________________________________________________________________________________________________
embedding_1 (Embedding)         (None, 67, 64)       6426112     input_1[0][0]                    
__________________________________________________________________________________________________
bidirectional_1 (Bidirectional) (None, 128)          49536       lambda_1[0][0]                   
__________________________________________________________________________________________________
dropout_1 (Dropout)             (None, 67, 64)       0           embedding_1[0][0]                
__________________________________________________________________________________________________
lambda_2 (Lambda)               (None, 67, 128)      0           bidirectional_1[0][0]            
__________________________________________________________________________________________________
concatenate_1 (Concatenate)     (None, 67, 192)      0           dropout_1[0][0]                  
                                                                 lambda_2[0][0]                   
__________________________________________________________________________________________________
bidirectional_2 (Bidirectional) (None, 67, 384)      443520      concatenate_1[0][0]              
__________________________________________________________________________________________________
crf_1 (CRF)                     (None, 67, 10)       3970        bidirectional_2[0][0]            
==================================================================================================
Total params: 6,929,218
Trainable params: 6,929,218
Non-trainable params: 0
__________________________________________________________________________________________________
Train on 300 samples, validate on 34 samples
Epoch 1/70

 32/300 [==>...........................] - ETA: 22s - loss: 2.4951 - acc: 0.0178
…
Padding...
Data padded!
Padding...
Data padded!
Padded until 66 tokens.
Mapping...
Data mapped!
Mapping...
Data mapped!
Padding...
Data padded!
Padding...
Data padded!
Padded until 24 chars.
Padded until 66 tokens.
Padded until 24 chars.
Padded until 66 tokens.
Model Choice:
__________________________________________________________________________________________________
Layer (type)                    Output Shape         Param #     Connected to                     
==================================================================================================
input_2 (InputLayer)            (None, 66, 24)       0                                            
__________________________________________________________________________________________________
embedding_2 (Embedding)         (None, 24, 64)       6080        input_2[0][0]                    
__________________________________________________________________________________________________
dropout_2 (Dropout)             (None, 24, 64)       0           embedding_2[0][0]                
__________________________________________________________________________________________________
input_1 (InputLayer)            (None, 66)           0                                            
__________________________________________________________________________________________________
lambda_1 (Lambda)               (None, 24, 64)       0           dropout_2[0][0]                  
__________________________________________________________________________________________________
embedding_1 (Embedding)         (None, 66, 64)       6426240     input_1[0][0]                    
__________________________________________________________________________________________________
bidirectional_1 (Bidirectional) (None, 128)          49536       lambda_1[0][0]                   
__________________________________________________________________________________________________
dropout_1 (Dropout)             (None, 66, 64)       0           embedding_1[0][0]                
__________________________________________________________________________________________________
lambda_2 (Lambda)               (None, 66, 128)      0           bidirectional_1[0][0]            
__________________________________________________________________________________________________
concatenate_1 (Concatenate)     (None, 66, 192)      0           dropout_1[0][0]                  
                                                                 lambda_2[0][0]                   
__________________________________________________________________________________________________
bidirectional_2 (Bidirectional) (None, 66, 384)      443520      concatenate_1[0][0]              
__________________________________________________________________________________________________
crf_1 (CRF)                     (None, 66, 10)       3970        bidirectional_2[0][0]            
==================================================================================================
Total params: 6,929,346
Trainable params: 6,929,346
Non-trainable params: 0
__________________________________________________________________________________________________
Train on 300 samples, validate on 34 samples
Epoch 1/70

 32/300 [==>...........................] - ETA: 23s - loss: 2.4548 - acc: 0.0093
…
Padding...
Data padded!
Padding...
Data padded!
Padded until 83 tokens.
Mapping...
Data mapped!
Mapping...
Data mapped!
Padding...
Data padded!
Padding...
Data padded!
Padded until 24 chars.
Padded until 83 tokens.
Padded until 24 chars.
Padded until 83 tokens.
Model Choice:
__________________________________________________________________________________________________
Layer (type)                    Output Shape         Param #     Connected to                     
==================================================================================================
input_2 (InputLayer)            (None, 83, 24)       0                                            
__________________________________________________________________________________________________
embedding_2 (Embedding)         (None, 24, 64)       6080        input_2[0][0]                    
__________________________________________________________________________________________________
dropout_2 (Dropout)             (None, 24, 64)       0           embedding_2[0][0]                
__________________________________________________________________________________________________
input_1 (InputLayer)            (None, 83)           0                                            
__________________________________________________________________________________________________
lambda_1 (Lambda)               (None, 24, 64)       0           dropout_2[0][0]                  
__________________________________________________________________________________________________
embedding_1 (Embedding)         (None, 83, 64)       6424896     input_1[0][0]                    
__________________________________________________________________________________________________
bidirectional_1 (Bidirectional) (None, 128)          49536       lambda_1[0][0]                   
__________________________________________________________________________________________________
dropout_1 (Dropout)             (None, 83, 64)       0           embedding_1[0][0]                
__________________________________________________________________________________________________
lambda_2 (Lambda)               (None, 83, 128)      0           bidirectional_1[0][0]            
__________________________________________________________________________________________________
concatenate_1 (Concatenate)     (None, 83, 192)      0           dropout_1[0][0]                  
                                                                 lambda_2[0][0]                   
__________________________________________________________________________________________________
bidirectional_2 (Bidirectional) (None, 83, 384)      443520      concatenate_1[0][0]              
__________________________________________________________________________________________________
crf_1 (CRF)                     (None, 83, 10)       3970        bidirectional_2[0][0]            
==================================================================================================
Total params: 6,928,002
Trainable params: 6,928,002
Non-trainable params: 0
__________________________________________________________________________________________________
Train on 300 samples, validate on 34 samples
Epoch 1/70

 32/300 [==>...........................] - ETA: 23s - loss: 2.2508 - acc: 0.0398
…
Padding...
Data padded!
Padding...
Data padded!
Padded until 57 tokens.
Mapping...
Data mapped!
Mapping...
Data mapped!
Padding...
Data padded!
Padding...
Data padded!
Padded until 24 chars.
Padded until 57 tokens.
Padded until 24 chars.
Padded until 57 tokens.
Model Choice:
__________________________________________________________________________________________________
Layer (type)                    Output Shape         Param #     Connected to                     
==================================================================================================
input_2 (InputLayer)            (None, 57, 24)       0                                            
__________________________________________________________________________________________________
embedding_2 (Embedding)         (None, 24, 64)       6080        input_2[0][0]                    
__________________________________________________________________________________________________
dropout_2 (Dropout)             (None, 24, 64)       0           embedding_2[0][0]                
__________________________________________________________________________________________________
input_1 (InputLayer)            (None, 57)           0                                            
__________________________________________________________________________________________________
lambda_1 (Lambda)               (None, 24, 64)       0           dropout_2[0][0]                  
__________________________________________________________________________________________________
embedding_1 (Embedding)         (None, 57, 64)       6423872     input_1[0][0]                    
__________________________________________________________________________________________________
bidirectional_1 (Bidirectional) (None, 128)          49536       lambda_1[0][0]                   
__________________________________________________________________________________________________
dropout_1 (Dropout)             (None, 57, 64)       0           embedding_1[0][0]                
__________________________________________________________________________________________________
lambda_2 (Lambda)               (None, 57, 128)      0           bidirectional_1[0][0]            
__________________________________________________________________________________________________
concatenate_1 (Concatenate)     (None, 57, 192)      0           dropout_1[0][0]                  
                                                                 lambda_2[0][0]                   
__________________________________________________________________________________________________
bidirectional_2 (Bidirectional) (None, 57, 384)      443520      concatenate_1[0][0]              
__________________________________________________________________________________________________
crf_1 (CRF)                     (None, 57, 10)       3970        bidirectional_2[0][0]            
==================================================================================================
Total params: 6,926,978
Trainable params: 6,926,978
Non-trainable params: 0
__________________________________________________________________________________________________
Train on 300 samples, validate on 34 samples
Epoch 1/70

 32/300 [==>...........................] - ETA: 22s - loss: 2.5666 - acc: 0.0128
…
Padding...
Data padded!
Padding...
Data padded!
Padded until 67 tokens.
Mapping...
Data mapped!
Mapping...
Data mapped!
Padding...
Data padded!
Padding...
Data padded!
Padded until 24 chars.
Padded until 67 tokens.
Padded until 24 chars.
Padded until 67 tokens.
Model Choice:
__________________________________________________________________________________________________
Layer (type)                    Output Shape         Param #     Connected to                     
==================================================================================================
input_2 (InputLayer)            (None, 67, 24)       0                                            
__________________________________________________________________________________________________
embedding_2 (Embedding)         (None, 24, 64)       6080        input_2[0][0]                    
__________________________________________________________________________________________________
dropout_2 (Dropout)             (None, 24, 64)       0           embedding_2[0][0]                
__________________________________________________________________________________________________
input_1 (InputLayer)            (None, 67)           0                                            
__________________________________________________________________________________________________
lambda_1 (Lambda)               (None, 24, 64)       0           dropout_2[0][0]                  
__________________________________________________________________________________________________
embedding_1 (Embedding)         (None, 67, 64)       6424128     input_1[0][0]                    
__________________________________________________________________________________________________
bidirectional_1 (Bidirectional) (None, 128)          49536       lambda_1[0][0]                   
__________________________________________________________________________________________________
dropout_1 (Dropout)             (None, 67, 64)       0           embedding_1[0][0]                
__________________________________________________________________________________________________
lambda_2 (Lambda)               (None, 67, 128)      0           bidirectional_1[0][0]            
__________________________________________________________________________________________________
concatenate_1 (Concatenate)     (None, 67, 192)      0           dropout_1[0][0]                  
                                                                 lambda_2[0][0]                   
__________________________________________________________________________________________________
bidirectional_2 (Bidirectional) (None, 67, 384)      443520      concatenate_1[0][0]              
__________________________________________________________________________________________________
crf_1 (CRF)                     (None, 67, 10)       3970        bidirectional_2[0][0]            
==================================================================================================
Total params: 6,927,234
Trainable params: 6,927,234
Non-trainable params: 0
__________________________________________________________________________________________________
Train on 300 samples, validate on 34 samples
Epoch 1/70

 32/300 [==>...........................] - ETA: 22s - loss: 2.3916 - acc: 0.0172
…
Padding...
Data padded!
Padding...
Data padded!
Padded until 57 tokens.
Mapping...
Data mapped!
Mapping...
Data mapped!
Padding...
Data padded!
Padding...
Data padded!
Padded until 24 chars.
Padded until 57 tokens.
Padded until 24 chars.
Padded until 57 tokens.
Model Choice:
__________________________________________________________________________________________________
Layer (type)                    Output Shape         Param #     Connected to                     
==================================================================================================
input_2 (InputLayer)            (None, 57, 24)       0                                            
__________________________________________________________________________________________________
embedding_2 (Embedding)         (None, 24, 64)       6080        input_2[0][0]                    
__________________________________________________________________________________________________
dropout_2 (Dropout)             (None, 24, 64)       0           embedding_2[0][0]                
__________________________________________________________________________________________________
input_1 (InputLayer)            (None, 57)           0                                            
__________________________________________________________________________________________________
lambda_1 (Lambda)               (None, 24, 64)       0           dropout_2[0][0]                  
__________________________________________________________________________________________________
embedding_1 (Embedding)         (None, 57, 64)       6425472     input_1[0][0]                    
__________________________________________________________________________________________________
bidirectional_1 (Bidirectional) (None, 128)          49536       lambda_1[0][0]                   
__________________________________________________________________________________________________
dropout_1 (Dropout)             (None, 57, 64)       0           embedding_1[0][0]                
__________________________________________________________________________________________________
lambda_2 (Lambda)               (None, 57, 128)      0           bidirectional_1[0][0]            
__________________________________________________________________________________________________
concatenate_1 (Concatenate)     (None, 57, 192)      0           dropout_1[0][0]                  
                                                                 lambda_2[0][0]                   
__________________________________________________________________________________________________
bidirectional_2 (Bidirectional) (None, 57, 384)      443520      concatenate_1[0][0]              
__________________________________________________________________________________________________
crf_1 (CRF)                     (None, 57, 10)       3970        bidirectional_2[0][0]            
==================================================================================================
Total params: 6,928,578
Trainable params: 6,928,578
Non-trainable params: 0
__________________________________________________________________________________________________
Train on 300 samples, validate on 34 samples
Epoch 1/70

 32/300 [==>...........................] - ETA: 21s - loss: 2.0846 - acc: 0.4290
…
Padding...
Data padded!
Padding...
Data padded!
Padded until 57 tokens.
Mapping...
Data mapped!
Mapping...
Data mapped!
Padding...
Data padded!
Padding...
Data padded!
Padded until 24 chars.
Padded until 57 tokens.
Padded until 24 chars.
Padded until 57 tokens.
Model Choice:
__________________________________________________________________________________________________
Layer (type)                    Output Shape         Param #     Connected to                     
==================================================================================================
input_2 (InputLayer)            (None, 57, 24)       0                                            
__________________________________________________________________________________________________
embedding_2 (Embedding)         (None, 24, 64)       6080        input_2[0][0]                    
__________________________________________________________________________________________________
dropout_2 (Dropout)             (None, 24, 64)       0           embedding_2[0][0]                
__________________________________________________________________________________________________
input_1 (InputLayer)            (None, 57)           0                                            
__________________________________________________________________________________________________
lambda_1 (Lambda)               (None, 24, 64)       0           dropout_2[0][0]                  
__________________________________________________________________________________________________
embedding_1 (Embedding)         (None, 57, 64)       6412352     input_1[0][0]                    
__________________________________________________________________________________________________
bidirectional_1 (Bidirectional) (None, 128)          49536       lambda_1[0][0]                   
__________________________________________________________________________________________________
dropout_1 (Dropout)             (None, 57, 64)       0           embedding_1[0][0]                
__________________________________________________________________________________________________
lambda_2 (Lambda)               (None, 57, 128)      0           bidirectional_1[0][0]            
__________________________________________________________________________________________________
concatenate_1 (Concatenate)     (None, 57, 192)      0           dropout_1[0][0]                  
                                                                 lambda_2[0][0]                   
__________________________________________________________________________________________________
bidirectional_2 (Bidirectional) (None, 57, 384)      443520      concatenate_1[0][0]              
__________________________________________________________________________________________________
crf_1 (CRF)                     (None, 57, 10)       3970        bidirectional_2[0][0]            
==================================================================================================
Total params: 6,915,458
Trainable params: 6,915,458
Non-trainable params: 0
__________________________________________________________________________________________________
Train on 150 samples, validate on 17 samples
Epoch 1/70

 32/150 [=====>........................] - ETA: 9s - loss: 2.4456 - acc: 0.0058
…
Padding...
Data padded!
Padding...
Data padded!
Padded until 57 tokens.
Mapping...
Data mapped!
Mapping...
Data mapped!
Padding...
Data padded!
Padding...
Data padded!
Padded until 24 chars.
Padded until 57 tokens.
Padded until 24 chars.
Padded until 57 tokens.
Model Choice:
__________________________________________________________________________________________________
Layer (type)                    Output Shape         Param #     Connected to                     
==================================================================================================
input_2 (InputLayer)            (None, 57, 24)       0                                            
__________________________________________________________________________________________________
embedding_2 (Embedding)         (None, 24, 64)       6080        input_2[0][0]                    
__________________________________________________________________________________________________
dropout_2 (Dropout)             (None, 24, 64)       0           embedding_2[0][0]                
__________________________________________________________________________________________________
input_1 (InputLayer)            (None, 57)           0                                            
__________________________________________________________________________________________________
lambda_1 (Lambda)               (None, 24, 64)       0           dropout_2[0][0]                  
__________________________________________________________________________________________________
embedding_1 (Embedding)         (None, 57, 64)       6414400     input_1[0][0]                    
__________________________________________________________________________________________________
bidirectional_1 (Bidirectional) (None, 128)          49536       lambda_1[0][0]                   
__________________________________________________________________________________________________
dropout_1 (Dropout)             (None, 57, 64)       0           embedding_1[0][0]                
__________________________________________________________________________________________________
lambda_2 (Lambda)               (None, 57, 128)      0           bidirectional_1[0][0]            
__________________________________________________________________________________________________
concatenate_1 (Concatenate)     (None, 57, 192)      0           dropout_1[0][0]                  
                                                                 lambda_2[0][0]                   
__________________________________________________________________________________________________
bidirectional_2 (Bidirectional) (None, 57, 384)      443520      concatenate_1[0][0]              
__________________________________________________________________________________________________
crf_1 (CRF)                     (None, 57, 10)       3970        bidirectional_2[0][0]            
==================================================================================================
Total params: 6,917,506
Trainable params: 6,917,506
Non-trainable params: 0
__________________________________________________________________________________________________
Train on 150 samples, validate on 17 samples
Epoch 1/70

 32/150 [=====>........................] - ETA: 10s - loss: 2.2203 - acc: 0.0194
…
Padding...
Data padded!
Padding...
Data padded!
Padded until 66 tokens.
Mapping...
Data mapped!
Mapping...
Data mapped!
Padding...
Data padded!
Padding...
Data padded!
Padded until 24 chars.
Padded until 66 tokens.
Padded until 24 chars.
Padded until 66 tokens.
Model Choice:
__________________________________________________________________________________________________
Layer (type)                    Output Shape         Param #     Connected to                     
==================================================================================================
input_2 (InputLayer)            (None, 66, 24)       0                                            
__________________________________________________________________________________________________
embedding_2 (Embedding)         (None, 24, 64)       6080        input_2[0][0]                    
__________________________________________________________________________________________________
dropout_2 (Dropout)             (None, 24, 64)       0           embedding_2[0][0]                
__________________________________________________________________________________________________
input_1 (InputLayer)            (None, 66)           0                                            
__________________________________________________________________________________________________
lambda_1 (Lambda)               (None, 24, 64)       0           dropout_2[0][0]                  
__________________________________________________________________________________________________
embedding_1 (Embedding)         (None, 66, 64)       6412352     input_1[0][0]                    
__________________________________________________________________________________________________
bidirectional_1 (Bidirectional) (None, 128)          49536       lambda_1[0][0]                   
__________________________________________________________________________________________________
dropout_1 (Dropout)             (None, 66, 64)       0           embedding_1[0][0]                
__________________________________________________________________________________________________
lambda_2 (Lambda)               (None, 66, 128)      0           bidirectional_1[0][0]            
__________________________________________________________________________________________________
concatenate_1 (Concatenate)     (None, 66, 192)      0           dropout_1[0][0]                  
                                                                 lambda_2[0][0]                   
__________________________________________________________________________________________________
bidirectional_2 (Bidirectional) (None, 66, 384)      443520      concatenate_1[0][0]              
__________________________________________________________________________________________________
crf_1 (CRF)                     (None, 66, 10)       3970        bidirectional_2[0][0]            
==================================================================================================
Total params: 6,915,458
Trainable params: 6,915,458
Non-trainable params: 0
__________________________________________________________________________________________________
Train on 150 samples, validate on 17 samples
Epoch 1/70

 32/150 [=====>........................] - ETA: 9s - loss: 2.1710 - acc: 0.1114
…
Padding...
Data padded!
Padding...
Data padded!
Padded until 63 tokens.
Mapping...
Data mapped!
Mapping...
Data mapped!
Padding...
Data padded!
Padding...
Data padded!
Padded until 24 chars.
Padded until 63 tokens.
Padded until 24 chars.
Padded until 63 tokens.
Model Choice:
__________________________________________________________________________________________________
Layer (type)                    Output Shape         Param #     Connected to                     
==================================================================================================
input_2 (InputLayer)            (None, 63, 24)       0                                            
__________________________________________________________________________________________________
embedding_2 (Embedding)         (None, 24, 64)       6080        input_2[0][0]                    
__________________________________________________________________________________________________
dropout_2 (Dropout)             (None, 24, 64)       0           embedding_2[0][0]                
__________________________________________________________________________________________________
input_1 (InputLayer)            (None, 63)           0                                            
__________________________________________________________________________________________________
lambda_1 (Lambda)               (None, 24, 64)       0           dropout_2[0][0]                  
__________________________________________________________________________________________________
embedding_1 (Embedding)         (None, 63, 64)       6412480     input_1[0][0]                    
__________________________________________________________________________________________________
bidirectional_1 (Bidirectional) (None, 128)          49536       lambda_1[0][0]                   
__________________________________________________________________________________________________
dropout_1 (Dropout)             (None, 63, 64)       0           embedding_1[0][0]                
__________________________________________________________________________________________________
lambda_2 (Lambda)               (None, 63, 128)      0           bidirectional_1[0][0]            
__________________________________________________________________________________________________
concatenate_1 (Concatenate)     (None, 63, 192)      0           dropout_1[0][0]                  
                                                                 lambda_2[0][0]                   
__________________________________________________________________________________________________
bidirectional_2 (Bidirectional) (None, 63, 384)      443520      concatenate_1[0][0]              
__________________________________________________________________________________________________
crf_1 (CRF)                     (None, 63, 10)       3970        bidirectional_2[0][0]            
==================================================================================================
Total params: 6,915,586
Trainable params: 6,915,586
Non-trainable params: 0
__________________________________________________________________________________________________
Train on 150 samples, validate on 17 samples
Epoch 1/70

 32/150 [=====>........................] - ETA: 9s - loss: 2.2336 - acc: 0.0541
…
Padding...
Data padded!
Padding...
Data padded!
Padded until 57 tokens.
Mapping...
Data mapped!
Mapping...
Data mapped!
Padding...
Data padded!
Padding...
Data padded!
Padded until 24 chars.
Padded until 57 tokens.
Padded until 24 chars.
Padded until 57 tokens.
Model Choice:
__________________________________________________________________________________________________
Layer (type)                    Output Shape         Param #     Connected to                     
==================================================================================================
input_2 (InputLayer)            (None, 57, 24)       0                                            
__________________________________________________________________________________________________
embedding_2 (Embedding)         (None, 24, 64)       6080        input_2[0][0]                    
__________________________________________________________________________________________________
dropout_2 (Dropout)             (None, 24, 64)       0           embedding_2[0][0]                
__________________________________________________________________________________________________
input_1 (InputLayer)            (None, 57)           0                                            
__________________________________________________________________________________________________
lambda_1 (Lambda)               (None, 24, 64)       0           dropout_2[0][0]                  
__________________________________________________________________________________________________
embedding_1 (Embedding)         (None, 57, 64)       6411392     input_1[0][0]                    
__________________________________________________________________________________________________
bidirectional_1 (Bidirectional) (None, 128)          49536       lambda_1[0][0]                   
__________________________________________________________________________________________________
dropout_1 (Dropout)             (None, 57, 64)       0           embedding_1[0][0]                
__________________________________________________________________________________________________
lambda_2 (Lambda)               (None, 57, 128)      0           bidirectional_1[0][0]            
__________________________________________________________________________________________________
concatenate_1 (Concatenate)     (None, 57, 192)      0           dropout_1[0][0]                  
                                                                 lambda_2[0][0]                   
__________________________________________________________________________________________________
bidirectional_2 (Bidirectional) (None, 57, 384)      443520      concatenate_1[0][0]              
__________________________________________________________________________________________________
crf_1 (CRF)                     (None, 57, 10)       3970        bidirectional_2[0][0]            
==================================================================================================
Total params: 6,914,498
Trainable params: 6,914,498
Non-trainable params: 0
__________________________________________________________________________________________________
Train on 150 samples, validate on 17 samples
Epoch 1/70

 32/150 [=====>........................] - ETA: 9s - loss: 2.4270 - acc: 0.0122
…
Padding...
Data padded!
Padding...
Data padded!
Padded until 57 tokens.
Mapping...
Data mapped!
Mapping...
Data mapped!
Padding...
Data padded!
Padding...
Data padded!
Padded until 24 chars.
Padded until 57 tokens.
Padded until 24 chars.
Padded until 57 tokens.
Model Choice:
__________________________________________________________________________________________________
Layer (type)                    Output Shape         Param #     Connected to                     
==================================================================================================
input_2 (InputLayer)            (None, 57, 24)       0                                            
__________________________________________________________________________________________________
embedding_2 (Embedding)         (None, 24, 64)       6080        input_2[0][0]                    
__________________________________________________________________________________________________
dropout_2 (Dropout)             (None, 24, 64)       0           embedding_2[0][0]                
__________________________________________________________________________________________________
input_1 (InputLayer)            (None, 57)           0                                            
__________________________________________________________________________________________________
lambda_1 (Lambda)               (None, 24, 64)       0           dropout_2[0][0]                  
__________________________________________________________________________________________________
embedding_1 (Embedding)         (None, 57, 64)       6413248     input_1[0][0]                    
__________________________________________________________________________________________________
bidirectional_1 (Bidirectional) (None, 128)          49536       lambda_1[0][0]                   
__________________________________________________________________________________________________
dropout_1 (Dropout)             (None, 57, 64)       0           embedding_1[0][0]                
__________________________________________________________________________________________________
lambda_2 (Lambda)               (None, 57, 128)      0           bidirectional_1[0][0]            
__________________________________________________________________________________________________
concatenate_1 (Concatenate)     (None, 57, 192)      0           dropout_1[0][0]                  
                                                                 lambda_2[0][0]                   
__________________________________________________________________________________________________
bidirectional_2 (Bidirectional) (None, 57, 384)      443520      concatenate_1[0][0]              
__________________________________________________________________________________________________
crf_1 (CRF)                     (None, 57, 10)       3970        bidirectional_2[0][0]            
==================================================================================================
Total params: 6,916,354
Trainable params: 6,916,354
Non-trainable params: 0
__________________________________________________________________________________________________
Train on 150 samples, validate on 17 samples
Epoch 1/70

 32/150 [=====>........................] - ETA: 9s - loss: 2.5433 - acc: 0.0531
…
Padding...
Data padded!
Padding...
Data padded!
Padded until 58 tokens.
Mapping...
Data mapped!
Mapping...
Data mapped!
Padding...
Data padded!
Padding...
Data padded!
Padded until 24 chars.
Padded until 58 tokens.
Padded until 24 chars.
Padded until 58 tokens.
Model Choice:
__________________________________________________________________________________________________
Layer (type)                    Output Shape         Param #     Connected to                     
==================================================================================================
input_2 (InputLayer)            (None, 58, 24)       0                                            
__________________________________________________________________________________________________
embedding_2 (Embedding)         (None, 24, 64)       6080        input_2[0][0]                    
__________________________________________________________________________________________________
dropout_2 (Dropout)             (None, 24, 64)       0           embedding_2[0][0]                
__________________________________________________________________________________________________
input_1 (InputLayer)            (None, 58)           0                                            
__________________________________________________________________________________________________
lambda_1 (Lambda)               (None, 24, 64)       0           dropout_2[0][0]                  
__________________________________________________________________________________________________
embedding_1 (Embedding)         (None, 58, 64)       6413760     input_1[0][0]                    
__________________________________________________________________________________________________
bidirectional_1 (Bidirectional) (None, 128)          49536       lambda_1[0][0]                   
__________________________________________________________________________________________________
dropout_1 (Dropout)             (None, 58, 64)       0           embedding_1[0][0]                
__________________________________________________________________________________________________
lambda_2 (Lambda)               (None, 58, 128)      0           bidirectional_1[0][0]            
__________________________________________________________________________________________________
concatenate_1 (Concatenate)     (None, 58, 192)      0           dropout_1[0][0]                  
                                                                 lambda_2[0][0]                   
__________________________________________________________________________________________________
bidirectional_2 (Bidirectional) (None, 58, 384)      443520      concatenate_1[0][0]              
__________________________________________________________________________________________________
crf_1 (CRF)                     (None, 58, 10)       3970        bidirectional_2[0][0]            
==================================================================================================
Total params: 6,916,866
Trainable params: 6,916,866
Non-trainable params: 0
__________________________________________________________________________________________________
Train on 150 samples, validate on 17 samples
Epoch 1/70

 32/150 [=====>........................] - ETA: 9s - loss: 2.4023 - acc: 0.0401
…
Padding...
Data padded!
Padding...
Data padded!
Padded until 57 tokens.
Mapping...
Data mapped!
Mapping...
Data mapped!
Padding...
Data padded!
Padding...
Data padded!
Padded until 24 chars.
Padded until 57 tokens.
Padded until 24 chars.
Padded until 57 tokens.
Model Choice:
__________________________________________________________________________________________________
Layer (type)                    Output Shape         Param #     Connected to                     
==================================================================================================
input_2 (InputLayer)            (None, 57, 24)       0                                            
__________________________________________________________________________________________________
embedding_2 (Embedding)         (None, 24, 64)       6080        input_2[0][0]                    
__________________________________________________________________________________________________
dropout_2 (Dropout)             (None, 24, 64)       0           embedding_2[0][0]                
__________________________________________________________________________________________________
input_1 (InputLayer)            (None, 57)           0                                            
__________________________________________________________________________________________________
lambda_1 (Lambda)               (None, 24, 64)       0           dropout_2[0][0]                  
__________________________________________________________________________________________________
embedding_1 (Embedding)         (None, 57, 64)       6413568     input_1[0][0]                    
__________________________________________________________________________________________________
bidirectional_1 (Bidirectional) (None, 128)          49536       lambda_1[0][0]                   
__________________________________________________________________________________________________
dropout_1 (Dropout)             (None, 57, 64)       0           embedding_1[0][0]                
__________________________________________________________________________________________________
lambda_2 (Lambda)               (None, 57, 128)      0           bidirectional_1[0][0]            
__________________________________________________________________________________________________
concatenate_1 (Concatenate)     (None, 57, 192)      0           dropout_1[0][0]                  
                                                                 lambda_2[0][0]                   
__________________________________________________________________________________________________
bidirectional_2 (Bidirectional) (None, 57, 384)      443520      concatenate_1[0][0]              
__________________________________________________________________________________________________
crf_1 (CRF)                     (None, 57, 10)       3970        bidirectional_2[0][0]            
==================================================================================================
Total params: 6,916,674
Trainable params: 6,916,674
Non-trainable params: 0
__________________________________________________________________________________________________
Train on 150 samples, validate on 17 samples
Epoch 1/70

 32/150 [=====>........................] - ETA: 9s - loss: 2.3325 - acc: 0.0174
…
Padding...
Data padded!
Padding...
Data padded!
Padded until 66 tokens.
Mapping...
Data mapped!
Mapping...
Data mapped!
Padding...
Data padded!
Padding...
Data padded!
Padded until 24 chars.
Padded until 66 tokens.
Padded until 24 chars.
Padded until 66 tokens.
Model Choice:
__________________________________________________________________________________________________
Layer (type)                    Output Shape         Param #     Connected to                     
==================================================================================================
input_2 (InputLayer)            (None, 66, 24)       0                                            
__________________________________________________________________________________________________
embedding_2 (Embedding)         (None, 24, 64)       6080        input_2[0][0]                    
__________________________________________________________________________________________________
dropout_2 (Dropout)             (None, 24, 64)       0           embedding_2[0][0]                
__________________________________________________________________________________________________
input_1 (InputLayer)            (None, 66)           0                                            
__________________________________________________________________________________________________
lambda_1 (Lambda)               (None, 24, 64)       0           dropout_2[0][0]                  
__________________________________________________________________________________________________
embedding_1 (Embedding)         (None, 66, 64)       6414016     input_1[0][0]                    
__________________________________________________________________________________________________
bidirectional_1 (Bidirectional) (None, 128)          49536       lambda_1[0][0]                   
__________________________________________________________________________________________________
dropout_1 (Dropout)             (None, 66, 64)       0           embedding_1[0][0]                
__________________________________________________________________________________________________
lambda_2 (Lambda)               (None, 66, 128)      0           bidirectional_1[0][0]            
__________________________________________________________________________________________________
concatenate_1 (Concatenate)     (None, 66, 192)      0           dropout_1[0][0]                  
                                                                 lambda_2[0][0]                   
__________________________________________________________________________________________________
bidirectional_2 (Bidirectional) (None, 66, 384)      443520      concatenate_1[0][0]              
__________________________________________________________________________________________________
crf_1 (CRF)                     (None, 66, 10)       3970        bidirectional_2[0][0]            
==================================================================================================
Total params: 6,917,122
Trainable params: 6,917,122
Non-trainable params: 0
__________________________________________________________________________________________________
Train on 150 samples, validate on 17 samples
Epoch 1/70

 32/150 [=====>........................] - ETA: 9s - loss: 2.6093 - acc: 0.0559
…
Padding...
Data padded!
Padding...
Data padded!
Padded until 58 tokens.
Mapping...
Data mapped!
Mapping...
Data mapped!
Padding...
Data padded!
Padding...
Data padded!
Padded until 24 chars.
Padded until 58 tokens.
Padded until 24 chars.
Padded until 58 tokens.
Model Choice:
__________________________________________________________________________________________________
Layer (type)                    Output Shape         Param #     Connected to                     
==================================================================================================
input_2 (InputLayer)            (None, 58, 24)       0                                            
__________________________________________________________________________________________________
embedding_2 (Embedding)         (None, 24, 64)       6080        input_2[0][0]                    
__________________________________________________________________________________________________
dropout_2 (Dropout)             (None, 24, 64)       0           embedding_2[0][0]                
__________________________________________________________________________________________________
input_1 (InputLayer)            (None, 58)           0                                            
__________________________________________________________________________________________________
lambda_1 (Lambda)               (None, 24, 64)       0           dropout_2[0][0]                  
__________________________________________________________________________________________________
embedding_1 (Embedding)         (None, 58, 64)       6413184     input_1[0][0]                    
__________________________________________________________________________________________________
bidirectional_1 (Bidirectional) (None, 128)          49536       lambda_1[0][0]                   
__________________________________________________________________________________________________
dropout_1 (Dropout)             (None, 58, 64)       0           embedding_1[0][0]                
__________________________________________________________________________________________________
lambda_2 (Lambda)               (None, 58, 128)      0           bidirectional_1[0][0]            
__________________________________________________________________________________________________
concatenate_1 (Concatenate)     (None, 58, 192)      0           dropout_1[0][0]                  
                                                                 lambda_2[0][0]                   
__________________________________________________________________________________________________
bidirectional_2 (Bidirectional) (None, 58, 384)      443520      concatenate_1[0][0]              
__________________________________________________________________________________________________
crf_1 (CRF)                     (None, 58, 10)       3970        bidirectional_2[0][0]            
==================================================================================================
Total params: 6,916,290
Trainable params: 6,916,290
Non-trainable params: 0
__________________________________________________________________________________________________
Train on 150 samples, validate on 17 samples
Epoch 1/70

 32/150 [=====>........................] - ETA: 9s - loss: 1.8995 - acc: 0.7658
…
Padding...
Data padded!
Padding...
Data padded!
Padded until 66 tokens.
Mapping...
Data mapped!
Mapping...
Data mapped!
Padding...
Data padded!
Padding...
Data padded!
Padded until 24 chars.
Padded until 66 tokens.
Padded until 24 chars.
Padded until 66 tokens.
Model Choice:
__________________________________________________________________________________________________
Layer (type)                    Output Shape         Param #     Connected to                     
==================================================================================================
input_2 (InputLayer)            (None, 66, 24)       0                                            
__________________________________________________________________________________________________
embedding_2 (Embedding)         (None, 24, 64)       6080        input_2[0][0]                    
__________________________________________________________________________________________________
dropout_2 (Dropout)             (None, 24, 64)       0           embedding_2[0][0]                
__________________________________________________________________________________________________
input_1 (InputLayer)            (None, 66)           0                                            
__________________________________________________________________________________________________
lambda_1 (Lambda)               (None, 24, 64)       0           dropout_2[0][0]                  
__________________________________________________________________________________________________
embedding_1 (Embedding)         (None, 66, 64)       6413632     input_1[0][0]                    
__________________________________________________________________________________________________
bidirectional_1 (Bidirectional) (None, 128)          49536       lambda_1[0][0]                   
__________________________________________________________________________________________________
dropout_1 (Dropout)             (None, 66, 64)       0           embedding_1[0][0]                
__________________________________________________________________________________________________
lambda_2 (Lambda)               (None, 66, 128)      0           bidirectional_1[0][0]            
__________________________________________________________________________________________________
concatenate_1 (Concatenate)     (None, 66, 192)      0           dropout_1[0][0]                  
                                                                 lambda_2[0][0]                   
__________________________________________________________________________________________________
bidirectional_2 (Bidirectional) (None, 66, 384)      443520      concatenate_1[0][0]              
__________________________________________________________________________________________________
crf_1 (CRF)                     (None, 66, 10)       3970        bidirectional_2[0][0]            
==================================================================================================
Total params: 6,916,738
Trainable params: 6,916,738
Non-trainable params: 0
__________________________________________________________________________________________________
Train on 150 samples, validate on 17 samples
Epoch 1/70

 32/150 [=====>........................] - ETA: 10s - loss: 2.2956 - acc: 0.0328
…
Padding...
Data padded!
Padding...
Data padded!
Padded until 57 tokens.
Mapping...
Data mapped!
Mapping...
Data mapped!
Padding...
Data padded!
Padding...
Data padded!
Padded until 24 chars.
Padded until 57 tokens.
Padded until 24 chars.
Padded until 57 tokens.
Model Choice:
__________________________________________________________________________________________________
Layer (type)                    Output Shape         Param #     Connected to                     
==================================================================================================
input_2 (InputLayer)            (None, 57, 24)       0                                            
__________________________________________________________________________________________________
embedding_2 (Embedding)         (None, 24, 64)       6080        input_2[0][0]                    
__________________________________________________________________________________________________
dropout_2 (Dropout)             (None, 24, 64)       0           embedding_2[0][0]                
__________________________________________________________________________________________________
input_1 (InputLayer)            (None, 57)           0                                            
__________________________________________________________________________________________________
lambda_1 (Lambda)               (None, 24, 64)       0           dropout_2[0][0]                  
__________________________________________________________________________________________________
embedding_1 (Embedding)         (None, 57, 64)       6413184     input_1[0][0]                    
__________________________________________________________________________________________________
bidirectional_1 (Bidirectional) (None, 128)          49536       lambda_1[0][0]                   
__________________________________________________________________________________________________
dropout_1 (Dropout)             (None, 57, 64)       0           embedding_1[0][0]                
__________________________________________________________________________________________________
lambda_2 (Lambda)               (None, 57, 128)      0           bidirectional_1[0][0]            
__________________________________________________________________________________________________
concatenate_1 (Concatenate)     (None, 57, 192)      0           dropout_1[0][0]                  
                                                                 lambda_2[0][0]                   
__________________________________________________________________________________________________
bidirectional_2 (Bidirectional) (None, 57, 384)      443520      concatenate_1[0][0]              
__________________________________________________________________________________________________
crf_1 (CRF)                     (None, 57, 10)       3970        bidirectional_2[0][0]            
==================================================================================================
Total params: 6,916,290
Trainable params: 6,916,290
Non-trainable params: 0
__________________________________________________________________________________________________
Train on 150 samples, validate on 17 samples
Epoch 1/70

 32/150 [=====>........................] - ETA: 9s - loss: 2.4071 - acc: 0.0223
…
Padding...
Data padded!
Padding...
Data padded!
Padded until 67 tokens.
Mapping...
Data mapped!
Mapping...
Data mapped!
Padding...
Data padded!
Padding...
Data padded!
Padded until 24 chars.
Padded until 67 tokens.
Padded until 24 chars.
Padded until 67 tokens.
Model Choice:
__________________________________________________________________________________________________
Layer (type)                    Output Shape         Param #     Connected to                     
==================================================================================================
input_2 (InputLayer)            (None, 67, 24)       0                                            
__________________________________________________________________________________________________
embedding_2 (Embedding)         (None, 24, 64)       6080        input_2[0][0]                    
__________________________________________________________________________________________________
dropout_2 (Dropout)             (None, 24, 64)       0           embedding_2[0][0]                
__________________________________________________________________________________________________
input_1 (InputLayer)            (None, 67)           0                                            
__________________________________________________________________________________________________
lambda_1 (Lambda)               (None, 24, 64)       0           dropout_2[0][0]                  
__________________________________________________________________________________________________
embedding_1 (Embedding)         (None, 67, 64)       6413824     input_1[0][0]                    
__________________________________________________________________________________________________
bidirectional_1 (Bidirectional) (None, 128)          49536       lambda_1[0][0]                   
__________________________________________________________________________________________________
dropout_1 (Dropout)             (None, 67, 64)       0           embedding_1[0][0]                
__________________________________________________________________________________________________
lambda_2 (Lambda)               (None, 67, 128)      0           bidirectional_1[0][0]            
__________________________________________________________________________________________________
concatenate_1 (Concatenate)     (None, 67, 192)      0           dropout_1[0][0]                  
                                                                 lambda_2[0][0]                   
__________________________________________________________________________________________________
bidirectional_2 (Bidirectional) (None, 67, 384)      443520      concatenate_1[0][0]              
__________________________________________________________________________________________________
crf_1 (CRF)                     (None, 67, 10)       3970        bidirectional_2[0][0]            
==================================================================================================
Total params: 6,916,930
Trainable params: 6,916,930
Non-trainable params: 0
__________________________________________________________________________________________________
Train on 150 samples, validate on 17 samples
Epoch 1/70

 32/150 [=====>........................] - ETA: 9s - loss: 2.1675 - acc: 0.1878
…
Padding...
Data padded!
Padding...
Data padded!
Padded until 57 tokens.
Mapping...
Data mapped!
Mapping...
Data mapped!
Padding...
Data padded!
Padding...
Data padded!
Padded until 24 chars.
Padded until 57 tokens.
Padded until 24 chars.
Padded until 57 tokens.
Model Choice:
__________________________________________________________________________________________________
Layer (type)                    Output Shape         Param #     Connected to                     
==================================================================================================
input_2 (InputLayer)            (None, 57, 24)       0                                            
__________________________________________________________________________________________________
embedding_2 (Embedding)         (None, 24, 64)       6080        input_2[0][0]                    
__________________________________________________________________________________________________
dropout_2 (Dropout)             (None, 24, 64)       0           embedding_2[0][0]                
__________________________________________________________________________________________________
input_1 (InputLayer)            (None, 57)           0                                            
__________________________________________________________________________________________________
lambda_1 (Lambda)               (None, 24, 64)       0           dropout_2[0][0]                  
__________________________________________________________________________________________________
embedding_1 (Embedding)         (None, 57, 64)       6406656     input_1[0][0]                    
__________________________________________________________________________________________________
bidirectional_1 (Bidirectional) (None, 128)          49536       lambda_1[0][0]                   
__________________________________________________________________________________________________
dropout_1 (Dropout)             (None, 57, 64)       0           embedding_1[0][0]                
__________________________________________________________________________________________________
lambda_2 (Lambda)               (None, 57, 128)      0           bidirectional_1[0][0]            
__________________________________________________________________________________________________
concatenate_1 (Concatenate)     (None, 57, 192)      0           dropout_1[0][0]                  
                                                                 lambda_2[0][0]                   
__________________________________________________________________________________________________
bidirectional_2 (Bidirectional) (None, 57, 384)      443520      concatenate_1[0][0]              
__________________________________________________________________________________________________
crf_1 (CRF)                     (None, 57, 10)       3970        bidirectional_2[0][0]            
==================================================================================================
Total params: 6,909,762
Trainable params: 6,909,762
Non-trainable params: 0
__________________________________________________________________________________________________
Train on 74 samples, validate on 9 samples
Epoch 1/70

32/74 [===========>..................] - ETA: 3s - loss: 2.4874 - acc: 0.0421
…
Padding...
Data padded!
Padding...
Data padded!
Padded until 57 tokens.
Mapping...
Data mapped!
Mapping...
Data mapped!
Padding...
Data padded!
Padding...
Data padded!
Padded until 24 chars.
Padded until 57 tokens.
Padded until 24 chars.
Padded until 57 tokens.
Model Choice:
__________________________________________________________________________________________________
Layer (type)                    Output Shape         Param #     Connected to                     
==================================================================================================
input_2 (InputLayer)            (None, 57, 24)       0                                            
__________________________________________________________________________________________________
embedding_2 (Embedding)         (None, 24, 64)       6080        input_2[0][0]                    
__________________________________________________________________________________________________
dropout_2 (Dropout)             (None, 24, 64)       0           embedding_2[0][0]                
__________________________________________________________________________________________________
input_1 (InputLayer)            (None, 57)           0                                            
__________________________________________________________________________________________________
lambda_1 (Lambda)               (None, 24, 64)       0           dropout_2[0][0]                  
__________________________________________________________________________________________________
embedding_1 (Embedding)         (None, 57, 64)       6408896     input_1[0][0]                    
__________________________________________________________________________________________________
bidirectional_1 (Bidirectional) (None, 128)          49536       lambda_1[0][0]                   
__________________________________________________________________________________________________
dropout_1 (Dropout)             (None, 57, 64)       0           embedding_1[0][0]                
__________________________________________________________________________________________________
lambda_2 (Lambda)               (None, 57, 128)      0           bidirectional_1[0][0]            
__________________________________________________________________________________________________
concatenate_1 (Concatenate)     (None, 57, 192)      0           dropout_1[0][0]                  
                                                                 lambda_2[0][0]                   
__________________________________________________________________________________________________
bidirectional_2 (Bidirectional) (None, 57, 384)      443520      concatenate_1[0][0]              
__________________________________________________________________________________________________
crf_1 (CRF)                     (None, 57, 10)       3970        bidirectional_2[0][0]            
==================================================================================================
Total params: 6,912,002
Trainable params: 6,912,002
Non-trainable params: 0
__________________________________________________________________________________________________
Train on 74 samples, validate on 9 samples
Epoch 1/70

32/74 [===========>..................] - ETA: 4s - loss: 2.4868 - acc: 0.0484
…
Padding...
Data padded!
Padding...
Data padded!
Padded until 57 tokens.
Mapping...
Data mapped!
Mapping...
Data mapped!
Padding...
Data padded!
Padding...
Data padded!
Padded until 24 chars.
Padded until 57 tokens.
Padded until 24 chars.
Padded until 57 tokens.
Model Choice:
__________________________________________________________________________________________________
Layer (type)                    Output Shape         Param #     Connected to                     
==================================================================================================
input_2 (InputLayer)            (None, 57, 24)       0                                            
__________________________________________________________________________________________________
embedding_2 (Embedding)         (None, 24, 64)       6080        input_2[0][0]                    
__________________________________________________________________________________________________
dropout_2 (Dropout)             (None, 24, 64)       0           embedding_2[0][0]                
__________________________________________________________________________________________________
input_1 (InputLayer)            (None, 57)           0                                            
__________________________________________________________________________________________________
lambda_1 (Lambda)               (None, 24, 64)       0           dropout_2[0][0]                  
__________________________________________________________________________________________________
embedding_1 (Embedding)         (None, 57, 64)       6405888     input_1[0][0]                    
__________________________________________________________________________________________________
bidirectional_1 (Bidirectional) (None, 128)          49536       lambda_1[0][0]                   
__________________________________________________________________________________________________
…
dropout_2 (Dropout)             (None, 24, 64)       0           embedding_2[0][0]                
__________________________________________________________________________________________________
input_1 (InputLayer)            (None, 57)           0                                            
__________________________________________________________________________________________________
lambda_1 (Lambda)               (None, 24, 64)       0           dropout_2[0][0]                  
__________________________________________________________________________________________________
embedding_1 (Embedding)         (None, 57, 64)       6401536     input_1[0][0]                    
__________________________________________________________________________________________________
bidirectional_1 (Bidirectional) (None, 128)          49536       lambda_1[0][0]                   
__________________________________________________________________________________________________
dropout_1 (Dropout)             (None, 57, 64)       0           embedding_1[0][0]                
__________________________________________________________________________________________________
lambda_2 (Lambda)               (None, 57, 128)      0           bidirectional_1[0][0]            
__________________________________________________________________________________________________
concatenate_1 (Concatenate)     (None, 57, 192)      0           dropout_1[0][0]                  
                                                                 lambda_2[0][0]                   
__________________________________________________________________________________________________
bidirectional_2 (Bidirectional) (None, 57, 384)      443520      concatenate_1[0][0]              
__________________________________________________________________________________________________
crf_1 (CRF)                     (None, 57, 10)       3970        bidirectional_2[0][0]            
==================================================================================================
Total params: 6,904,578
Trainable params: 6,904,578
Non-trainable params: 0
__________________________________________________________________________________________________
Train on 14 samples, validate on 2 samples
Epoch 1/70

14/14 [==============================] - 3s 226ms/step - loss: 2.1850 - acc: 0.0853 - val_loss: 1.1699 - val_acc: 0.7500
…
Padding...
Data padded!
Padding...
Data padded!
Padded until 57 tokens.
Mapping...
Data mapped!
Mapping...
Data mapped!
Padding...
Data padded!
Padding...
Data padded!
Padded until 24 chars.
Padded until 57 tokens.
Padded until 24 chars.
Padded until 57 tokens.
Model Choice:
__________________________________________________________________________________________________
Layer (type)                    Output Shape         Param #     Connected to                     
==================================================================================================
input_2 (InputLayer)            (None, 57, 24)       0                                            
__________________________________________________________________________________________________
embedding_2 (Embedding)         (None, 24, 64)       5440        input_2[0][0]                    
__________________________________________________________________________________________________
dropout_2 (Dropout)             (None, 24, 64)       0           embedding_2[0][0]                
__________________________________________________________________________________________________
input_1 (InputLayer)            (None, 57)           0                                            
__________________________________________________________________________________________________
lambda_1 (Lambda)               (None, 24, 64)       0           dropout_2[0][0]                  
__________________________________________________________________________________________________
embedding_1 (Embedding)         (None, 57, 64)       6400896     input_1[0][0]                    
__________________________________________________________________________________________________
bidirectional_1 (Bidirectional) (None, 128)          49536       lambda_1[0][0]                   
__________________________________________________________________________________________________
dropout_1 (Dropout)             (None, 57, 64)       0           embedding_1[0][0]                
__________________________________________________________________________________________________
lambda_2 (Lambda)               (None, 57, 128)      0           bidirectional_1[0][0]            
__________________________________________________________________________________________________
concatenate_1 (Concatenate)     (None, 57, 192)      0           dropout_1[0][0]                  
                                                                 lambda_2[0][0]                   
__________________________________________________________________________________________________
bidirectional_2 (Bidirectional) (None, 57, 384)      443520      concatenate_1[0][0]              
__________________________________________________________________________________________________
crf_1 (CRF)                     (None, 57, 9)        3564        bidirectional_2[0][0]            
==================================================================================================
Total params: 6,902,956
Trainable params: 6,902,956
Non-trainable params: 0
__________________________________________________________________________________________________
Train on 7 samples, validate on 1 samples
Epoch 1/70

7/7 [==============================] - 3s 377ms/step - loss: 2.0429 - acc: 0.2698 - val_loss: 0.7381 - val_acc: 0.8276
…
Padding...
Data padded!
Padding...
Data padded!
Padded until 57 tokens.
Mapping...
Data mapped!
Mapping...
Data mapped!
Padding...
Data padded!
Padding...
Data padded!
Padded until 24 chars.
Padded until 57 tokens.
Padded until 24 chars.
Padded until 57 tokens.
Model Choice:
__________________________________________________________________________________________________
Layer (type)                    Output Shape         Param #     Connected to                     
==================================================================================================
input_2 (InputLayer)            (None, 57, 24)       0                                            
__________________________________________________________________________________________________
embedding_2 (Embedding)         (None, 24, 64)       5952        input_2[0][0]                    
__________________________________________________________________________________________________
dropout_2 (Dropout)             (None, 24, 64)       0           embedding_2[0][0]                
__________________________________________________________________________________________________
input_1 (InputLayer)            (None, 57)           0                                            
__________________________________________________________________________________________________
lambda_1 (Lambda)               (None, 24, 64)       0           dropout_2[0][0]                  
__________________________________________________________________________________________________
embedding_1 (Embedding)         (None, 57, 64)       6401216     input_1[0][0]                    
__________________________________________________________________________________________________
bidirectional_1 (Bidirectional) (None, 128)          49536       lambda_1[0][0]                   
__________________________________________________________________________________________________
dropout_1 (Dropout)             (None, 57, 64)       0           embedding_1[0][0]                
__________________________________________________________________________________________________
lambda_2 (Lambda)               (None, 57, 128)      0           bidirectional_1[0][0]            
__________________________________________________________________________________________________
concatenate_1 (Concatenate)     (None, 57, 192)      0           dropout_1[0][0]                  
                                                                 lambda_2[0][0]                   
__________________________________________________________________________________________________
bidirectional_2 (Bidirectional) (None, 57, 384)      443520      concatenate_1[0][0]              
__________________________________________________________________________________________________
crf_1 (CRF)                     (None, 57, 10)       3970        bidirectional_2[0][0]            
==================================================================================================
Total params: 6,904,194
Trainable params: 6,904,194
Non-trainable params: 0
__________________________________________________________________________________________________
Train on 7 samples, validate on 1 samples
Epoch 1/70

7/7 [==============================] - 3s 368ms/step - loss: 2.1666 - acc: 0.1049 - val_loss: 0.8117 - val_acc: 0.8421
…
Padding...
Data padded!
Padding...
Data padded!
Padded until 57 tokens.
Mapping...
Data mapped!
Mapping...
Data mapped!
Padding...
Data padded!
Padding...
Data padded!
Padded until 24 chars.
Padded until 57 tokens.
Padded until 24 chars.
Padded until 57 tokens.
Model Choice:
__________________________________________________________________________________________________
Layer (type)                    Output Shape         Param #     Connected to                     
==================================================================================================
input_2 (InputLayer)            (None, 57, 24)       0                                            
__________________________________________________________________________________________________
embedding_2 (Embedding)         (None, 24, 64)       5888        input_2[0][0]                    
__________________________________________________________________________________________________
dropout_2 (Dropout)             (None, 24, 64)       0           embedding_2[0][0]                
__________________________________________________________________________________________________
input_1 (InputLayer)            (None, 57)           0                                            
__________________________________________________________________________________________________
lambda_1 (Lambda)               (None, 24, 64)       0           dropout_2[0][0]                  
__________________________________________________________________________________________________
embedding_1 (Embedding)         (None, 57, 64)       6401088     input_1[0][0]                    
__________________________________________________________________________________________________
bidirectional_1 (Bidirectional) (None, 128)          49536       lambda_1[0][0]                   
__________________________________________________________________________________________________
dropout_1 (Dropout)             (None, 57, 64)       0           embedding_1[0][0]                
__________________________________________________________________________________________________
lambda_2 (Lambda)               (None, 57, 128)      0           bidirectional_1[0][0]            
__________________________________________________________________________________________________
concatenate_1 (Concatenate)     (None, 57, 192)      0           dropout_1[0][0]                  
                                                                 lambda_2[0][0]                   
__________________________________________________________________________________________________
bidirectional_2 (Bidirectional) (None, 57, 384)      443520      concatenate_1[0][0]              
__________________________________________________________________________________________________
crf_1 (CRF)                     (None, 57, 10)       3970        bidirectional_2[0][0]            
==================================================================================================
Total params: 6,904,002
Trainable params: 6,904,002
Non-trainable params: 0
__________________________________________________________________________________________________
Train on 7 samples, validate on 1 samples
Epoch 1/70

7/7 [==============================] - 3s 372ms/step - loss: 2.2937 - acc: 0.0556 - val_loss: 0.5027 - val_acc: 0.9259
…
Padding...
Data padded!
Padding...
Data padded!
Padded until 57 tokens.
Mapping...
Data mapped!
Mapping...
Data mapped!
Padding...
Data padded!
Padding...
Data padded!
Padded until 24 chars.
Padded until 57 tokens.
Padded until 24 chars.
Padded until 57 tokens.
Model Choice:
__________________________________________________________________________________________________
Layer (type)                    Output Shape         Param #     Connected to                     
==================================================================================================
input_2 (InputLayer)            (None, 57, 24)       0                                            
__________________________________________________________________________________________________
embedding_2 (Embedding)         (None, 24, 64)       6080        input_2[0][0]                    
__________________________________________________________________________________________________
dropout_2 (Dropout)             (None, 24, 64)       0           embedding_2[0][0]                
__________________________________________________________________________________________________
input_1 (InputLayer)            (None, 57)           0                                            
__________________________________________________________________________________________________
lambda_1 (Lambda)               (None, 24, 64)       0           dropout_2[0][0]                  
__________________________________________________________________________________________________
embedding_1 (Embedding)         (None, 57, 64)       6401024     input_1[0][0]                    
__________________________________________________________________________________________________
bidirectional_1 (Bidirectional) (None, 128)          49536       lambda_1[0][0]                   
__________________________________________________________________________________________________
dropout_1 (Dropout)             (None, 57, 64)       0           embedding_1[0][0]                
__________________________________________________________________________________________________
lambda_2 (Lambda)               (None, 57, 128)      0           bidirectional_1[0][0]            
__________________________________________________________________________________________________
concatenate_1 (Concatenate)     (None, 57, 192)      0           dropout_1[0][0]                  
                                                                 lambda_2[0][0]                   
__________________________________________________________________________________________________
bidirectional_2 (Bidirectional) (None, 57, 384)      443520      concatenate_1[0][0]              
__________________________________________________________________________________________________
crf_1 (CRF)                     (None, 57, 10)       3970        bidirectional_2[0][0]            
==================================================================================================
Total params: 6,904,130
Trainable params: 6,904,130
Non-trainable params: 0
__________________________________________________________________________________________________
Train on 7 samples, validate on 1 samples
Epoch 1/70

7/7 [==============================] - 3s 373ms/step - loss: 2.4035 - acc: 0.0000e+00 - val_loss: 1.5744 - val_acc: 0.6364
…
Padding...
Data padded!
Padding...
Data padded!
Padded until 57 tokens.
Mapping...
Data mapped!
Mapping...
Data mapped!
Padding...
Data padded!
Padding...
Data padded!
Padded until 24 chars.
Padded until 57 tokens.
Padded until 24 chars.
Padded until 57 tokens.
Model Choice:
__________________________________________________________________________________________________
Layer (type)                    Output Shape         Param #     Connected to                     
==================================================================================================
input_2 (InputLayer)            (None, 57, 24)       0                                            
__________________________________________________________________________________________________
embedding_2 (Embedding)         (None, 24, 64)       5952        input_2[0][0]                    
__________________________________________________________________________________________________
dropout_2 (Dropout)             (None, 24, 64)       0           embedding_2[0][0]                
__________________________________________________________________________________________________
input_1 (InputLayer)            (None, 57)           0                                            
__________________________________________________________________________________________________
lambda_1 (Lambda)               (None, 24, 64)       0           dropout_2[0][0]                  
__________________________________________________________________________________________________
embedding_1 (Embedding)         (None, 57, 64)       6400640     input_1[0][0]                    
__________________________________________________________________________________________________
bidirectional_1 (Bidirectional) (None, 128)          49536       lambda_1[0][0]                   
__________________________________________________________________________________________________
dropout_1 (Dropout)             (None, 57, 64)       0           embedding_1[0][0]                
__________________________________________________________________________________________________
lambda_2 (Lambda)               (None, 57, 128)      0           bidirectional_1[0][0]            
__________________________________________________________________________________________________
concatenate_1 (Concatenate)     (None, 57, 192)      0           dropout_1[0][0]                  
                                                                 lambda_2[0][0]                   
__________________________________________________________________________________________________
bidirectional_2 (Bidirectional) (None, 57, 384)      443520      concatenate_1[0][0]              
__________________________________________________________________________________________________
crf_1 (CRF)                     (None, 57, 9)        3564        bidirectional_2[0][0]            
==================================================================================================
Total params: 6,903,212
Trainable params: 6,903,212
Non-trainable params: 0
__________________________________________________________________________________________________
Train on 7 samples, validate on 1 samples
Epoch 1/70

7/7 [==============================] - 3s 381ms/step - loss: 2.2987 - acc: 0.0256 - val_loss: 1.3220 - val_acc: 0.6842
…
Padding...
Data padded!
Padding...
Data padded!
Padded until 57 tokens.
Mapping...
Data mapped!
Mapping...
Data mapped!
Padding...
Data padded!
Padding...
Data padded!
Padded until 24 chars.
Padded until 57 tokens.
Padded until 24 chars.
Padded until 57 tokens.
Model Choice:
__________________________________________________________________________________________________
Layer (type)                    Output Shape         Param #     Connected to                     
==================================================================================================
input_2 (InputLayer)            (None, 57, 24)       0                                            
__________________________________________________________________________________________________
embedding_2 (Embedding)         (None, 24, 64)       5888        input_2[0][0]                    
__________________________________________________________________________________________________
dropout_2 (Dropout)             (None, 24, 64)       0           embedding_2[0][0]                
__________________________________________________________________________________________________
input_1 (InputLayer)            (None, 57)           0                                            
__________________________________________________________________________________________________
lambda_1 (Lambda)               (None, 24, 64)       0           dropout_2[0][0]                  
__________________________________________________________________________________________________
embedding_1 (Embedding)         (None, 57, 64)       6400960     input_1[0][0]                    
__________________________________________________________________________________________________
bidirectional_1 (Bidirectional) (None, 128)          49536       lambda_1[0][0]                   
__________________________________________________________________________________________________
dropout_1 (Dropout)             (None, 57, 64)       0           embedding_1[0][0]                
__________________________________________________________________________________________________
lambda_2 (Lambda)               (None, 57, 128)      0           bidirectional_1[0][0]            
__________________________________________________________________________________________________
concatenate_1 (Concatenate)     (None, 57, 192)      0           dropout_1[0][0]                  
                                                                 lambda_2[0][0]                   
__________________________________________________________________________________________________
bidirectional_2 (Bidirectional) (None, 57, 384)      443520      concatenate_1[0][0]              
__________________________________________________________________________________________________
crf_1 (CRF)                     (None, 57, 9)        3564        bidirectional_2[0][0]            
==================================================================================================
Total params: 6,903,468
Trainable params: 6,903,468
Non-trainable params: 0
__________________________________________________________________________________________________
Train on 7 samples, validate on 1 samples
Epoch 1/70

7/7 [==============================] - 3s 370ms/step - loss: 2.2049 - acc: 0.0000e+00 - val_loss: 1.0538 - val_acc: 0.7895
…
Padding...
Data padded!
Padding...
Data padded!
Padded until 57 tokens.
Mapping...
Data mapped!
Mapping...
Data mapped!
Padding...
Data padded!
Padding...
Data padded!
Padded until 24 chars.
Padded until 57 tokens.
Padded until 24 chars.
Padded until 57 tokens.
Model Choice:
__________________________________________________________________________________________________
Layer (type)                    Output Shape         Param #     Connected to                     
==================================================================================================
input_2 (InputLayer)            (None, 57, 24)       0                                            
__________________________________________________________________________________________________
embedding_2 (Embedding)         (None, 24, 64)       5888        input_2[0][0]                    
__________________________________________________________________________________________________
dropout_2 (Dropout)             (None, 24, 64)       0           embedding_2[0][0]                
__________________________________________________________________________________________________
input_1 (InputLayer)            (None, 57)           0                                            
__________________________________________________________________________________________________
lambda_1 (Lambda)               (None, 24, 64)       0           dropout_2[0][0]                  
__________________________________________________________________________________________________
embedding_1 (Embedding)         (None, 57, 64)       6401024     input_1[0][0]                    
__________________________________________________________________________________________________
bidirectional_1 (Bidirectional) (None, 128)          49536       lambda_1[0][0]                   
__________________________________________________________________________________________________
dropout_1 (Dropout)             (None, 57, 64)       0           embedding_1[0][0]                
__________________________________________________________________________________________________
lambda_2 (Lambda)               (None, 57, 128)      0           bidirectional_1[0][0]            
__________________________________________________________________________________________________
concatenate_1 (Concatenate)     (None, 57, 192)      0           dropout_1[0][0]                  
                                                                 lambda_2[0][0]                   
__________________________________________________________________________________________________
bidirectional_2 (Bidirectional) (None, 57, 384)      443520      concatenate_1[0][0]              
__________________________________________________________________________________________________
crf_1 (CRF)                     (None, 57, 10)       3970        bidirectional_2[0][0]            
==================================================================================================
Total params: 6,903,938
Trainable params: 6,903,938
Non-trainable params: 0
__________________________________________________________________________________________________
Train on 7 samples, validate on 1 samples
Epoch 1/70

7/7 [==============================] - 3s 372ms/step - loss: 2.3346 - acc: 0.0458 - val_loss: 1.1524 - val_acc: 0.7200
…
Padding...
Data padded!
Padding...
Data padded!
Padded until 57 tokens.
Mapping...
Data mapped!
Mapping...
Data mapped!
Padding...
Data padded!
Padding...
Data padded!
Padded until 24 chars.
Padded until 57 tokens.
Padded until 24 chars.
Padded until 57 tokens.
Model Choice:
__________________________________________________________________________________________________
Layer (type)                    Output Shape         Param #     Connected to                     
==================================================================================================
input_2 (InputLayer)            (None, 57, 24)       0                                            
__________________________________________________________________________________________________
embedding_2 (Embedding)         (None, 24, 64)       5888        input_2[0][0]                    
__________________________________________________________________________________________________
dropout_2 (Dropout)             (None, 24, 64)       0           embedding_2[0][0]                
__________________________________________________________________________________________________
input_1 (InputLayer)            (None, 57)           0                                            
__________________________________________________________________________________________________
lambda_1 (Lambda)               (None, 24, 64)       0           dropout_2[0][0]                  
__________________________________________________________________________________________________
embedding_1 (Embedding)         (None, 57, 64)       6401408     input_1[0][0]                    
__________________________________________________________________________________________________
bidirectional_1 (Bidirectional) (None, 128)          49536       lambda_1[0][0]                   
__________________________________________________________________________________________________
dropout_1 (Dropout)             (None, 57, 64)       0           embedding_1[0][0]                
__________________________________________________________________________________________________
lambda_2 (Lambda)               (None, 57, 128)      0           bidirectional_1[0][0]            
__________________________________________________________________________________________________
concatenate_1 (Concatenate)     (None, 57, 192)      0           dropout_1[0][0]                  
                                                                 lambda_2[0][0]                   
__________________________________________________________________________________________________
bidirectional_2 (Bidirectional) (None, 57, 384)      443520      concatenate_1[0][0]              
__________________________________________________________________________________________________
crf_1 (CRF)                     (None, 57, 9)        3564        bidirectional_2[0][0]            
==================================================================================================
Total params: 6,903,916
Trainable params: 6,903,916
Non-trainable params: 0
__________________________________________________________________________________________________
Train on 7 samples, validate on 1 samples
Epoch 1/70

7/7 [==============================] - 3s 370ms/step - loss: 2.0360 - acc: 0.2642 - val_loss: 1.5108 - val_acc: 0.6552
…
Padding...
Data padded!
Padding...
Data padded!
Padded until 57 tokens.
Mapping...
Data mapped!
Mapping...
Data mapped!
Padding...
Data padded!
Padding...
Data padded!
Padded until 24 chars.
Padded until 57 tokens.
Padded until 24 chars.
Padded until 57 tokens.
Model Choice:
__________________________________________________________________________________________________
Layer (type)                    Output Shape         Param #     Connected to                     
==================================================================================================
input_2 (InputLayer)            (None, 57, 24)       0                                            
__________________________________________________________________________________________________
embedding_2 (Embedding)         (None, 24, 64)       5760        input_2[0][0]                    
__________________________________________________________________________________________________
dropout_2 (Dropout)             (None, 24, 64)       0           embedding_2[0][0]                
__________________________________________________________________________________________________
input_1 (InputLayer)            (None, 57)           0                                            
__________________________________________________________________________________________________
lambda_1 (Lambda)               (None, 24, 64)       0           dropout_2[0][0]                  
__________________________________________________________________________________________________
embedding_1 (Embedding)         (None, 57, 64)       6400832     input_1[0][0]                    
__________________________________________________________________________________________________
bidirectional_1 (Bidirectional) (None, 128)          49536       lambda_1[0][0]                   
__________________________________________________________________________________________________
dropout_1 (Dropout)             (None, 57, 64)       0           embedding_1[0][0]                
__________________________________________________________________________________________________
lambda_2 (Lambda)               (None, 57, 128)      0           bidirectional_1[0][0]            
__________________________________________________________________________________________________
concatenate_1 (Concatenate)     (None, 57, 192)      0           dropout_1[0][0]                  
                                                                 lambda_2[0][0]                   
__________________________________________________________________________________________________
bidirectional_2 (Bidirectional) (None, 57, 384)      443520      concatenate_1[0][0]              
__________________________________________________________________________________________________
crf_1 (CRF)                     (None, 57, 10)       3970        bidirectional_2[0][0]            
==================================================================================================
Total params: 6,903,618
Trainable params: 6,903,618
Non-trainable params: 0
__________________________________________________________________________________________________
Train on 7 samples, validate on 1 samples
Epoch 1/70

7/7 [==============================] - 3s 371ms/step - loss: 2.3981 - acc: 0.0312 - val_loss: 1.3311 - val_acc: 0.6667
…
Padding...
Data padded!
Padding...
Data padded!
Padded until 58 tokens.
Mapping...
Data mapped!
Mapping...
Data mapped!
Padding...
Data padded!
Padding...
Data padded!
Padded until 24 chars.
Padded until 58 tokens.
Padded until 24 chars.
Padded until 58 tokens.
Model Choice:
__________________________________________________________________________________________________
Layer (type)                    Output Shape         Param #     Connected to                     
==================================================================================================
input_2 (InputLayer)            (None, 58, 24)       0                                            
__________________________________________________________________________________________________
embedding_2 (Embedding)         (None, 24, 64)       5696        input_2[0][0]                    
__________________________________________________________________________________________________
dropout_2 (Dropout)             (None, 24, 64)       0           embedding_2[0][0]                
__________________________________________________________________________________________________
input_1 (InputLayer)            (None, 58)           0                                            
__________________________________________________________________________________________________
lambda_1 (Lambda)               (None, 24, 64)       0           dropout_2[0][0]                  
__________________________________________________________________________________________________
embedding_1 (Embedding)         (None, 58, 64)       6401216     input_1[0][0]                    
__________________________________________________________________________________________________
bidirectional_1 (Bidirectional) (None, 128)          49536       lambda_1[0][0]                   
__________________________________________________________________________________________________
dropout_1 (Dropout)             (None, 58, 64)       0           embedding_1[0][0]                
__________________________________________________________________________________________________
lambda_2 (Lambda)               (None, 58, 128)      0           bidirectional_1[0][0]            
__________________________________________________________________________________________________
concatenate_1 (Concatenate)     (None, 58, 192)      0           dropout_1[0][0]                  
                                                                 lambda_2[0][0]                   
__________________________________________________________________________________________________
bidirectional_2 (Bidirectional) (None, 58, 384)      443520      concatenate_1[0][0]              
__________________________________________________________________________________________________
crf_1 (CRF)                     (None, 58, 10)       3970        bidirectional_2[0][0]            
==================================================================================================
Total params: 6,903,938
Trainable params: 6,903,938
Non-trainable params: 0
__________________________________________________________________________________________________
Train on 7 samples, validate on 1 samples
Epoch 1/70

7/7 [==============================] - 3s 367ms/step - loss: 2.1623 - acc: 0.3488 - val_loss: 1.3151 - val_acc: 0.6471
…
Padding...
Data padded!
Padding...
Data padded!
Padded until 57 tokens.
Mapping...
Data mapped!
Mapping...
Data mapped!
Padding...
Data padded!
Padding...
Data padded!
Padded until 24 chars.
Padded until 57 tokens.
Padded until 24 chars.
Padded until 57 tokens.
Model Choice:
__________________________________________________________________________________________________
Layer (type)                    Output Shape         Param #     Connected to                     
==================================================================================================
input_2 (InputLayer)            (None, 57, 24)       0                                            
__________________________________________________________________________________________________
embedding_2 (Embedding)         (None, 24, 64)       5952        input_2[0][0]                    
__________________________________________________________________________________________________
dropout_2 (Dropout)             (None, 24, 64)       0           embedding_2[0][0]                
__________________________________________________________________________________________________
input_1 (InputLayer)            (None, 57)           0                                            
__________________________________________________________________________________________________
lambda_1 (Lambda)               (None, 24, 64)       0           dropout_2[0][0]                  
__________________________________________________________________________________________________
embedding_1 (Embedding)         (None, 57, 64)       6401024     input_1[0][0]                    
__________________________________________________________________________________________________
bidirectional_1 (Bidirectional) (None, 128)          49536       lambda_1[0][0]                   
__________________________________________________________________________________________________
dropout_1 (Dropout)             (None, 57, 64)       0           embedding_1[0][0]                
__________________________________________________________________________________________________
lambda_2 (Lambda)               (None, 57, 128)      0           bidirectional_1[0][0]            
__________________________________________________________________________________________________
concatenate_1 (Concatenate)     (None, 57, 192)      0           dropout_1[0][0]                  
                                                                 lambda_2[0][0]                   
__________________________________________________________________________________________________
bidirectional_2 (Bidirectional) (None, 57, 384)      443520      concatenate_1[0][0]              
__________________________________________________________________________________________________
crf_1 (CRF)                     (None, 57, 8)        3160        bidirectional_2[0][0]            
==================================================================================================
Total params: 6,903,192
Trainable params: 6,903,192
Non-trainable params: 0
__________________________________________________________________________________________________
Train on 7 samples, validate on 1 samples
Epoch 1/70

7/7 [==============================] - 3s 376ms/step - loss: 1.8453 - acc: 0.2593 - val_loss: 0.6497 - val_acc: 0.9583
…
Padding...
Data padded!
Padding...
Data padded!
Padded until 57 tokens.
Mapping...
Data mapped!
Mapping...
Data mapped!
Padding...
Data padded!
Padding...
Data padded!
Padded until 24 chars.
Padded until 57 tokens.
Padded until 24 chars.
Padded until 57 tokens.
Model Choice:
__________________________________________________________________________________________________
Layer (type)                    Output Shape         Param #     Connected to                     
==================================================================================================
input_2 (InputLayer)            (None, 57, 24)       0                                            
__________________________________________________________________________________________________
embedding_2 (Embedding)         (None, 24, 64)       5696        input_2[0][0]                    
__________________________________________________________________________________________________
dropout_2 (Dropout)             (None, 24, 64)       0           embedding_2[0][0]                
__________________________________________________________________________________________________
input_1 (InputLayer)            (None, 57)           0                                            
__________________________________________________________________________________________________
lambda_1 (Lambda)               (None, 24, 64)       0           dropout_2[0][0]                  
__________________________________________________________________________________________________
embedding_1 (Embedding)         (None, 57, 64)       6401024     input_1[0][0]                    
__________________________________________________________________________________________________
bidirectional_1 (Bidirectional) (None, 128)          49536       lambda_1[0][0]                   
__________________________________________________________________________________________________
dropout_1 (Dropout)             (None, 57, 64)       0           embedding_1[0][0]                
__________________________________________________________________________________________________
lambda_2 (Lambda)               (None, 57, 128)      0           bidirectional_1[0][0]            
__________________________________________________________________________________________________
concatenate_1 (Concatenate)     (None, 57, 192)      0           dropout_1[0][0]                  
                                                                 lambda_2[0][0]                   
__________________________________________________________________________________________________
bidirectional_2 (Bidirectional) (None, 57, 384)      443520      concatenate_1[0][0]              
__________________________________________________________________________________________________
crf_1 (CRF)                     (None, 57, 8)        3160        bidirectional_2[0][0]            
==================================================================================================
Total params: 6,902,936
Trainable params: 6,902,936
Non-trainable params: 0
__________________________________________________________________________________________________
Train on 7 samples, validate on 1 samples
Epoch 1/70

7/7 [==============================] - 3s 374ms/step - loss: 1.8452 - acc: 0.3716 - val_loss: 0.9244 - val_acc: 0.7692
…
Padding...
Data padded!
Padding...
Data padded!
Padded until 67 tokens.
Mapping...
Data mapped!
Mapping...
Data mapped!
Padding...
Data padded!
Padding...
Data padded!
Padded until 24 chars.
Padded until 67 tokens.
Padded until 24 chars.
Padded until 67 tokens.
Model Choice:
__________________________________________________________________________________________________
Layer (type)                    Output Shape         Param #     Connected to                     
==================================================================================================
input_2 (InputLayer)            (None, 67, 24)       0                                            
__________________________________________________________________________________________________
embedding_2 (Embedding)         (None, 24, 64)       5888        input_2[0][0]                    
__________________________________________________________________________________________________
dropout_2 (Dropout)             (None, 24, 64)       0           embedding_2[0][0]                
__________________________________________________________________________________________________
input_1 (InputLayer)            (None, 67)           0                                            
__________________________________________________________________________________________________
lambda_1 (Lambda)               (None, 24, 64)       0           dropout_2[0][0]                  
__________________________________________________________________________________________________
embedding_1 (Embedding)         (None, 67, 64)       6401088     input_1[0][0]                    
__________________________________________________________________________________________________
bidirectional_1 (Bidirectional) (None, 128)          49536       lambda_1[0][0]                   
__________________________________________________________________________________________________
dropout_1 (Dropout)             (None, 67, 64)       0           embedding_1[0][0]                
__________________________________________________________________________________________________
lambda_2 (Lambda)               (None, 67, 128)      0           bidirectional_1[0][0]            
__________________________________________________________________________________________________
concatenate_1 (Concatenate)     (None, 67, 192)      0           dropout_1[0][0]                  
                                                                 lambda_2[0][0]                   
__________________________________________________________________________________________________
bidirectional_2 (Bidirectional) (None, 67, 384)      443520      concatenate_1[0][0]              
__________________________________________________________________________________________________
crf_1 (CRF)                     (None, 67, 10)       3970        bidirectional_2[0][0]            
==================================================================================================
Total params: 6,904,002
Trainable params: 6,904,002
Non-trainable params: 0
__________________________________________________________________________________________________
Train on 7 samples, validate on 1 samples
Epoch 1/70

7/7 [==============================] - 3s 380ms/step - loss: 2.3486 - acc: 0.0380 - val_loss: 1.3488 - val_acc: 0.6538
…
Padding...
Data padded!
Padding...
Data padded!
Padded until 57 tokens.
Mapping...
Data mapped!
Mapping...
Data mapped!
Padding...
Data padded!
Padding...
Data padded!
Padded until 24 chars.
Padded until 57 tokens.
Padded until 24 chars.
Padded until 57 tokens.
Model Choice:
__________________________________________________________________________________________________
Layer (type)                    Output Shape         Param #     Connected to                     
==================================================================================================
input_2 (InputLayer)            (None, 57, 24)       0                                            
__________________________________________________________________________________________________
embedding_2 (Embedding)         (None, 24, 64)       5888        input_2[0][0]                    
__________________________________________________________________________________________________
dropout_2 (Dropout)             (None, 24, 64)       0           embedding_2[0][0]                
__________________________________________________________________________________________________
input_1 (InputLayer)            (None, 57)           0                                            
__________________________________________________________________________________________________
lambda_1 (Lambda)               (None, 24, 64)       0           dropout_2[0][0]                  
__________________________________________________________________________________________________
embedding_1 (Embedding)         (None, 57, 64)       6401216     input_1[0][0]                    
__________________________________________________________________________________________________
bidirectional_1 (Bidirectional) (None, 128)          49536       lambda_1[0][0]                   
__________________________________________________________________________________________________
dropout_1 (Dropout)             (None, 57, 64)       0           embedding_1[0][0]                
__________________________________________________________________________________________________
lambda_2 (Lambda)               (None, 57, 128)      0           bidirectional_1[0][0]            
__________________________________________________________________________________________________
concatenate_1 (Concatenate)     (None, 57, 192)      0           dropout_1[0][0]                  
                                                                 lambda_2[0][0]                   
__________________________________________________________________________________________________
bidirectional_2 (Bidirectional) (None, 57, 384)      443520      concatenate_1[0][0]              
__________________________________________________________________________________________________
crf_1 (CRF)                     (None, 57, 10)       3970        bidirectional_2[0][0]            
==================================================================================================
Total params: 6,904,130
Trainable params: 6,904,130
Non-trainable params: 0
__________________________________________________________________________________________________
Train on 7 samples, validate on 1 samples
Epoch 1/70

7/7 [==============================] - 3s 373ms/step - loss: 2.3367 - acc: 0.0199 - val_loss: 0.5593 - val_acc: 0.9200
…
