…
Found 9 unique labels.
1387 unique words not found in embedding.
10 unique chars not found in embedding.
Number of OOV: 237
OOV word occurences: 324
Padded until 83 tokens.
Padded until 24 chars.
Padded until 83 tokens.
Padded until 24 chars.
Padded until 83 tokens.
Model Choice:
__________________________________________________________________________________________________
Layer (type)                    Output Shape         Param #     Connected to                     
==================================================================================================
input_2 (InputLayer)            (None, 83, 24)       0                                            
__________________________________________________________________________________________________
embedding_2 (Embedding)         (None, 24, 64)       6080        input_2[0][0]                    
__________________________________________________________________________________________________
dropout_2 (Dropout)             (None, 24, 64)       0           embedding_2[0][0]                
__________________________________________________________________________________________________
input_1 (InputLayer)            (None, 83)           0                                            
__________________________________________________________________________________________________
lambda_1 (Lambda)               (None, 24, 64)       0           dropout_2[0][0]                  
__________________________________________________________________________________________________
embedding_1 (Embedding)         (None, 83, 64)       6489088     input_1[0][0]                    
__________________________________________________________________________________________________
bidirectional_1 (Bidirectional) (None, 128)          49536       lambda_1[0][0]                   
__________________________________________________________________________________________________
dropout_1 (Dropout)             (None, 83, 64)       0           embedding_1[0][0]                
__________________________________________________________________________________________________
lambda_2 (Lambda)               (None, 83, 128)      0           bidirectional_1[0][0]            
__________________________________________________________________________________________________
concatenate_1 (Concatenate)     (None, 83, 192)      0           dropout_1[0][0]                  
                                                                 lambda_2[0][0]                   
__________________________________________________________________________________________________
bidirectional_2 (Bidirectional) (None, 83, 384)      443520      concatenate_1[0][0]              
__________________________________________________________________________________________________
crf_1 (CRF)                     (None, 83, 10)       3970        bidirectional_2[0][0]            
==================================================================================================
Total params: 6,992,194
Trainable params: 6,992,194
Non-trainable params: 0
__________________________________________________________________________________________________
Train on 1506 samples, validate on 168 samples
Epoch 1/70

1506/1506 [==============================] - 33s 22ms/step - loss: 0.5755 - acc: 0.8400 - val_loss: 0.4031 - val_acc: 0.8779
…
Found 9 unique labels.
842 unique words not found in embedding.
10 unique chars not found in embedding.
Number of OOV: 257
OOV word occurences: 384
Padded until 83 tokens.
Padded until 24 chars.
Padded until 83 tokens.
Padded until 24 chars.
Padded until 83 tokens.
Model Choice:
__________________________________________________________________________________________________
Layer (type)                    Output Shape         Param #     Connected to                     
==================================================================================================
input_2 (InputLayer)            (None, 83, 24)       0                                            
__________________________________________________________________________________________________
embedding_2 (Embedding)         (None, 24, 64)       6080        input_2[0][0]                    
__________________________________________________________________________________________________
dropout_2 (Dropout)             (None, 24, 64)       0           embedding_2[0][0]                
__________________________________________________________________________________________________
input_1 (InputLayer)            (None, 83)           0                                            
__________________________________________________________________________________________________
lambda_1 (Lambda)               (None, 24, 64)       0           dropout_2[0][0]                  
__________________________________________________________________________________________________
embedding_1 (Embedding)         (None, 83, 64)       6454208     input_1[0][0]                    
__________________________________________________________________________________________________
bidirectional_1 (Bidirectional) (None, 128)          49536       lambda_1[0][0]                   
__________________________________________________________________________________________________
dropout_1 (Dropout)             (None, 83, 64)       0           embedding_1[0][0]                
__________________________________________________________________________________________________
lambda_2 (Lambda)               (None, 83, 128)      0           bidirectional_1[0][0]            
__________________________________________________________________________________________________
concatenate_1 (Concatenate)     (None, 83, 192)      0           dropout_1[0][0]                  
                                                                 lambda_2[0][0]                   
__________________________________________________________________________________________________
bidirectional_2 (Bidirectional) (None, 83, 384)      443520      concatenate_1[0][0]              
__________________________________________________________________________________________________
crf_1 (CRF)                     (None, 83, 10)       3970        bidirectional_2[0][0]            
==================================================================================================
Total params: 6,957,314
Trainable params: 6,957,314
Non-trainable params: 0
__________________________________________________________________________________________________
Train on 753 samples, validate on 84 samples
Epoch 1/70

753/753 [==============================] - 19s 25ms/step - loss: 0.8274 - acc: 0.7939 - val_loss: 0.4674 - val_acc: 0.8811
…
Found 9 unique labels.
829 unique words not found in embedding.
10 unique chars not found in embedding.
Number of OOV: 254
OOV word occurences: 364
Padded until 83 tokens.
Padded until 24 chars.
Padded until 83 tokens.
Padded until 24 chars.
Padded until 83 tokens.
Model Choice:
__________________________________________________________________________________________________
Layer (type)                    Output Shape         Param #     Connected to                     
==================================================================================================
input_2 (InputLayer)            (None, 83, 24)       0                                            
__________________________________________________________________________________________________
embedding_2 (Embedding)         (None, 24, 64)       6080        input_2[0][0]                    
__________________________________________________________________________________________________
dropout_2 (Dropout)             (None, 24, 64)       0           embedding_2[0][0]                
__________________________________________________________________________________________________
input_1 (InputLayer)            (None, 83)           0                                            
__________________________________________________________________________________________________
lambda_1 (Lambda)               (None, 24, 64)       0           dropout_2[0][0]                  
__________________________________________________________________________________________________
embedding_1 (Embedding)         (None, 83, 64)       6453376     input_1[0][0]                    
__________________________________________________________________________________________________
bidirectional_1 (Bidirectional) (None, 128)          49536       lambda_1[0][0]                   
__________________________________________________________________________________________________
dropout_1 (Dropout)             (None, 83, 64)       0           embedding_1[0][0]                
__________________________________________________________________________________________________
lambda_2 (Lambda)               (None, 83, 128)      0           bidirectional_1[0][0]            
__________________________________________________________________________________________________
concatenate_1 (Concatenate)     (None, 83, 192)      0           dropout_1[0][0]                  
                                                                 lambda_2[0][0]                   
__________________________________________________________________________________________________
bidirectional_2 (Bidirectional) (None, 83, 384)      443520      concatenate_1[0][0]              
__________________________________________________________________________________________________
crf_1 (CRF)                     (None, 83, 10)       3970        bidirectional_2[0][0]            
==================================================================================================
Total params: 6,956,482
Trainable params: 6,956,482
Non-trainable params: 0
__________________________________________________________________________________________________
Train on 753 samples, validate on 84 samples
Epoch 1/70

753/753 [==============================] - 19s 25ms/step - loss: 0.8037 - acc: 0.7870 - val_loss: 0.4442 - val_acc: 0.8694
…
Found 9 unique labels.
812 unique words not found in embedding.
10 unique chars not found in embedding.
Number of OOV: 260
OOV word occurences: 365
Padded until 83 tokens.
Padded until 24 chars.
Padded until 83 tokens.
Padded until 24 chars.
Padded until 83 tokens.
Model Choice:
__________________________________________________________________________________________________
Layer (type)                    Output Shape         Param #     Connected to                     
==================================================================================================
input_2 (InputLayer)            (None, 83, 24)       0                                            
__________________________________________________________________________________________________
embedding_2 (Embedding)         (None, 24, 64)       6080        input_2[0][0]                    
__________________________________________________________________________________________________
dropout_2 (Dropout)             (None, 24, 64)       0           embedding_2[0][0]                
__________________________________________________________________________________________________
input_1 (InputLayer)            (None, 83)           0                                            
__________________________________________________________________________________________________
lambda_1 (Lambda)               (None, 24, 64)       0           dropout_2[0][0]                  
__________________________________________________________________________________________________
embedding_1 (Embedding)         (None, 83, 64)       6452288     input_1[0][0]                    
__________________________________________________________________________________________________
bidirectional_1 (Bidirectional) (None, 128)          49536       lambda_1[0][0]                   
__________________________________________________________________________________________________
dropout_1 (Dropout)             (None, 83, 64)       0           embedding_1[0][0]                
__________________________________________________________________________________________________
lambda_2 (Lambda)               (None, 83, 128)      0           bidirectional_1[0][0]            
__________________________________________________________________________________________________
concatenate_1 (Concatenate)     (None, 83, 192)      0           dropout_1[0][0]                  
                                                                 lambda_2[0][0]                   
__________________________________________________________________________________________________
bidirectional_2 (Bidirectional) (None, 83, 384)      443520      concatenate_1[0][0]              
__________________________________________________________________________________________________
crf_1 (CRF)                     (None, 83, 10)       3970        bidirectional_2[0][0]            
==================================================================================================
Total params: 6,955,394
Trainable params: 6,955,394
Non-trainable params: 0
__________________________________________________________________________________________________
Train on 753 samples, validate on 84 samples
Epoch 1/70

753/753 [==============================] - 18s 24ms/step - loss: 0.7500 - acc: 0.7784 - val_loss: 0.4193 - val_acc: 0.8611
…
Found 9 unique labels.
802 unique words not found in embedding.
10 unique chars not found in embedding.
Number of OOV: 259
OOV word occurences: 368
Padded until 58 tokens.
Padded until 24 chars.
Padded until 58 tokens.
Padded until 24 chars.
Padded until 58 tokens.
Model Choice:
__________________________________________________________________________________________________
Layer (type)                    Output Shape         Param #     Connected to                     
==================================================================================================
input_2 (InputLayer)            (None, 58, 24)       0                                            
__________________________________________________________________________________________________
embedding_2 (Embedding)         (None, 24, 64)       6080        input_2[0][0]                    
__________________________________________________________________________________________________
dropout_2 (Dropout)             (None, 24, 64)       0           embedding_2[0][0]                
__________________________________________________________________________________________________
input_1 (InputLayer)            (None, 58)           0                                            
__________________________________________________________________________________________________
lambda_1 (Lambda)               (None, 24, 64)       0           dropout_2[0][0]                  
__________________________________________________________________________________________________
embedding_1 (Embedding)         (None, 58, 64)       6451648     input_1[0][0]                    
__________________________________________________________________________________________________
bidirectional_1 (Bidirectional) (None, 128)          49536       lambda_1[0][0]                   
__________________________________________________________________________________________________
dropout_1 (Dropout)             (None, 58, 64)       0           embedding_1[0][0]                
__________________________________________________________________________________________________
lambda_2 (Lambda)               (None, 58, 128)      0           bidirectional_1[0][0]            
__________________________________________________________________________________________________
concatenate_1 (Concatenate)     (None, 58, 192)      0           dropout_1[0][0]                  
                                                                 lambda_2[0][0]                   
__________________________________________________________________________________________________
bidirectional_2 (Bidirectional) (None, 58, 384)      443520      concatenate_1[0][0]              
__________________________________________________________________________________________________
crf_1 (CRF)                     (None, 58, 10)       3970        bidirectional_2[0][0]            
==================================================================================================
Total params: 6,954,754
Trainable params: 6,954,754
Non-trainable params: 0
__________________________________________________________________________________________________
Train on 753 samples, validate on 84 samples
Epoch 1/70

753/753 [==============================] - 14s 19ms/step - loss: 0.7849 - acc: 0.7902 - val_loss: 0.4211 - val_acc: 0.8656
…
Found 9 unique labels.
786 unique words not found in embedding.
10 unique chars not found in embedding.
Number of OOV: 259
OOV word occurences: 392
Padded until 67 tokens.
Padded until 24 chars.
Padded until 67 tokens.
Padded until 24 chars.
Padded until 67 tokens.
Model Choice:
__________________________________________________________________________________________________
Layer (type)                    Output Shape         Param #     Connected to                     
==================================================================================================
input_2 (InputLayer)            (None, 67, 24)       0                                            
__________________________________________________________________________________________________
embedding_2 (Embedding)         (None, 24, 64)       6080        input_2[0][0]                    
__________________________________________________________________________________________________
dropout_2 (Dropout)             (None, 24, 64)       0           embedding_2[0][0]                
__________________________________________________________________________________________________
input_1 (InputLayer)            (None, 67)           0                                            
__________________________________________________________________________________________________
lambda_1 (Lambda)               (None, 24, 64)       0           dropout_2[0][0]                  
__________________________________________________________________________________________________
embedding_1 (Embedding)         (None, 67, 64)       6450624     input_1[0][0]                    
__________________________________________________________________________________________________
bidirectional_1 (Bidirectional) (None, 128)          49536       lambda_1[0][0]                   
__________________________________________________________________________________________________
dropout_1 (Dropout)             (None, 67, 64)       0           embedding_1[0][0]                
__________________________________________________________________________________________________
lambda_2 (Lambda)               (None, 67, 128)      0           bidirectional_1[0][0]            
__________________________________________________________________________________________________
concatenate_1 (Concatenate)     (None, 67, 192)      0           dropout_1[0][0]                  
                                                                 lambda_2[0][0]                   
__________________________________________________________________________________________________
bidirectional_2 (Bidirectional) (None, 67, 384)      443520      concatenate_1[0][0]              
__________________________________________________________________________________________________
crf_1 (CRF)                     (None, 67, 10)       3970        bidirectional_2[0][0]            
==================================================================================================
Total params: 6,953,730
Trainable params: 6,953,730
Non-trainable params: 0
__________________________________________________________________________________________________
Train on 753 samples, validate on 84 samples
Epoch 1/70

753/753 [==============================] - 16s 21ms/step - loss: 0.8318 - acc: 0.7846 - val_loss: 0.4378 - val_acc: 0.8669
…
Found 9 unique labels.
760 unique words not found in embedding.
10 unique chars not found in embedding.
Number of OOV: 254
OOV word occurences: 352
Padded until 67 tokens.
Padded until 24 chars.
Padded until 67 tokens.
Padded until 24 chars.
Padded until 67 tokens.
Model Choice:
__________________________________________________________________________________________________
Layer (type)                    Output Shape         Param #     Connected to                     
==================================================================================================
input_2 (InputLayer)            (None, 67, 24)       0                                            
__________________________________________________________________________________________________
embedding_2 (Embedding)         (None, 24, 64)       6080        input_2[0][0]                    
__________________________________________________________________________________________________
dropout_2 (Dropout)             (None, 24, 64)       0           embedding_2[0][0]                
__________________________________________________________________________________________________
input_1 (InputLayer)            (None, 67)           0                                            
__________________________________________________________________________________________________
lambda_1 (Lambda)               (None, 24, 64)       0           dropout_2[0][0]                  
__________________________________________________________________________________________________
embedding_1 (Embedding)         (None, 67, 64)       6448960     input_1[0][0]                    
__________________________________________________________________________________________________
bidirectional_1 (Bidirectional) (None, 128)          49536       lambda_1[0][0]                   
__________________________________________________________________________________________________
dropout_1 (Dropout)             (None, 67, 64)       0           embedding_1[0][0]                
__________________________________________________________________________________________________
lambda_2 (Lambda)               (None, 67, 128)      0           bidirectional_1[0][0]            
__________________________________________________________________________________________________
concatenate_1 (Concatenate)     (None, 67, 192)      0           dropout_1[0][0]                  
                                                                 lambda_2[0][0]                   
__________________________________________________________________________________________________
bidirectional_2 (Bidirectional) (None, 67, 384)      443520      concatenate_1[0][0]              
__________________________________________________________________________________________________
crf_1 (CRF)                     (None, 67, 10)       3970        bidirectional_2[0][0]            
==================================================================================================
Total params: 6,952,066
Trainable params: 6,952,066
Non-trainable params: 0
__________________________________________________________________________________________________
Train on 753 samples, validate on 84 samples
Epoch 1/70

753/753 [==============================] - 16s 21ms/step - loss: 0.8001 - acc: 0.7884 - val_loss: 0.3845 - val_acc: 0.8949
…
Found 9 unique labels.
790 unique words not found in embedding.
10 unique chars not found in embedding.
Number of OOV: 258
OOV word occurences: 395
Padded until 67 tokens.
Padded until 24 chars.
Padded until 67 tokens.
Padded until 24 chars.
Padded until 67 tokens.
Model Choice:
__________________________________________________________________________________________________
Layer (type)                    Output Shape         Param #     Connected to                     
==================================================================================================
input_2 (InputLayer)            (None, 67, 24)       0                                            
__________________________________________________________________________________________________
embedding_2 (Embedding)         (None, 24, 64)       6080        input_2[0][0]                    
__________________________________________________________________________________________________
dropout_2 (Dropout)             (None, 24, 64)       0           embedding_2[0][0]                
__________________________________________________________________________________________________
input_1 (InputLayer)            (None, 67)           0                                            
__________________________________________________________________________________________________
lambda_1 (Lambda)               (None, 24, 64)       0           dropout_2[0][0]                  
__________________________________________________________________________________________________
embedding_1 (Embedding)         (None, 67, 64)       6450880     input_1[0][0]                    
__________________________________________________________________________________________________
bidirectional_1 (Bidirectional) (None, 128)          49536       lambda_1[0][0]                   
__________________________________________________________________________________________________
dropout_1 (Dropout)             (None, 67, 64)       0           embedding_1[0][0]                
__________________________________________________________________________________________________
lambda_2 (Lambda)               (None, 67, 128)      0           bidirectional_1[0][0]            
__________________________________________________________________________________________________
concatenate_1 (Concatenate)     (None, 67, 192)      0           dropout_1[0][0]                  
                                                                 lambda_2[0][0]                   
__________________________________________________________________________________________________
bidirectional_2 (Bidirectional) (None, 67, 384)      443520      concatenate_1[0][0]              
__________________________________________________________________________________________________
crf_1 (CRF)                     (None, 67, 10)       3970        bidirectional_2[0][0]            
==================================================================================================
Total params: 6,953,986
Trainable params: 6,953,986
Non-trainable params: 0
__________________________________________________________________________________________________
Train on 753 samples, validate on 84 samples
Epoch 1/70

753/753 [==============================] - 16s 21ms/step - loss: 0.8096 - acc: 0.7894 - val_loss: 0.4122 - val_acc: 0.8728
…
Found 9 unique labels.
794 unique words not found in embedding.
10 unique chars not found in embedding.
Number of OOV: 259
OOV word occurences: 391
Padded until 58 tokens.
Padded until 24 chars.
Padded until 58 tokens.
Padded until 24 chars.
Padded until 58 tokens.
Model Choice:
__________________________________________________________________________________________________
Layer (type)                    Output Shape         Param #     Connected to                     
==================================================================================================
input_2 (InputLayer)            (None, 58, 24)       0                                            
__________________________________________________________________________________________________
embedding_2 (Embedding)         (None, 24, 64)       6080        input_2[0][0]                    
__________________________________________________________________________________________________
dropout_2 (Dropout)             (None, 24, 64)       0           embedding_2[0][0]                
__________________________________________________________________________________________________
input_1 (InputLayer)            (None, 58)           0                                            
__________________________________________________________________________________________________
lambda_1 (Lambda)               (None, 24, 64)       0           dropout_2[0][0]                  
__________________________________________________________________________________________________
embedding_1 (Embedding)         (None, 58, 64)       6451136     input_1[0][0]                    
__________________________________________________________________________________________________
bidirectional_1 (Bidirectional) (None, 128)          49536       lambda_1[0][0]                   
__________________________________________________________________________________________________
dropout_1 (Dropout)             (None, 58, 64)       0           embedding_1[0][0]                
__________________________________________________________________________________________________
lambda_2 (Lambda)               (None, 58, 128)      0           bidirectional_1[0][0]            
__________________________________________________________________________________________________
concatenate_1 (Concatenate)     (None, 58, 192)      0           dropout_1[0][0]                  
                                                                 lambda_2[0][0]                   
__________________________________________________________________________________________________
bidirectional_2 (Bidirectional) (None, 58, 384)      443520      concatenate_1[0][0]              
__________________________________________________________________________________________________
crf_1 (CRF)                     (None, 58, 10)       3970        bidirectional_2[0][0]            
==================================================================================================
Total params: 6,954,242
Trainable params: 6,954,242
Non-trainable params: 0
__________________________________________________________________________________________________
Train on 753 samples, validate on 84 samples
Epoch 1/70

753/753 [==============================] - 14s 19ms/step - loss: 0.8619 - acc: 0.7855 - val_loss: 0.3802 - val_acc: 0.8697
…
Found 9 unique labels.
803 unique words not found in embedding.
10 unique chars not found in embedding.
Number of OOV: 256
OOV word occurences: 360
Padded until 83 tokens.
Padded until 24 chars.
Padded until 83 tokens.
Padded until 24 chars.
Padded until 83 tokens.
Model Choice:
__________________________________________________________________________________________________
Layer (type)                    Output Shape         Param #     Connected to                     
==================================================================================================
input_2 (InputLayer)            (None, 83, 24)       0                                            
__________________________________________________________________________________________________
embedding_2 (Embedding)         (None, 24, 64)       6080        input_2[0][0]                    
__________________________________________________________________________________________________
dropout_2 (Dropout)             (None, 24, 64)       0           embedding_2[0][0]                
__________________________________________________________________________________________________
input_1 (InputLayer)            (None, 83)           0                                            
__________________________________________________________________________________________________
lambda_1 (Lambda)               (None, 24, 64)       0           dropout_2[0][0]                  
__________________________________________________________________________________________________
embedding_1 (Embedding)         (None, 83, 64)       6451712     input_1[0][0]                    
__________________________________________________________________________________________________
bidirectional_1 (Bidirectional) (None, 128)          49536       lambda_1[0][0]                   
__________________________________________________________________________________________________
dropout_1 (Dropout)             (None, 83, 64)       0           embedding_1[0][0]                
__________________________________________________________________________________________________
lambda_2 (Lambda)               (None, 83, 128)      0           bidirectional_1[0][0]            
__________________________________________________________________________________________________
concatenate_1 (Concatenate)     (None, 83, 192)      0           dropout_1[0][0]                  
                                                                 lambda_2[0][0]                   
__________________________________________________________________________________________________
bidirectional_2 (Bidirectional) (None, 83, 384)      443520      concatenate_1[0][0]              
__________________________________________________________________________________________________
crf_1 (CRF)                     (None, 83, 10)       3970        bidirectional_2[0][0]            
==================================================================================================
Total params: 6,954,818
Trainable params: 6,954,818
Non-trainable params: 0
__________________________________________________________________________________________________
Train on 753 samples, validate on 84 samples
Epoch 1/70

753/753 [==============================] - 19s 25ms/step - loss: 0.7045 - acc: 0.8013 - val_loss: 0.4120 - val_acc: 0.8793
…
Found 9 unique labels.
810 unique words not found in embedding.
10 unique chars not found in embedding.
Number of OOV: 255
OOV word occurences: 357
Padded until 67 tokens.
Padded until 24 chars.
Padded until 67 tokens.
Padded until 24 chars.
Padded until 67 tokens.
Model Choice:
__________________________________________________________________________________________________
Layer (type)                    Output Shape         Param #     Connected to                     
==================================================================================================
input_2 (InputLayer)            (None, 67, 24)       0                                            
__________________________________________________________________________________________________
embedding_2 (Embedding)         (None, 24, 64)       6080        input_2[0][0]                    
__________________________________________________________________________________________________
dropout_2 (Dropout)             (None, 24, 64)       0           embedding_2[0][0]                
__________________________________________________________________________________________________
input_1 (InputLayer)            (None, 67)           0                                            
__________________________________________________________________________________________________
lambda_1 (Lambda)               (None, 24, 64)       0           dropout_2[0][0]                  
__________________________________________________________________________________________________
embedding_1 (Embedding)         (None, 67, 64)       6452160     input_1[0][0]                    
__________________________________________________________________________________________________
bidirectional_1 (Bidirectional) (None, 128)          49536       lambda_1[0][0]                   
__________________________________________________________________________________________________
dropout_1 (Dropout)             (None, 67, 64)       0           embedding_1[0][0]                
__________________________________________________________________________________________________
lambda_2 (Lambda)               (None, 67, 128)      0           bidirectional_1[0][0]            
__________________________________________________________________________________________________
concatenate_1 (Concatenate)     (None, 67, 192)      0           dropout_1[0][0]                  
                                                                 lambda_2[0][0]                   
__________________________________________________________________________________________________
bidirectional_2 (Bidirectional) (None, 67, 384)      443520      concatenate_1[0][0]              
__________________________________________________________________________________________________
crf_1 (CRF)                     (None, 67, 10)       3970        bidirectional_2[0][0]            
==================================================================================================
Total params: 6,955,266
Trainable params: 6,955,266
Non-trainable params: 0
__________________________________________________________________________________________________
Train on 753 samples, validate on 84 samples
Epoch 1/70

753/753 [==============================] - 16s 21ms/step - loss: 0.7947 - acc: 0.7873 - val_loss: 0.3613 - val_acc: 0.8937
…
Found 9 unique labels.
781 unique words not found in embedding.
10 unique chars not found in embedding.
Number of OOV: 253
OOV word occurences: 351
Padded until 67 tokens.
Padded until 24 chars.
Padded until 67 tokens.
Padded until 24 chars.
Padded until 67 tokens.
Model Choice:
__________________________________________________________________________________________________
Layer (type)                    Output Shape         Param #     Connected to                     
==================================================================================================
input_2 (InputLayer)            (None, 67, 24)       0                                            
__________________________________________________________________________________________________
embedding_2 (Embedding)         (None, 24, 64)       6080        input_2[0][0]                    
__________________________________________________________________________________________________
dropout_2 (Dropout)             (None, 24, 64)       0           embedding_2[0][0]                
__________________________________________________________________________________________________
input_1 (InputLayer)            (None, 67)           0                                            
__________________________________________________________________________________________________
lambda_1 (Lambda)               (None, 24, 64)       0           dropout_2[0][0]                  
__________________________________________________________________________________________________
embedding_1 (Embedding)         (None, 67, 64)       6450304     input_1[0][0]                    
__________________________________________________________________________________________________
bidirectional_1 (Bidirectional) (None, 128)          49536       lambda_1[0][0]                   
__________________________________________________________________________________________________
dropout_1 (Dropout)             (None, 67, 64)       0           embedding_1[0][0]                
__________________________________________________________________________________________________
lambda_2 (Lambda)               (None, 67, 128)      0           bidirectional_1[0][0]            
__________________________________________________________________________________________________
concatenate_1 (Concatenate)     (None, 67, 192)      0           dropout_1[0][0]                  
                                                                 lambda_2[0][0]                   
__________________________________________________________________________________________________
bidirectional_2 (Bidirectional) (None, 67, 384)      443520      concatenate_1[0][0]              
__________________________________________________________________________________________________
crf_1 (CRF)                     (None, 67, 10)       3970        bidirectional_2[0][0]            
==================================================================================================
Total params: 6,953,410
Trainable params: 6,953,410
Non-trainable params: 0
__________________________________________________________________________________________________
Train on 753 samples, validate on 84 samples
Epoch 1/70

753/753 [==============================] - 16s 22ms/step - loss: 0.7364 - acc: 0.7864 - val_loss: 0.3856 - val_acc: 0.8839
…
Found 9 unique labels.
816 unique words not found in embedding.
10 unique chars not found in embedding.
Number of OOV: 252
OOV word occurences: 360
Padded until 83 tokens.
Padded until 24 chars.
Padded until 83 tokens.
Padded until 24 chars.
Padded until 83 tokens.
Model Choice:
__________________________________________________________________________________________________
Layer (type)                    Output Shape         Param #     Connected to                     
==================================================================================================
input_2 (InputLayer)            (None, 83, 24)       0                                            
__________________________________________________________________________________________________
embedding_2 (Embedding)         (None, 24, 64)       6080        input_2[0][0]                    
__________________________________________________________________________________________________
dropout_2 (Dropout)             (None, 24, 64)       0           embedding_2[0][0]                
__________________________________________________________________________________________________
input_1 (InputLayer)            (None, 83)           0                                            
__________________________________________________________________________________________________
lambda_1 (Lambda)               (None, 24, 64)       0           dropout_2[0][0]                  
__________________________________________________________________________________________________
embedding_1 (Embedding)         (None, 83, 64)       6452544     input_1[0][0]                    
__________________________________________________________________________________________________
bidirectional_1 (Bidirectional) (None, 128)          49536       lambda_1[0][0]                   
__________________________________________________________________________________________________
dropout_1 (Dropout)             (None, 83, 64)       0           embedding_1[0][0]                
__________________________________________________________________________________________________
lambda_2 (Lambda)               (None, 83, 128)      0           bidirectional_1[0][0]            
__________________________________________________________________________________________________
concatenate_1 (Concatenate)     (None, 83, 192)      0           dropout_1[0][0]                  
                                                                 lambda_2[0][0]                   
__________________________________________________________________________________________________
bidirectional_2 (Bidirectional) (None, 83, 384)      443520      concatenate_1[0][0]              
__________________________________________________________________________________________________
crf_1 (CRF)                     (None, 83, 10)       3970        bidirectional_2[0][0]            
==================================================================================================
Total params: 6,955,650
Trainable params: 6,955,650
Non-trainable params: 0
__________________________________________________________________________________________________
Train on 753 samples, validate on 84 samples
Epoch 1/70

753/753 [==============================] - 19s 25ms/step - loss: 0.6911 - acc: 0.8284 - val_loss: 0.3790 - val_acc: 0.8692
…
Found 9 unique labels.
800 unique words not found in embedding.
10 unique chars not found in embedding.
Number of OOV: 258
OOV word occurences: 365
Padded until 63 tokens.
Padded until 24 chars.
Padded until 63 tokens.
Padded until 24 chars.
Padded until 63 tokens.
Model Choice:
__________________________________________________________________________________________________
Layer (type)                    Output Shape         Param #     Connected to                     
==================================================================================================
input_2 (InputLayer)            (None, 63, 24)       0                                            
__________________________________________________________________________________________________
embedding_2 (Embedding)         (None, 24, 64)       6080        input_2[0][0]                    
__________________________________________________________________________________________________
dropout_2 (Dropout)             (None, 24, 64)       0           embedding_2[0][0]                
__________________________________________________________________________________________________
input_1 (InputLayer)            (None, 63)           0                                            
__________________________________________________________________________________________________
lambda_1 (Lambda)               (None, 24, 64)       0           dropout_2[0][0]                  
__________________________________________________________________________________________________
embedding_1 (Embedding)         (None, 63, 64)       6451520     input_1[0][0]                    
__________________________________________________________________________________________________
bidirectional_1 (Bidirectional) (None, 128)          49536       lambda_1[0][0]                   
__________________________________________________________________________________________________
dropout_1 (Dropout)             (None, 63, 64)       0           embedding_1[0][0]                
__________________________________________________________________________________________________
lambda_2 (Lambda)               (None, 63, 128)      0           bidirectional_1[0][0]            
__________________________________________________________________________________________________
concatenate_1 (Concatenate)     (None, 63, 192)      0           dropout_1[0][0]                  
                                                                 lambda_2[0][0]                   
__________________________________________________________________________________________________
bidirectional_2 (Bidirectional) (None, 63, 384)      443520      concatenate_1[0][0]              
__________________________________________________________________________________________________
crf_1 (CRF)                     (None, 63, 10)       3970        bidirectional_2[0][0]            
==================================================================================================
Total params: 6,954,626
Trainable params: 6,954,626
Non-trainable params: 0
__________________________________________________________________________________________________
Train on 753 samples, validate on 84 samples
Epoch 1/70

753/753 [==============================] - 15s 20ms/step - loss: 0.7631 - acc: 0.7867 - val_loss: 0.4013 - val_acc: 0.8861
…
Found 9 unique labels.
792 unique words not found in embedding.
10 unique chars not found in embedding.
Number of OOV: 253
OOV word occurences: 368
Padded until 67 tokens.
Padded until 24 chars.
Padded until 67 tokens.
Padded until 24 chars.
Padded until 67 tokens.
Model Choice:
__________________________________________________________________________________________________
Layer (type)                    Output Shape         Param #     Connected to                     
==================================================================================================
input_2 (InputLayer)            (None, 67, 24)       0                                            
__________________________________________________________________________________________________
embedding_2 (Embedding)         (None, 24, 64)       6080        input_2[0][0]                    
__________________________________________________________________________________________________
dropout_2 (Dropout)             (None, 24, 64)       0           embedding_2[0][0]                
__________________________________________________________________________________________________
input_1 (InputLayer)            (None, 67)           0                                            
__________________________________________________________________________________________________
lambda_1 (Lambda)               (None, 24, 64)       0           dropout_2[0][0]                  
__________________________________________________________________________________________________
embedding_1 (Embedding)         (None, 67, 64)       6451008     input_1[0][0]                    
__________________________________________________________________________________________________
bidirectional_1 (Bidirectional) (None, 128)          49536       lambda_1[0][0]                   
__________________________________________________________________________________________________
dropout_1 (Dropout)             (None, 67, 64)       0           embedding_1[0][0]                
__________________________________________________________________________________________________
lambda_2 (Lambda)               (None, 67, 128)      0           bidirectional_1[0][0]            
__________________________________________________________________________________________________
concatenate_1 (Concatenate)     (None, 67, 192)      0           dropout_1[0][0]                  
                                                                 lambda_2[0][0]                   
__________________________________________________________________________________________________
bidirectional_2 (Bidirectional) (None, 67, 384)      443520      concatenate_1[0][0]              
__________________________________________________________________________________________________
crf_1 (CRF)                     (None, 67, 10)       3970        bidirectional_2[0][0]            
==================================================================================================
Total params: 6,954,114
Trainable params: 6,954,114
Non-trainable params: 0
__________________________________________________________________________________________________
Train on 753 samples, validate on 84 samples
Epoch 1/70

753/753 [==============================] - 16s 21ms/step - loss: 0.7466 - acc: 0.7982 - val_loss: 0.4419 - val_acc: 0.8550
…
Found 9 unique labels.
354 unique words not found in embedding.
10 unique chars not found in embedding.
Number of OOV: 287
OOV word occurences: 458
Padded until 57 tokens.
Padded until 24 chars.
Padded until 57 tokens.
Padded until 24 chars.
Padded until 57 tokens.
Model Choice:
__________________________________________________________________________________________________
Layer (type)                    Output Shape         Param #     Connected to                     
==================================================================================================
input_2 (InputLayer)            (None, 57, 24)       0                                            
__________________________________________________________________________________________________
embedding_2 (Embedding)         (None, 24, 64)       6080        input_2[0][0]                    
__________________________________________________________________________________________________
dropout_2 (Dropout)             (None, 24, 64)       0           embedding_2[0][0]                
__________________________________________________________________________________________________
input_1 (InputLayer)            (None, 57)           0                                            
__________________________________________________________________________________________________
lambda_1 (Lambda)               (None, 24, 64)       0           dropout_2[0][0]                  
__________________________________________________________________________________________________
embedding_1 (Embedding)         (None, 57, 64)       6422976     input_1[0][0]                    
__________________________________________________________________________________________________
bidirectional_1 (Bidirectional) (None, 128)          49536       lambda_1[0][0]                   
__________________________________________________________________________________________________
dropout_1 (Dropout)             (None, 57, 64)       0           embedding_1[0][0]                
__________________________________________________________________________________________________
lambda_2 (Lambda)               (None, 57, 128)      0           bidirectional_1[0][0]            
__________________________________________________________________________________________________
concatenate_1 (Concatenate)     (None, 57, 192)      0           dropout_1[0][0]                  
                                                                 lambda_2[0][0]                   
__________________________________________________________________________________________________
bidirectional_2 (Bidirectional) (None, 57, 384)      443520      concatenate_1[0][0]              
__________________________________________________________________________________________________
crf_1 (CRF)                     (None, 57, 10)       3970        bidirectional_2[0][0]            
==================================================================================================
Total params: 6,926,082
Trainable params: 6,926,082
Non-trainable params: 0
__________________________________________________________________________________________________
Train on 300 samples, validate on 34 samples
Epoch 1/70

300/300 [==============================] - 7s 24ms/step - loss: 1.1112 - acc: 0.7065 - val_loss: 0.5648 - val_acc: 0.8157
…
Found 9 unique labels.
391 unique words not found in embedding.
10 unique chars not found in embedding.
Number of OOV: 281
OOV word occurences: 416
Padded until 58 tokens.
Padded until 24 chars.
Padded until 58 tokens.
Padded until 24 chars.
Padded until 58 tokens.
Model Choice:
__________________________________________________________________________________________________
Layer (type)                    Output Shape         Param #     Connected to                     
==================================================================================================
input_2 (InputLayer)            (None, 58, 24)       0                                            
__________________________________________________________________________________________________
embedding_2 (Embedding)         (None, 24, 64)       6080        input_2[0][0]                    
__________________________________________________________________________________________________
dropout_2 (Dropout)             (None, 24, 64)       0           embedding_2[0][0]                
__________________________________________________________________________________________________
input_1 (InputLayer)            (None, 58)           0                                            
__________________________________________________________________________________________________
lambda_1 (Lambda)               (None, 24, 64)       0           dropout_2[0][0]                  
__________________________________________________________________________________________________
embedding_1 (Embedding)         (None, 58, 64)       6425344     input_1[0][0]                    
__________________________________________________________________________________________________
bidirectional_1 (Bidirectional) (None, 128)          49536       lambda_1[0][0]                   
__________________________________________________________________________________________________
dropout_1 (Dropout)             (None, 58, 64)       0           embedding_1[0][0]                
__________________________________________________________________________________________________
lambda_2 (Lambda)               (None, 58, 128)      0           bidirectional_1[0][0]            
__________________________________________________________________________________________________
concatenate_1 (Concatenate)     (None, 58, 192)      0           dropout_1[0][0]                  
                                                                 lambda_2[0][0]                   
__________________________________________________________________________________________________
bidirectional_2 (Bidirectional) (None, 58, 384)      443520      concatenate_1[0][0]              
__________________________________________________________________________________________________
crf_1 (CRF)                     (None, 58, 10)       3970        bidirectional_2[0][0]            
==================================================================================================
Total params: 6,928,450
Trainable params: 6,928,450
Non-trainable params: 0
__________________________________________________________________________________________________
Train on 300 samples, validate on 34 samples
Epoch 1/70

300/300 [==============================] - 7s 24ms/step - loss: 1.2170 - acc: 0.7170 - val_loss: 0.7012 - val_acc: 0.7985
…
Found 9 unique labels.
359 unique words not found in embedding.
10 unique chars not found in embedding.
Number of OOV: 287
OOV word occurences: 450
Padded until 66 tokens.
Padded until 24 chars.
Padded until 66 tokens.
Padded until 24 chars.
Padded until 66 tokens.
Model Choice:
__________________________________________________________________________________________________
Layer (type)                    Output Shape         Param #     Connected to                     
==================================================================================================
input_2 (InputLayer)            (None, 66, 24)       0                                            
__________________________________________________________________________________________________
embedding_2 (Embedding)         (None, 24, 64)       6080        input_2[0][0]                    
__________________________________________________________________________________________________
dropout_2 (Dropout)             (None, 24, 64)       0           embedding_2[0][0]                
__________________________________________________________________________________________________
input_1 (InputLayer)            (None, 66)           0                                            
__________________________________________________________________________________________________
lambda_1 (Lambda)               (None, 24, 64)       0           dropout_2[0][0]                  
__________________________________________________________________________________________________
embedding_1 (Embedding)         (None, 66, 64)       6423296     input_1[0][0]                    
__________________________________________________________________________________________________
bidirectional_1 (Bidirectional) (None, 128)          49536       lambda_1[0][0]                   
__________________________________________________________________________________________________
dropout_1 (Dropout)             (None, 66, 64)       0           embedding_1[0][0]                
__________________________________________________________________________________________________
lambda_2 (Lambda)               (None, 66, 128)      0           bidirectional_1[0][0]            
__________________________________________________________________________________________________
concatenate_1 (Concatenate)     (None, 66, 192)      0           dropout_1[0][0]                  
                                                                 lambda_2[0][0]                   
__________________________________________________________________________________________________
bidirectional_2 (Bidirectional) (None, 66, 384)      443520      concatenate_1[0][0]              
__________________________________________________________________________________________________
crf_1 (CRF)                     (None, 66, 10)       3970        bidirectional_2[0][0]            
==================================================================================================
Total params: 6,926,402
Trainable params: 6,926,402
Non-trainable params: 0
__________________________________________________________________________________________________
Train on 300 samples, validate on 34 samples
Epoch 1/70

300/300 [==============================] - 8s 26ms/step - loss: 0.9694 - acc: 0.7471 - val_loss: 0.6182 - val_acc: 0.8022
…
Found 9 unique labels.
358 unique words not found in embedding.
10 unique chars not found in embedding.
Number of OOV: 281
OOV word occurences: 425
Padded until 57 tokens.
Padded until 24 chars.
Padded until 57 tokens.
Padded until 24 chars.
Padded until 57 tokens.
Model Choice:
__________________________________________________________________________________________________
Layer (type)                    Output Shape         Param #     Connected to                     
==================================================================================================
input_2 (InputLayer)            (None, 57, 24)       0                                            
__________________________________________________________________________________________________
embedding_2 (Embedding)         (None, 24, 64)       6080        input_2[0][0]                    
__________________________________________________________________________________________________
dropout_2 (Dropout)             (None, 24, 64)       0           embedding_2[0][0]                
__________________________________________________________________________________________________
input_1 (InputLayer)            (None, 57)           0                                            
__________________________________________________________________________________________________
lambda_1 (Lambda)               (None, 24, 64)       0           dropout_2[0][0]                  
__________________________________________________________________________________________________
embedding_1 (Embedding)         (None, 57, 64)       6423232     input_1[0][0]                    
__________________________________________________________________________________________________
bidirectional_1 (Bidirectional) (None, 128)          49536       lambda_1[0][0]                   
__________________________________________________________________________________________________
dropout_1 (Dropout)             (None, 57, 64)       0           embedding_1[0][0]                
__________________________________________________________________________________________________
lambda_2 (Lambda)               (None, 57, 128)      0           bidirectional_1[0][0]            
__________________________________________________________________________________________________
concatenate_1 (Concatenate)     (None, 57, 192)      0           dropout_1[0][0]                  
                                                                 lambda_2[0][0]                   
__________________________________________________________________________________________________
bidirectional_2 (Bidirectional) (None, 57, 384)      443520      concatenate_1[0][0]              
__________________________________________________________________________________________________
crf_1 (CRF)                     (None, 57, 10)       3970        bidirectional_2[0][0]            
==================================================================================================
Total params: 6,926,338
Trainable params: 6,926,338
Non-trainable params: 0
__________________________________________________________________________________________________
Train on 300 samples, validate on 34 samples
Epoch 1/70

300/300 [==============================] - 7s 24ms/step - loss: 1.0270 - acc: 0.7573 - val_loss: 0.5981 - val_acc: 0.8155
…
Found 9 unique labels.
376 unique words not found in embedding.
10 unique chars not found in embedding.
Number of OOV: 282
OOV word occurences: 438
Padded until 63 tokens.
Padded until 24 chars.
Padded until 63 tokens.
Padded until 24 chars.
Padded until 63 tokens.
Model Choice:
__________________________________________________________________________________________________
Layer (type)                    Output Shape         Param #     Connected to                     
==================================================================================================
input_2 (InputLayer)            (None, 63, 24)       0                                            
__________________________________________________________________________________________________
embedding_2 (Embedding)         (None, 24, 64)       6080        input_2[0][0]                    
__________________________________________________________________________________________________
dropout_2 (Dropout)             (None, 24, 64)       0           embedding_2[0][0]                
__________________________________________________________________________________________________
input_1 (InputLayer)            (None, 63)           0                                            
__________________________________________________________________________________________________
lambda_1 (Lambda)               (None, 24, 64)       0           dropout_2[0][0]                  
__________________________________________________________________________________________________
embedding_1 (Embedding)         (None, 63, 64)       6424384     input_1[0][0]                    
__________________________________________________________________________________________________
bidirectional_1 (Bidirectional) (None, 128)          49536       lambda_1[0][0]                   
__________________________________________________________________________________________________
dropout_1 (Dropout)             (None, 63, 64)       0           embedding_1[0][0]                
__________________________________________________________________________________________________
lambda_2 (Lambda)               (None, 63, 128)      0           bidirectional_1[0][0]            
__________________________________________________________________________________________________
concatenate_1 (Concatenate)     (None, 63, 192)      0           dropout_1[0][0]                  
                                                                 lambda_2[0][0]                   
__________________________________________________________________________________________________
bidirectional_2 (Bidirectional) (None, 63, 384)      443520      concatenate_1[0][0]              
__________________________________________________________________________________________________
crf_1 (CRF)                     (None, 63, 10)       3970        bidirectional_2[0][0]            
==================================================================================================
Total params: 6,927,490
Trainable params: 6,927,490
Non-trainable params: 0
__________________________________________________________________________________________________
Train on 300 samples, validate on 34 samples
Epoch 1/70

300/300 [==============================] - 8s 25ms/step - loss: 1.1092 - acc: 0.7784 - val_loss: 0.5605 - val_acc: 0.8342
…
Found 9 unique labels.
350 unique words not found in embedding.
10 unique chars not found in embedding.
Number of OOV: 286
OOV word occurences: 421
Padded until 58 tokens.
Padded until 24 chars.
Padded until 58 tokens.
Padded until 24 chars.
Padded until 58 tokens.
Model Choice:
__________________________________________________________________________________________________
Layer (type)                    Output Shape         Param #     Connected to                     
==================================================================================================
input_2 (InputLayer)            (None, 58, 24)       0                                            
__________________________________________________________________________________________________
embedding_2 (Embedding)         (None, 24, 64)       6080        input_2[0][0]                    
__________________________________________________________________________________________________
dropout_2 (Dropout)             (None, 24, 64)       0           embedding_2[0][0]                
__________________________________________________________________________________________________
input_1 (InputLayer)            (None, 58)           0                                            
__________________________________________________________________________________________________
lambda_1 (Lambda)               (None, 24, 64)       0           dropout_2[0][0]                  
__________________________________________________________________________________________________
embedding_1 (Embedding)         (None, 58, 64)       6422720     input_1[0][0]                    
__________________________________________________________________________________________________
bidirectional_1 (Bidirectional) (None, 128)          49536       lambda_1[0][0]                   
__________________________________________________________________________________________________
dropout_1 (Dropout)             (None, 58, 64)       0           embedding_1[0][0]                
__________________________________________________________________________________________________
lambda_2 (Lambda)               (None, 58, 128)      0           bidirectional_1[0][0]            
__________________________________________________________________________________________________
concatenate_1 (Concatenate)     (None, 58, 192)      0           dropout_1[0][0]                  
                                                                 lambda_2[0][0]                   
__________________________________________________________________________________________________
bidirectional_2 (Bidirectional) (None, 58, 384)      443520      concatenate_1[0][0]              
__________________________________________________________________________________________________
crf_1 (CRF)                     (None, 58, 10)       3970        bidirectional_2[0][0]            
==================================================================================================
Total params: 6,925,826
Trainable params: 6,925,826
Non-trainable params: 0
__________________________________________________________________________________________________
Train on 300 samples, validate on 34 samples
Epoch 1/70

300/300 [==============================] - 7s 24ms/step - loss: 1.1843 - acc: 0.7242 - val_loss: 0.6781 - val_acc: 0.7926
…
Found 9 unique labels.
375 unique words not found in embedding.
10 unique chars not found in embedding.
Number of OOV: 277
OOV word occurences: 429
Padded until 58 tokens.
Padded until 24 chars.
Padded until 58 tokens.
Padded until 24 chars.
Padded until 58 tokens.
Model Choice:
__________________________________________________________________________________________________
Layer (type)                    Output Shape         Param #     Connected to                     
==================================================================================================
input_2 (InputLayer)            (None, 58, 24)       0                                            
__________________________________________________________________________________________________
embedding_2 (Embedding)         (None, 24, 64)       6080        input_2[0][0]                    
__________________________________________________________________________________________________
dropout_2 (Dropout)             (None, 24, 64)       0           embedding_2[0][0]                
__________________________________________________________________________________________________
input_1 (InputLayer)            (None, 58)           0                                            
__________________________________________________________________________________________________
lambda_1 (Lambda)               (None, 24, 64)       0           dropout_2[0][0]                  
__________________________________________________________________________________________________
embedding_1 (Embedding)         (None, 58, 64)       6424320     input_1[0][0]                    
__________________________________________________________________________________________________
bidirectional_1 (Bidirectional) (None, 128)          49536       lambda_1[0][0]                   
__________________________________________________________________________________________________
dropout_1 (Dropout)             (None, 58, 64)       0           embedding_1[0][0]                
__________________________________________________________________________________________________
lambda_2 (Lambda)               (None, 58, 128)      0           bidirectional_1[0][0]            
__________________________________________________________________________________________________
concatenate_1 (Concatenate)     (None, 58, 192)      0           dropout_1[0][0]                  
                                                                 lambda_2[0][0]                   
__________________________________________________________________________________________________
bidirectional_2 (Bidirectional) (None, 58, 384)      443520      concatenate_1[0][0]              
__________________________________________________________________________________________________
crf_1 (CRF)                     (None, 58, 10)       3970        bidirectional_2[0][0]            
==================================================================================================
Total params: 6,927,426
Trainable params: 6,927,426
Non-trainable params: 0
__________________________________________________________________________________________________
Train on 300 samples, validate on 34 samples
Epoch 1/70

300/300 [==============================] - 7s 25ms/step - loss: 1.1093 - acc: 0.7270 - val_loss: 0.6156 - val_acc: 0.8105
…
Found 9 unique labels.
370 unique words not found in embedding.
10 unique chars not found in embedding.
Number of OOV: 281
OOV word occurences: 431
Padded until 58 tokens.
Padded until 24 chars.
Padded until 58 tokens.
Padded until 24 chars.
Padded until 58 tokens.
Model Choice:
__________________________________________________________________________________________________
Layer (type)                    Output Shape         Param #     Connected to                     
==================================================================================================
input_2 (InputLayer)            (None, 58, 24)       0                                            
__________________________________________________________________________________________________
embedding_2 (Embedding)         (None, 24, 64)       6080        input_2[0][0]                    
__________________________________________________________________________________________________
dropout_2 (Dropout)             (None, 24, 64)       0           embedding_2[0][0]                
__________________________________________________________________________________________________
input_1 (InputLayer)            (None, 58)           0                                            
__________________________________________________________________________________________________
lambda_1 (Lambda)               (None, 24, 64)       0           dropout_2[0][0]                  
__________________________________________________________________________________________________
embedding_1 (Embedding)         (None, 58, 64)       6424000     input_1[0][0]                    
__________________________________________________________________________________________________
bidirectional_1 (Bidirectional) (None, 128)          49536       lambda_1[0][0]                   
__________________________________________________________________________________________________
dropout_1 (Dropout)             (None, 58, 64)       0           embedding_1[0][0]                
__________________________________________________________________________________________________
lambda_2 (Lambda)               (None, 58, 128)      0           bidirectional_1[0][0]            
__________________________________________________________________________________________________
concatenate_1 (Concatenate)     (None, 58, 192)      0           dropout_1[0][0]                  
                                                                 lambda_2[0][0]                   
__________________________________________________________________________________________________
bidirectional_2 (Bidirectional) (None, 58, 384)      443520      concatenate_1[0][0]              
__________________________________________________________________________________________________
crf_1 (CRF)                     (None, 58, 10)       3970        bidirectional_2[0][0]            
==================================================================================================
Total params: 6,927,106
Trainable params: 6,927,106
Non-trainable params: 0
__________________________________________________________________________________________________
Train on 300 samples, validate on 34 samples
Epoch 1/70

300/300 [==============================] - 7s 24ms/step - loss: 1.1509 - acc: 0.7319 - val_loss: 0.5926 - val_acc: 0.8204
…
Found 9 unique labels.
403 unique words not found in embedding.
10 unique chars not found in embedding.
Number of OOV: 288
OOV word occurences: 456
Padded until 67 tokens.
Padded until 24 chars.
Padded until 67 tokens.
Padded until 24 chars.
Padded until 67 tokens.
Model Choice:
__________________________________________________________________________________________________
Layer (type)                    Output Shape         Param #     Connected to                     
==================================================================================================
input_2 (InputLayer)            (None, 67, 24)       0                                            
__________________________________________________________________________________________________
embedding_2 (Embedding)         (None, 24, 64)       6080        input_2[0][0]                    
__________________________________________________________________________________________________
dropout_2 (Dropout)             (None, 24, 64)       0           embedding_2[0][0]                
__________________________________________________________________________________________________
input_1 (InputLayer)            (None, 67)           0                                            
__________________________________________________________________________________________________
lambda_1 (Lambda)               (None, 24, 64)       0           dropout_2[0][0]                  
__________________________________________________________________________________________________
embedding_1 (Embedding)         (None, 67, 64)       6426112     input_1[0][0]                    
__________________________________________________________________________________________________
bidirectional_1 (Bidirectional) (None, 128)          49536       lambda_1[0][0]                   
__________________________________________________________________________________________________
dropout_1 (Dropout)             (None, 67, 64)       0           embedding_1[0][0]                
__________________________________________________________________________________________________
lambda_2 (Lambda)               (None, 67, 128)      0           bidirectional_1[0][0]            
__________________________________________________________________________________________________
concatenate_1 (Concatenate)     (None, 67, 192)      0           dropout_1[0][0]                  
                                                                 lambda_2[0][0]                   
__________________________________________________________________________________________________
bidirectional_2 (Bidirectional) (None, 67, 384)      443520      concatenate_1[0][0]              
__________________________________________________________________________________________________
crf_1 (CRF)                     (None, 67, 10)       3970        bidirectional_2[0][0]            
==================================================================================================
Total params: 6,929,218
Trainable params: 6,929,218
Non-trainable params: 0
__________________________________________________________________________________________________
Train on 300 samples, validate on 34 samples
Epoch 1/70

300/300 [==============================] - 8s 27ms/step - loss: 1.2718 - acc: 0.7204 - val_loss: 0.6577 - val_acc: 0.8090
…
Found 9 unique labels.
405 unique words not found in embedding.
10 unique chars not found in embedding.
Number of OOV: 276
OOV word occurences: 398
Padded until 66 tokens.
Padded until 24 chars.
Padded until 66 tokens.
Padded until 24 chars.
Padded until 66 tokens.
Model Choice:
__________________________________________________________________________________________________
Layer (type)                    Output Shape         Param #     Connected to                     
==================================================================================================
input_2 (InputLayer)            (None, 66, 24)       0                                            
__________________________________________________________________________________________________
embedding_2 (Embedding)         (None, 24, 64)       6080        input_2[0][0]                    
__________________________________________________________________________________________________
dropout_2 (Dropout)             (None, 24, 64)       0           embedding_2[0][0]                
__________________________________________________________________________________________________
input_1 (InputLayer)            (None, 66)           0                                            
__________________________________________________________________________________________________
lambda_1 (Lambda)               (None, 24, 64)       0           dropout_2[0][0]                  
__________________________________________________________________________________________________
embedding_1 (Embedding)         (None, 66, 64)       6426240     input_1[0][0]                    
__________________________________________________________________________________________________
bidirectional_1 (Bidirectional) (None, 128)          49536       lambda_1[0][0]                   
__________________________________________________________________________________________________
dropout_1 (Dropout)             (None, 66, 64)       0           embedding_1[0][0]                
__________________________________________________________________________________________________
lambda_2 (Lambda)               (None, 66, 128)      0           bidirectional_1[0][0]            
__________________________________________________________________________________________________
concatenate_1 (Concatenate)     (None, 66, 192)      0           dropout_1[0][0]                  
                                                                 lambda_2[0][0]                   
__________________________________________________________________________________________________
bidirectional_2 (Bidirectional) (None, 66, 384)      443520      concatenate_1[0][0]              
__________________________________________________________________________________________________
crf_1 (CRF)                     (None, 66, 10)       3970        bidirectional_2[0][0]            
==================================================================================================
Total params: 6,929,346
Trainable params: 6,929,346
Non-trainable params: 0
__________________________________________________________________________________________________
Train on 300 samples, validate on 34 samples
Epoch 1/70

300/300 [==============================] - 8s 27ms/step - loss: 1.1817 - acc: 0.7182 - val_loss: 0.5507 - val_acc: 0.8224
…
Found 9 unique labels.
384 unique words not found in embedding.
10 unique chars not found in embedding.
Number of OOV: 280
OOV word occurences: 464
Padded until 83 tokens.
Padded until 24 chars.
Padded until 83 tokens.
Padded until 24 chars.
Padded until 83 tokens.
Model Choice:
__________________________________________________________________________________________________
Layer (type)                    Output Shape         Param #     Connected to                     
==================================================================================================
input_2 (InputLayer)            (None, 83, 24)       0                                            
__________________________________________________________________________________________________
embedding_2 (Embedding)         (None, 24, 64)       6080        input_2[0][0]                    
__________________________________________________________________________________________________
dropout_2 (Dropout)             (None, 24, 64)       0           embedding_2[0][0]                
__________________________________________________________________________________________________
input_1 (InputLayer)            (None, 83)           0                                            
__________________________________________________________________________________________________
lambda_1 (Lambda)               (None, 24, 64)       0           dropout_2[0][0]                  
__________________________________________________________________________________________________
embedding_1 (Embedding)         (None, 83, 64)       6424896     input_1[0][0]                    
__________________________________________________________________________________________________
bidirectional_1 (Bidirectional) (None, 128)          49536       lambda_1[0][0]                   
__________________________________________________________________________________________________
dropout_1 (Dropout)             (None, 83, 64)       0           embedding_1[0][0]                
__________________________________________________________________________________________________
lambda_2 (Lambda)               (None, 83, 128)      0           bidirectional_1[0][0]            
__________________________________________________________________________________________________
concatenate_1 (Concatenate)     (None, 83, 192)      0           dropout_1[0][0]                  
                                                                 lambda_2[0][0]                   
__________________________________________________________________________________________________
bidirectional_2 (Bidirectional) (None, 83, 384)      443520      concatenate_1[0][0]              
__________________________________________________________________________________________________
crf_1 (CRF)                     (None, 83, 10)       3970        bidirectional_2[0][0]            
==================================================================================================
Total params: 6,928,002
Trainable params: 6,928,002
Non-trainable params: 0
__________________________________________________________________________________________________
Train on 300 samples, validate on 34 samples
Epoch 1/70

300/300 [==============================] - 9s 30ms/step - loss: 1.1409 - acc: 0.7304 - val_loss: 0.7736 - val_acc: 0.7627
…
Found 9 unique labels.
368 unique words not found in embedding.
10 unique chars not found in embedding.
Number of OOV: 274
OOV word occurences: 397
Padded until 57 tokens.
Padded until 24 chars.
Padded until 57 tokens.
Padded until 24 chars.
Padded until 57 tokens.
Model Choice:
__________________________________________________________________________________________________
Layer (type)                    Output Shape         Param #     Connected to                     
==================================================================================================
input_2 (InputLayer)            (None, 57, 24)       0                                            
__________________________________________________________________________________________________
embedding_2 (Embedding)         (None, 24, 64)       6080        input_2[0][0]                    
__________________________________________________________________________________________________
dropout_2 (Dropout)             (None, 24, 64)       0           embedding_2[0][0]                
__________________________________________________________________________________________________
input_1 (InputLayer)            (None, 57)           0                                            
__________________________________________________________________________________________________
lambda_1 (Lambda)               (None, 24, 64)       0           dropout_2[0][0]                  
__________________________________________________________________________________________________
embedding_1 (Embedding)         (None, 57, 64)       6423872     input_1[0][0]                    
__________________________________________________________________________________________________
bidirectional_1 (Bidirectional) (None, 128)          49536       lambda_1[0][0]                   
__________________________________________________________________________________________________
dropout_1 (Dropout)             (None, 57, 64)       0           embedding_1[0][0]                
__________________________________________________________________________________________________
lambda_2 (Lambda)               (None, 57, 128)      0           bidirectional_1[0][0]            
__________________________________________________________________________________________________
concatenate_1 (Concatenate)     (None, 57, 192)      0           dropout_1[0][0]                  
                                                                 lambda_2[0][0]                   
__________________________________________________________________________________________________
bidirectional_2 (Bidirectional) (None, 57, 384)      443520      concatenate_1[0][0]              
__________________________________________________________________________________________________
crf_1 (CRF)                     (None, 57, 10)       3970        bidirectional_2[0][0]            
==================================================================================================
Total params: 6,926,978
Trainable params: 6,926,978
Non-trainable params: 0
__________________________________________________________________________________________________
Train on 300 samples, validate on 34 samples
Epoch 1/70

300/300 [==============================] - 7s 24ms/step - loss: 1.1794 - acc: 0.7200 - val_loss: 0.7397 - val_acc: 0.7866
…
Found 9 unique labels.
372 unique words not found in embedding.
10 unique chars not found in embedding.
Number of OOV: 285
OOV word occurences: 448
Padded until 67 tokens.
Padded until 24 chars.
Padded until 67 tokens.
Padded until 24 chars.
Padded until 67 tokens.
Model Choice:
__________________________________________________________________________________________________
Layer (type)                    Output Shape         Param #     Connected to                     
==================================================================================================
input_2 (InputLayer)            (None, 67, 24)       0                                            
__________________________________________________________________________________________________
embedding_2 (Embedding)         (None, 24, 64)       6080        input_2[0][0]                    
__________________________________________________________________________________________________
dropout_2 (Dropout)             (None, 24, 64)       0           embedding_2[0][0]                
__________________________________________________________________________________________________
input_1 (InputLayer)            (None, 67)           0                                            
__________________________________________________________________________________________________
lambda_1 (Lambda)               (None, 24, 64)       0           dropout_2[0][0]                  
__________________________________________________________________________________________________
embedding_1 (Embedding)         (None, 67, 64)       6424128     input_1[0][0]                    
__________________________________________________________________________________________________
bidirectional_1 (Bidirectional) (None, 128)          49536       lambda_1[0][0]                   
__________________________________________________________________________________________________
dropout_1 (Dropout)             (None, 67, 64)       0           embedding_1[0][0]                
__________________________________________________________________________________________________
lambda_2 (Lambda)               (None, 67, 128)      0           bidirectional_1[0][0]            
__________________________________________________________________________________________________
concatenate_1 (Concatenate)     (None, 67, 192)      0           dropout_1[0][0]                  
                                                                 lambda_2[0][0]                   
__________________________________________________________________________________________________
bidirectional_2 (Bidirectional) (None, 67, 384)      443520      concatenate_1[0][0]              
__________________________________________________________________________________________________
crf_1 (CRF)                     (None, 67, 10)       3970        bidirectional_2[0][0]            
==================================================================================================
Total params: 6,927,234
Trainable params: 6,927,234
Non-trainable params: 0
__________________________________________________________________________________________________
Train on 300 samples, validate on 34 samples
Epoch 1/70

300/300 [==============================] - 8s 27ms/step - loss: 1.0772 - acc: 0.7139 - val_loss: 0.7037 - val_acc: 0.8115
…
Found 9 unique labels.
393 unique words not found in embedding.
10 unique chars not found in embedding.
Number of OOV: 279
OOV word occurences: 461
Padded until 57 tokens.
Padded until 24 chars.
Padded until 57 tokens.
Padded until 24 chars.
Padded until 57 tokens.
Model Choice:
__________________________________________________________________________________________________
Layer (type)                    Output Shape         Param #     Connected to                     
==================================================================================================
input_2 (InputLayer)            (None, 57, 24)       0                                            
__________________________________________________________________________________________________
embedding_2 (Embedding)         (None, 24, 64)       6080        input_2[0][0]                    
__________________________________________________________________________________________________
dropout_2 (Dropout)             (None, 24, 64)       0           embedding_2[0][0]                
__________________________________________________________________________________________________
input_1 (InputLayer)            (None, 57)           0                                            
__________________________________________________________________________________________________
lambda_1 (Lambda)               (None, 24, 64)       0           dropout_2[0][0]                  
__________________________________________________________________________________________________
embedding_1 (Embedding)         (None, 57, 64)       6425472     input_1[0][0]                    
__________________________________________________________________________________________________
bidirectional_1 (Bidirectional) (None, 128)          49536       lambda_1[0][0]                   
__________________________________________________________________________________________________
dropout_1 (Dropout)             (None, 57, 64)       0           embedding_1[0][0]                
__________________________________________________________________________________________________
lambda_2 (Lambda)               (None, 57, 128)      0           bidirectional_1[0][0]            
__________________________________________________________________________________________________
concatenate_1 (Concatenate)     (None, 57, 192)      0           dropout_1[0][0]                  
                                                                 lambda_2[0][0]                   
__________________________________________________________________________________________________
bidirectional_2 (Bidirectional) (None, 57, 384)      443520      concatenate_1[0][0]              
__________________________________________________________________________________________________
crf_1 (CRF)                     (None, 57, 10)       3970        bidirectional_2[0][0]            
==================================================================================================
Total params: 6,928,578
Trainable params: 6,928,578
Non-trainable params: 0
__________________________________________________________________________________________________
Train on 300 samples, validate on 34 samples
Epoch 1/70

300/300 [==============================] - 7s 24ms/step - loss: 1.0263 - acc: 0.7737 - val_loss: 0.6387 - val_acc: 0.7882
…
Found 9 unique labels.
188 unique words not found in embedding.
10 unique chars not found in embedding.
Number of OOV: 299
OOV word occurences: 491
Padded until 57 tokens.
Padded until 24 chars.
Padded until 57 tokens.
Padded until 24 chars.
Padded until 57 tokens.
Model Choice:
__________________________________________________________________________________________________
Layer (type)                    Output Shape         Param #     Connected to                     
==================================================================================================
input_2 (InputLayer)            (None, 57, 24)       0                                            
__________________________________________________________________________________________________
embedding_2 (Embedding)         (None, 24, 64)       6080        input_2[0][0]                    
__________________________________________________________________________________________________
dropout_2 (Dropout)             (None, 24, 64)       0           embedding_2[0][0]                
__________________________________________________________________________________________________
input_1 (InputLayer)            (None, 57)           0                                            
__________________________________________________________________________________________________
lambda_1 (Lambda)               (None, 24, 64)       0           dropout_2[0][0]                  
__________________________________________________________________________________________________
embedding_1 (Embedding)         (None, 57, 64)       6412352     input_1[0][0]                    
__________________________________________________________________________________________________
bidirectional_1 (Bidirectional) (None, 128)          49536       lambda_1[0][0]                   
__________________________________________________________________________________________________
dropout_1 (Dropout)             (None, 57, 64)       0           embedding_1[0][0]                
__________________________________________________________________________________________________
lambda_2 (Lambda)               (None, 57, 128)      0           bidirectional_1[0][0]            
__________________________________________________________________________________________________
concatenate_1 (Concatenate)     (None, 57, 192)      0           dropout_1[0][0]                  
                                                                 lambda_2[0][0]                   
__________________________________________________________________________________________________
bidirectional_2 (Bidirectional) (None, 57, 384)      443520      concatenate_1[0][0]              
__________________________________________________________________________________________________
crf_1 (CRF)                     (None, 57, 10)       3970        bidirectional_2[0][0]            
==================================================================================================
Total params: 6,915,458
Trainable params: 6,915,458
Non-trainable params: 0
__________________________________________________________________________________________________
Train on 150 samples, validate on 17 samples
Epoch 1/70

150/150 [==============================] - 5s 32ms/step - loss: 1.9147 - acc: 0.6300 - val_loss: 0.9472 - val_acc: 0.7819
…
Found 9 unique labels.
220 unique words not found in embedding.
10 unique chars not found in embedding.
Number of OOV: 299
OOV word occurences: 471
Padded until 57 tokens.
Padded until 24 chars.
Padded until 57 tokens.
Padded until 24 chars.
Padded until 57 tokens.
Model Choice:
__________________________________________________________________________________________________
Layer (type)                    Output Shape         Param #     Connected to                     
==================================================================================================
input_2 (InputLayer)            (None, 57, 24)       0                                            
__________________________________________________________________________________________________
embedding_2 (Embedding)         (None, 24, 64)       6080        input_2[0][0]                    
__________________________________________________________________________________________________
dropout_2 (Dropout)             (None, 24, 64)       0           embedding_2[0][0]                
__________________________________________________________________________________________________
input_1 (InputLayer)            (None, 57)           0                                            
__________________________________________________________________________________________________
lambda_1 (Lambda)               (None, 24, 64)       0           dropout_2[0][0]                  
__________________________________________________________________________________________________
embedding_1 (Embedding)         (None, 57, 64)       6414400     input_1[0][0]                    
__________________________________________________________________________________________________
bidirectional_1 (Bidirectional) (None, 128)          49536       lambda_1[0][0]                   
__________________________________________________________________________________________________
dropout_1 (Dropout)             (None, 57, 64)       0           embedding_1[0][0]                
__________________________________________________________________________________________________
lambda_2 (Lambda)               (None, 57, 128)      0           bidirectional_1[0][0]            
__________________________________________________________________________________________________
concatenate_1 (Concatenate)     (None, 57, 192)      0           dropout_1[0][0]                  
                                                                 lambda_2[0][0]                   
__________________________________________________________________________________________________
bidirectional_2 (Bidirectional) (None, 57, 384)      443520      concatenate_1[0][0]              
__________________________________________________________________________________________________
crf_1 (CRF)                     (None, 57, 10)       3970        bidirectional_2[0][0]            
==================================================================================================
Total params: 6,917,506
Trainable params: 6,917,506
Non-trainable params: 0
__________________________________________________________________________________________________
Train on 150 samples, validate on 17 samples
Epoch 1/70

150/150 [==============================] - 5s 33ms/step - loss: 1.6099 - acc: 0.6362 - val_loss: 0.7969 - val_acc: 0.7933
…
Found 9 unique labels.
188 unique words not found in embedding.
10 unique chars not found in embedding.
Number of OOV: 299
OOV word occurences: 491
Padded until 66 tokens.
Padded until 24 chars.
Padded until 66 tokens.
Padded until 24 chars.
Padded until 66 tokens.
Model Choice:
__________________________________________________________________________________________________
Layer (type)                    Output Shape         Param #     Connected to                     
==================================================================================================
input_2 (InputLayer)            (None, 66, 24)       0                                            
__________________________________________________________________________________________________
embedding_2 (Embedding)         (None, 24, 64)       6080        input_2[0][0]                    
__________________________________________________________________________________________________
dropout_2 (Dropout)             (None, 24, 64)       0           embedding_2[0][0]                
__________________________________________________________________________________________________
input_1 (InputLayer)            (None, 66)           0                                            
__________________________________________________________________________________________________
lambda_1 (Lambda)               (None, 24, 64)       0           dropout_2[0][0]                  
__________________________________________________________________________________________________
embedding_1 (Embedding)         (None, 66, 64)       6412352     input_1[0][0]                    
__________________________________________________________________________________________________
bidirectional_1 (Bidirectional) (None, 128)          49536       lambda_1[0][0]                   
__________________________________________________________________________________________________
dropout_1 (Dropout)             (None, 66, 64)       0           embedding_1[0][0]                
__________________________________________________________________________________________________
lambda_2 (Lambda)               (None, 66, 128)      0           bidirectional_1[0][0]            
__________________________________________________________________________________________________
concatenate_1 (Concatenate)     (None, 66, 192)      0           dropout_1[0][0]                  
                                                                 lambda_2[0][0]                   
__________________________________________________________________________________________________
bidirectional_2 (Bidirectional) (None, 66, 384)      443520      concatenate_1[0][0]              
__________________________________________________________________________________________________
crf_1 (CRF)                     (None, 66, 10)       3970        bidirectional_2[0][0]            
==================================================================================================
Total params: 6,915,458
Trainable params: 6,915,458
Non-trainable params: 0
__________________________________________________________________________________________________
Train on 150 samples, validate on 17 samples
Epoch 1/70

150/150 [==============================] - 5s 34ms/step - loss: 1.2220 - acc: 0.6706 - val_loss: 0.6826 - val_acc: 0.8356
…
Found 9 unique labels.
190 unique words not found in embedding.
10 unique chars not found in embedding.
Number of OOV: 303
OOV word occurences: 485
Padded until 63 tokens.
Padded until 24 chars.
Padded until 63 tokens.
Padded until 24 chars.
Padded until 63 tokens.
Model Choice:
__________________________________________________________________________________________________
Layer (type)                    Output Shape         Param #     Connected to                     
==================================================================================================
input_2 (InputLayer)            (None, 63, 24)       0                                            
__________________________________________________________________________________________________
embedding_2 (Embedding)         (None, 24, 64)       6080        input_2[0][0]                    
__________________________________________________________________________________________________
dropout_2 (Dropout)             (None, 24, 64)       0           embedding_2[0][0]                
__________________________________________________________________________________________________
input_1 (InputLayer)            (None, 63)           0                                            
__________________________________________________________________________________________________
lambda_1 (Lambda)               (None, 24, 64)       0           dropout_2[0][0]                  
__________________________________________________________________________________________________
embedding_1 (Embedding)         (None, 63, 64)       6412480     input_1[0][0]                    
__________________________________________________________________________________________________
bidirectional_1 (Bidirectional) (None, 128)          49536       lambda_1[0][0]                   
__________________________________________________________________________________________________
dropout_1 (Dropout)             (None, 63, 64)       0           embedding_1[0][0]                
__________________________________________________________________________________________________
lambda_2 (Lambda)               (None, 63, 128)      0           bidirectional_1[0][0]            
__________________________________________________________________________________________________
concatenate_1 (Concatenate)     (None, 63, 192)      0           dropout_1[0][0]                  
                                                                 lambda_2[0][0]                   
__________________________________________________________________________________________________
bidirectional_2 (Bidirectional) (None, 63, 384)      443520      concatenate_1[0][0]              
__________________________________________________________________________________________________
crf_1 (CRF)                     (None, 63, 10)       3970        bidirectional_2[0][0]            
==================================================================================================
Total params: 6,915,586
Trainable params: 6,915,586
Non-trainable params: 0
__________________________________________________________________________________________________
Train on 150 samples, validate on 17 samples
Epoch 1/70

150/150 [==============================] - 5s 34ms/step - loss: 1.2271 - acc: 0.6411 - val_loss: 1.2762 - val_acc: 0.7582
…
Found 9 unique labels.
173 unique words not found in embedding.
10 unique chars not found in embedding.
Number of OOV: 303
OOV word occurences: 487
Padded until 57 tokens.
Padded until 24 chars.
Padded until 57 tokens.
Padded until 24 chars.
Padded until 57 tokens.
Model Choice:
__________________________________________________________________________________________________
Layer (type)                    Output Shape         Param #     Connected to                     
==================================================================================================
input_2 (InputLayer)            (None, 57, 24)       0                                            
__________________________________________________________________________________________________
embedding_2 (Embedding)         (None, 24, 64)       6080        input_2[0][0]                    
__________________________________________________________________________________________________
dropout_2 (Dropout)             (None, 24, 64)       0           embedding_2[0][0]                
__________________________________________________________________________________________________
input_1 (InputLayer)            (None, 57)           0                                            
__________________________________________________________________________________________________
lambda_1 (Lambda)               (None, 24, 64)       0           dropout_2[0][0]                  
__________________________________________________________________________________________________
embedding_1 (Embedding)         (None, 57, 64)       6411392     input_1[0][0]                    
__________________________________________________________________________________________________
bidirectional_1 (Bidirectional) (None, 128)          49536       lambda_1[0][0]                   
__________________________________________________________________________________________________
dropout_1 (Dropout)             (None, 57, 64)       0           embedding_1[0][0]                
__________________________________________________________________________________________________
lambda_2 (Lambda)               (None, 57, 128)      0           bidirectional_1[0][0]            
__________________________________________________________________________________________________
concatenate_1 (Concatenate)     (None, 57, 192)      0           dropout_1[0][0]                  
                                                                 lambda_2[0][0]                   
__________________________________________________________________________________________________
bidirectional_2 (Bidirectional) (None, 57, 384)      443520      concatenate_1[0][0]              
__________________________________________________________________________________________________
crf_1 (CRF)                     (None, 57, 10)       3970        bidirectional_2[0][0]            
==================================================================================================
Total params: 6,914,498
Trainable params: 6,914,498
Non-trainable params: 0
__________________________________________________________________________________________________
Train on 150 samples, validate on 17 samples
Epoch 1/70

150/150 [==============================] - 5s 32ms/step - loss: 1.5801 - acc: 0.6045 - val_loss: 0.8852 - val_acc: 0.7441
…
Found 9 unique labels.
202 unique words not found in embedding.
10 unique chars not found in embedding.
Number of OOV: 300
OOV word occurences: 542
Padded until 57 tokens.
Padded until 24 chars.
Padded until 57 tokens.
Padded until 24 chars.
Padded until 57 tokens.
Model Choice:
__________________________________________________________________________________________________
Layer (type)                    Output Shape         Param #     Connected to                     
==================================================================================================
input_2 (InputLayer)            (None, 57, 24)       0                                            
__________________________________________________________________________________________________
embedding_2 (Embedding)         (None, 24, 64)       6080        input_2[0][0]                    
__________________________________________________________________________________________________
dropout_2 (Dropout)             (None, 24, 64)       0           embedding_2[0][0]                
__________________________________________________________________________________________________
input_1 (InputLayer)            (None, 57)           0                                            
__________________________________________________________________________________________________
lambda_1 (Lambda)               (None, 24, 64)       0           dropout_2[0][0]                  
__________________________________________________________________________________________________
embedding_1 (Embedding)         (None, 57, 64)       6413248     input_1[0][0]                    
__________________________________________________________________________________________________
bidirectional_1 (Bidirectional) (None, 128)          49536       lambda_1[0][0]                   
__________________________________________________________________________________________________
dropout_1 (Dropout)             (None, 57, 64)       0           embedding_1[0][0]                
__________________________________________________________________________________________________
lambda_2 (Lambda)               (None, 57, 128)      0           bidirectional_1[0][0]            
__________________________________________________________________________________________________
concatenate_1 (Concatenate)     (None, 57, 192)      0           dropout_1[0][0]                  
                                                                 lambda_2[0][0]                   
__________________________________________________________________________________________________
bidirectional_2 (Bidirectional) (None, 57, 384)      443520      concatenate_1[0][0]              
__________________________________________________________________________________________________
crf_1 (CRF)                     (None, 57, 10)       3970        bidirectional_2[0][0]            
==================================================================================================
Total params: 6,916,354
Trainable params: 6,916,354
Non-trainable params: 0
__________________________________________________________________________________________________
Train on 150 samples, validate on 17 samples
Epoch 1/70

150/150 [==============================] - 5s 32ms/step - loss: 1.6583 - acc: 0.6374 - val_loss: 0.7631 - val_acc: 0.8151
…
Found 9 unique labels.
210 unique words not found in embedding.
10 unique chars not found in embedding.
Number of OOV: 300
OOV word occurences: 479
Padded until 58 tokens.
Padded until 24 chars.
Padded until 58 tokens.
Padded until 24 chars.
Padded until 58 tokens.
Model Choice:
__________________________________________________________________________________________________
Layer (type)                    Output Shape         Param #     Connected to                     
==================================================================================================
input_2 (InputLayer)            (None, 58, 24)       0                                            
__________________________________________________________________________________________________
embedding_2 (Embedding)         (None, 24, 64)       6080        input_2[0][0]                    
__________________________________________________________________________________________________
dropout_2 (Dropout)             (None, 24, 64)       0           embedding_2[0][0]                
__________________________________________________________________________________________________
input_1 (InputLayer)            (None, 58)           0                                            
__________________________________________________________________________________________________
lambda_1 (Lambda)               (None, 24, 64)       0           dropout_2[0][0]                  
__________________________________________________________________________________________________
embedding_1 (Embedding)         (None, 58, 64)       6413760     input_1[0][0]                    
__________________________________________________________________________________________________
bidirectional_1 (Bidirectional) (None, 128)          49536       lambda_1[0][0]                   
__________________________________________________________________________________________________
dropout_1 (Dropout)             (None, 58, 64)       0           embedding_1[0][0]                
__________________________________________________________________________________________________
lambda_2 (Lambda)               (None, 58, 128)      0           bidirectional_1[0][0]            
__________________________________________________________________________________________________
concatenate_1 (Concatenate)     (None, 58, 192)      0           dropout_1[0][0]                  
                                                                 lambda_2[0][0]                   
__________________________________________________________________________________________________
bidirectional_2 (Bidirectional) (None, 58, 384)      443520      concatenate_1[0][0]              
__________________________________________________________________________________________________
crf_1 (CRF)                     (None, 58, 10)       3970        bidirectional_2[0][0]            
==================================================================================================
Total params: 6,916,866
Trainable params: 6,916,866
Non-trainable params: 0
__________________________________________________________________________________________________
Train on 150 samples, validate on 17 samples
Epoch 1/70

150/150 [==============================] - 5s 32ms/step - loss: 1.5654 - acc: 0.6454 - val_loss: 0.7018 - val_acc: 0.8210
…
Found 9 unique labels.
207 unique words not found in embedding.
10 unique chars not found in embedding.
Number of OOV: 299
OOV word occurences: 478
Padded until 57 tokens.
Padded until 24 chars.
Padded until 57 tokens.
Padded until 24 chars.
Padded until 57 tokens.
Model Choice:
__________________________________________________________________________________________________
Layer (type)                    Output Shape         Param #     Connected to                     
==================================================================================================
input_2 (InputLayer)            (None, 57, 24)       0                                            
__________________________________________________________________________________________________
embedding_2 (Embedding)         (None, 24, 64)       6080        input_2[0][0]                    
__________________________________________________________________________________________________
dropout_2 (Dropout)             (None, 24, 64)       0           embedding_2[0][0]                
__________________________________________________________________________________________________
input_1 (InputLayer)            (None, 57)           0                                            
__________________________________________________________________________________________________
lambda_1 (Lambda)               (None, 24, 64)       0           dropout_2[0][0]                  
__________________________________________________________________________________________________
embedding_1 (Embedding)         (None, 57, 64)       6413568     input_1[0][0]                    
__________________________________________________________________________________________________
bidirectional_1 (Bidirectional) (None, 128)          49536       lambda_1[0][0]                   
__________________________________________________________________________________________________
dropout_1 (Dropout)             (None, 57, 64)       0           embedding_1[0][0]                
__________________________________________________________________________________________________
lambda_2 (Lambda)               (None, 57, 128)      0           bidirectional_1[0][0]            
__________________________________________________________________________________________________
concatenate_1 (Concatenate)     (None, 57, 192)      0           dropout_1[0][0]                  
                                                                 lambda_2[0][0]                   
__________________________________________________________________________________________________
bidirectional_2 (Bidirectional) (None, 57, 384)      443520      concatenate_1[0][0]              
__________________________________________________________________________________________________
crf_1 (CRF)                     (None, 57, 10)       3970        bidirectional_2[0][0]            
==================================================================================================
Total params: 6,916,674
Trainable params: 6,916,674
Non-trainable params: 0
__________________________________________________________________________________________________
Train on 150 samples, validate on 17 samples
Epoch 1/70

150/150 [==============================] - 5s 32ms/step - loss: 1.6158 - acc: 0.6272 - val_loss: 0.4791 - val_acc: 0.8889
…
Found 9 unique labels.
214 unique words not found in embedding.
10 unique chars not found in embedding.
Number of OOV: 297
OOV word occurences: 581
Padded until 66 tokens.
Padded until 24 chars.
Padded until 66 tokens.
Padded until 24 chars.
Padded until 66 tokens.
Model Choice:
__________________________________________________________________________________________________
Layer (type)                    Output Shape         Param #     Connected to                     
==================================================================================================
input_2 (InputLayer)            (None, 66, 24)       0                                            
__________________________________________________________________________________________________
embedding_2 (Embedding)         (None, 24, 64)       6080        input_2[0][0]                    
__________________________________________________________________________________________________
dropout_2 (Dropout)             (None, 24, 64)       0           embedding_2[0][0]                
__________________________________________________________________________________________________
input_1 (InputLayer)            (None, 66)           0                                            
__________________________________________________________________________________________________
lambda_1 (Lambda)               (None, 24, 64)       0           dropout_2[0][0]                  
__________________________________________________________________________________________________
embedding_1 (Embedding)         (None, 66, 64)       6414016     input_1[0][0]                    
__________________________________________________________________________________________________
bidirectional_1 (Bidirectional) (None, 128)          49536       lambda_1[0][0]                   
__________________________________________________________________________________________________
dropout_1 (Dropout)             (None, 66, 64)       0           embedding_1[0][0]                
__________________________________________________________________________________________________
lambda_2 (Lambda)               (None, 66, 128)      0           bidirectional_1[0][0]            
__________________________________________________________________________________________________
concatenate_1 (Concatenate)     (None, 66, 192)      0           dropout_1[0][0]                  
                                                                 lambda_2[0][0]                   
__________________________________________________________________________________________________
bidirectional_2 (Bidirectional) (None, 66, 384)      443520      concatenate_1[0][0]              
__________________________________________________________________________________________________
crf_1 (CRF)                     (None, 66, 10)       3970        bidirectional_2[0][0]            
==================================================================================================
Total params: 6,917,122
Trainable params: 6,917,122
Non-trainable params: 0
__________________________________________________________________________________________________
Train on 150 samples, validate on 17 samples
Epoch 1/70

150/150 [==============================] - 5s 34ms/step - loss: 1.6945 - acc: 0.6414 - val_loss: 0.6936 - val_acc: 0.8297
…
Found 9 unique labels.
201 unique words not found in embedding.
10 unique chars not found in embedding.
Number of OOV: 303
OOV word occurences: 588
Padded until 58 tokens.
Padded until 24 chars.
Padded until 58 tokens.
Padded until 24 chars.
Padded until 58 tokens.
Model Choice:
__________________________________________________________________________________________________
Layer (type)                    Output Shape         Param #     Connected to                     
==================================================================================================
input_2 (InputLayer)            (None, 58, 24)       0                                            
__________________________________________________________________________________________________
embedding_2 (Embedding)         (None, 24, 64)       6080        input_2[0][0]                    
__________________________________________________________________________________________________
dropout_2 (Dropout)             (None, 24, 64)       0           embedding_2[0][0]                
__________________________________________________________________________________________________
input_1 (InputLayer)            (None, 58)           0                                            
__________________________________________________________________________________________________
lambda_1 (Lambda)               (None, 24, 64)       0           dropout_2[0][0]                  
__________________________________________________________________________________________________
embedding_1 (Embedding)         (None, 58, 64)       6413184     input_1[0][0]                    
__________________________________________________________________________________________________
bidirectional_1 (Bidirectional) (None, 128)          49536       lambda_1[0][0]                   
__________________________________________________________________________________________________
dropout_1 (Dropout)             (None, 58, 64)       0           embedding_1[0][0]                
__________________________________________________________________________________________________
lambda_2 (Lambda)               (None, 58, 128)      0           bidirectional_1[0][0]            
__________________________________________________________________________________________________
concatenate_1 (Concatenate)     (None, 58, 192)      0           dropout_1[0][0]                  
                                                                 lambda_2[0][0]                   
__________________________________________________________________________________________________
bidirectional_2 (Bidirectional) (None, 58, 384)      443520      concatenate_1[0][0]              
__________________________________________________________________________________________________
crf_1 (CRF)                     (None, 58, 10)       3970        bidirectional_2[0][0]            
==================================================================================================
Total params: 6,916,290
Trainable params: 6,916,290
Non-trainable params: 0
__________________________________________________________________________________________________
Train on 150 samples, validate on 17 samples
Epoch 1/70

150/150 [==============================] - 5s 33ms/step - loss: 1.1880 - acc: 0.7993 - val_loss: 1.0731 - val_acc: 0.7143
…
Found 9 unique labels.
208 unique words not found in embedding.
10 unique chars not found in embedding.
Number of OOV: 298
OOV word occurences: 502
Padded until 66 tokens.
Padded until 24 chars.
Padded until 66 tokens.
Padded until 24 chars.
Padded until 66 tokens.
Model Choice:
__________________________________________________________________________________________________
Layer (type)                    Output Shape         Param #     Connected to                     
==================================================================================================
input_2 (InputLayer)            (None, 66, 24)       0                                            
__________________________________________________________________________________________________
embedding_2 (Embedding)         (None, 24, 64)       6080        input_2[0][0]                    
__________________________________________________________________________________________________
dropout_2 (Dropout)             (None, 24, 64)       0           embedding_2[0][0]                
__________________________________________________________________________________________________
input_1 (InputLayer)            (None, 66)           0                                            
__________________________________________________________________________________________________
lambda_1 (Lambda)               (None, 24, 64)       0           dropout_2[0][0]                  
__________________________________________________________________________________________________
embedding_1 (Embedding)         (None, 66, 64)       6413632     input_1[0][0]                    
__________________________________________________________________________________________________
bidirectional_1 (Bidirectional) (None, 128)          49536       lambda_1[0][0]                   
__________________________________________________________________________________________________
dropout_1 (Dropout)             (None, 66, 64)       0           embedding_1[0][0]                
__________________________________________________________________________________________________
lambda_2 (Lambda)               (None, 66, 128)      0           bidirectional_1[0][0]            
__________________________________________________________________________________________________
concatenate_1 (Concatenate)     (None, 66, 192)      0           dropout_1[0][0]                  
                                                                 lambda_2[0][0]                   
__________________________________________________________________________________________________
bidirectional_2 (Bidirectional) (None, 66, 384)      443520      concatenate_1[0][0]              
__________________________________________________________________________________________________
crf_1 (CRF)                     (None, 66, 10)       3970        bidirectional_2[0][0]            
==================================================================================================
Total params: 6,916,738
Trainable params: 6,916,738
Non-trainable params: 0
__________________________________________________________________________________________________
Train on 150 samples, validate on 17 samples
Epoch 1/70

150/150 [==============================] - 5s 35ms/step - loss: 1.5715 - acc: 0.6424 - val_loss: 0.7045 - val_acc: 0.8417
…
Found 9 unique labels.
201 unique words not found in embedding.
10 unique chars not found in embedding.
Number of OOV: 297
OOV word occurences: 457
Padded until 57 tokens.
Padded until 24 chars.
Padded until 57 tokens.
Padded until 24 chars.
Padded until 57 tokens.
Model Choice:
__________________________________________________________________________________________________
Layer (type)                    Output Shape         Param #     Connected to                     
==================================================================================================
input_2 (InputLayer)            (None, 57, 24)       0                                            
__________________________________________________________________________________________________
embedding_2 (Embedding)         (None, 24, 64)       6080        input_2[0][0]                    
__________________________________________________________________________________________________
dropout_2 (Dropout)             (None, 24, 64)       0           embedding_2[0][0]                
__________________________________________________________________________________________________
input_1 (InputLayer)            (None, 57)           0                                            
__________________________________________________________________________________________________
lambda_1 (Lambda)               (None, 24, 64)       0           dropout_2[0][0]                  
__________________________________________________________________________________________________
embedding_1 (Embedding)         (None, 57, 64)       6413184     input_1[0][0]                    
__________________________________________________________________________________________________
bidirectional_1 (Bidirectional) (None, 128)          49536       lambda_1[0][0]                   
__________________________________________________________________________________________________
dropout_1 (Dropout)             (None, 57, 64)       0           embedding_1[0][0]                
__________________________________________________________________________________________________
lambda_2 (Lambda)               (None, 57, 128)      0           bidirectional_1[0][0]            
__________________________________________________________________________________________________
concatenate_1 (Concatenate)     (None, 57, 192)      0           dropout_1[0][0]                  
                                                                 lambda_2[0][0]                   
__________________________________________________________________________________________________
bidirectional_2 (Bidirectional) (None, 57, 384)      443520      concatenate_1[0][0]              
__________________________________________________________________________________________________
crf_1 (CRF)                     (None, 57, 10)       3970        bidirectional_2[0][0]            
==================================================================================================
Total params: 6,916,290
Trainable params: 6,916,290
Non-trainable params: 0
__________________________________________________________________________________________________
Train on 150 samples, validate on 17 samples
Epoch 1/70

150/150 [==============================] - 5s 32ms/step - loss: 1.6351 - acc: 0.6404 - val_loss: 0.9544 - val_acc: 0.7521
…
Found 9 unique labels.
211 unique words not found in embedding.
10 unique chars not found in embedding.
Number of OOV: 295
OOV word occurences: 462
Padded until 67 tokens.
Padded until 24 chars.
Padded until 67 tokens.
Padded until 24 chars.
Padded until 67 tokens.
Model Choice:
__________________________________________________________________________________________________
Layer (type)                    Output Shape         Param #     Connected to                     
==================================================================================================
input_2 (InputLayer)            (None, 67, 24)       0                                            
__________________________________________________________________________________________________
embedding_2 (Embedding)         (None, 24, 64)       6080        input_2[0][0]                    
__________________________________________________________________________________________________
dropout_2 (Dropout)             (None, 24, 64)       0           embedding_2[0][0]                
__________________________________________________________________________________________________
input_1 (InputLayer)            (None, 67)           0                                            
__________________________________________________________________________________________________
lambda_1 (Lambda)               (None, 24, 64)       0           dropout_2[0][0]                  
__________________________________________________________________________________________________
embedding_1 (Embedding)         (None, 67, 64)       6413824     input_1[0][0]                    
__________________________________________________________________________________________________
bidirectional_1 (Bidirectional) (None, 128)          49536       lambda_1[0][0]                   
__________________________________________________________________________________________________
dropout_1 (Dropout)             (None, 67, 64)       0           embedding_1[0][0]                
__________________________________________________________________________________________________
lambda_2 (Lambda)               (None, 67, 128)      0           bidirectional_1[0][0]            
__________________________________________________________________________________________________
concatenate_1 (Concatenate)     (None, 67, 192)      0           dropout_1[0][0]                  
                                                                 lambda_2[0][0]                   
__________________________________________________________________________________________________
bidirectional_2 (Bidirectional) (None, 67, 384)      443520      concatenate_1[0][0]              
__________________________________________________________________________________________________
crf_1 (CRF)                     (None, 67, 10)       3970        bidirectional_2[0][0]            
==================================================================================================
Total params: 6,916,930
Trainable params: 6,916,930
Non-trainable params: 0
__________________________________________________________________________________________________
Train on 150 samples, validate on 17 samples
Epoch 1/70

150/150 [==============================] - 5s 35ms/step - loss: 1.2758 - acc: 0.6550 - val_loss: 0.5899 - val_acc: 0.8251
…
Found 9 unique labels.
99 unique words not found in embedding.
10 unique chars not found in embedding.
Number of OOV: 309
OOV word occurences: 517
Padded until 57 tokens.
Padded until 24 chars.
Padded until 57 tokens.
Padded until 24 chars.
Padded until 57 tokens.
Model Choice:
__________________________________________________________________________________________________
Layer (type)                    Output Shape         Param #     Connected to                     
==================================================================================================
input_2 (InputLayer)            (None, 57, 24)       0                                            
__________________________________________________________________________________________________
embedding_2 (Embedding)         (None, 24, 64)       6080        input_2[0][0]                    
__________________________________________________________________________________________________
dropout_2 (Dropout)             (None, 24, 64)       0           embedding_2[0][0]                
__________________________________________________________________________________________________
input_1 (InputLayer)            (None, 57)           0                                            
__________________________________________________________________________________________________
lambda_1 (Lambda)               (None, 24, 64)       0           dropout_2[0][0]                  
__________________________________________________________________________________________________
embedding_1 (Embedding)         (None, 57, 64)       6406656     input_1[0][0]                    
__________________________________________________________________________________________________
bidirectional_1 (Bidirectional) (None, 128)          49536       lambda_1[0][0]                   
__________________________________________________________________________________________________
dropout_1 (Dropout)             (None, 57, 64)       0           embedding_1[0][0]                
__________________________________________________________________________________________________
lambda_2 (Lambda)               (None, 57, 128)      0           bidirectional_1[0][0]            
__________________________________________________________________________________________________
concatenate_1 (Concatenate)     (None, 57, 192)      0           dropout_1[0][0]                  
                                                                 lambda_2[0][0]                   
__________________________________________________________________________________________________
bidirectional_2 (Bidirectional) (None, 57, 384)      443520      concatenate_1[0][0]              
__________________________________________________________________________________________________
crf_1 (CRF)                     (None, 57, 10)       3970        bidirectional_2[0][0]            
==================================================================================================
Total params: 6,909,762
Trainable params: 6,909,762
Non-trainable params: 0
__________________________________________________________________________________________________
Train on 74 samples, validate on 9 samples
Epoch 1/70

74/74 [==============================] - 4s 50ms/step - loss: 1.8508 - acc: 0.4823 - val_loss: 1.7124 - val_acc: 0.6218
…
Found 9 unique labels.
134 unique words not found in embedding.
10 unique chars not found in embedding.
Number of OOV: 309
OOV word occurences: 566
Padded until 57 tokens.
Padded until 24 chars.
Padded until 57 tokens.
Padded until 24 chars.
Padded until 57 tokens.
Model Choice:
__________________________________________________________________________________________________
Layer (type)                    Output Shape         Param #     Connected to                     
==================================================================================================
input_2 (InputLayer)            (None, 57, 24)       0                                            
__________________________________________________________________________________________________
embedding_2 (Embedding)         (None, 24, 64)       6080        input_2[0][0]                    
__________________________________________________________________________________________________
dropout_2 (Dropout)             (None, 24, 64)       0           embedding_2[0][0]                
__________________________________________________________________________________________________
input_1 (InputLayer)            (None, 57)           0                                            
__________________________________________________________________________________________________
lambda_1 (Lambda)               (None, 24, 64)       0           dropout_2[0][0]                  
__________________________________________________________________________________________________
embedding_1 (Embedding)         (None, 57, 64)       6408896     input_1[0][0]                    
__________________________________________________________________________________________________
bidirectional_1 (Bidirectional) (None, 128)          49536       lambda_1[0][0]                   
__________________________________________________________________________________________________
dropout_1 (Dropout)             (None, 57, 64)       0           embedding_1[0][0]                
__________________________________________________________________________________________________
lambda_2 (Lambda)               (None, 57, 128)      0           bidirectional_1[0][0]            
__________________________________________________________________________________________________
concatenate_1 (Concatenate)     (None, 57, 192)      0           dropout_1[0][0]                  
                                                                 lambda_2[0][0]                   
__________________________________________________________________________________________________
bidirectional_2 (Bidirectional) (None, 57, 384)      443520      concatenate_1[0][0]              
__________________________________________________________________________________________________
crf_1 (CRF)                     (None, 57, 10)       3970        bidirectional_2[0][0]            
==================================================================================================
Total params: 6,912,002
Trainable params: 6,912,002
Non-trainable params: 0
__________________________________________________________________________________________________
Train on 74 samples, validate on 9 samples
Epoch 1/70

74/74 [==============================] - 4s 56ms/step - loss: 1.7310 - acc: 0.4721 - val_loss: 1.3958 - val_acc: 0.7800
…
Found 9 unique labels.
…
dropout_2 (Dropout)             (None, 24, 64)       0           embedding_2[0][0]                
__________________________________________________________________________________________________
input_1 (InputLayer)            (None, 57)           0                                            
__________________________________________________________________________________________________
lambda_1 (Lambda)               (None, 24, 64)       0           dropout_2[0][0]                  
__________________________________________________________________________________________________
embedding_1 (Embedding)         (None, 57, 64)       6401536     input_1[0][0]                    
__________________________________________________________________________________________________
bidirectional_1 (Bidirectional) (None, 128)          49536       lambda_1[0][0]                   
__________________________________________________________________________________________________
dropout_1 (Dropout)             (None, 57, 64)       0           embedding_1[0][0]                
__________________________________________________________________________________________________
lambda_2 (Lambda)               (None, 57, 128)      0           bidirectional_1[0][0]            
__________________________________________________________________________________________________
concatenate_1 (Concatenate)     (None, 57, 192)      0           dropout_1[0][0]                  
                                                                 lambda_2[0][0]                   
__________________________________________________________________________________________________
bidirectional_2 (Bidirectional) (None, 57, 384)      443520      concatenate_1[0][0]              
__________________________________________________________________________________________________
crf_1 (CRF)                     (None, 57, 10)       3970        bidirectional_2[0][0]            
==================================================================================================
Total params: 6,904,578
Trainable params: 6,904,578
Non-trainable params: 0
__________________________________________________________________________________________________
Train on 14 samples, validate on 2 samples
Epoch 1/70

14/14 [==============================] - 3s 226ms/step - loss: 2.1850 - acc: 0.0853 - val_loss: 1.1699 - val_acc: 0.7500
…
Found 8 unique labels.
9 unique words not found in embedding.
0 unique chars not found in embedding.
Number of OOV: 328
OOV word occurences: 641
Padded until 57 tokens.
Padded until 24 chars.
Padded until 57 tokens.
Padded until 24 chars.
Padded until 57 tokens.
Model Choice:
__________________________________________________________________________________________________
Layer (type)                    Output Shape         Param #     Connected to                     
==================================================================================================
input_2 (InputLayer)            (None, 57, 24)       0                                            
__________________________________________________________________________________________________
embedding_2 (Embedding)         (None, 24, 64)       5440        input_2[0][0]                    
__________________________________________________________________________________________________
dropout_2 (Dropout)             (None, 24, 64)       0           embedding_2[0][0]                
__________________________________________________________________________________________________
input_1 (InputLayer)            (None, 57)           0                                            
__________________________________________________________________________________________________
lambda_1 (Lambda)               (None, 24, 64)       0           dropout_2[0][0]                  
__________________________________________________________________________________________________
embedding_1 (Embedding)         (None, 57, 64)       6400896     input_1[0][0]                    
__________________________________________________________________________________________________
bidirectional_1 (Bidirectional) (None, 128)          49536       lambda_1[0][0]                   
__________________________________________________________________________________________________
dropout_1 (Dropout)             (None, 57, 64)       0           embedding_1[0][0]                
__________________________________________________________________________________________________
lambda_2 (Lambda)               (None, 57, 128)      0           bidirectional_1[0][0]            
__________________________________________________________________________________________________
concatenate_1 (Concatenate)     (None, 57, 192)      0           dropout_1[0][0]                  
                                                                 lambda_2[0][0]                   
__________________________________________________________________________________________________
bidirectional_2 (Bidirectional) (None, 57, 384)      443520      concatenate_1[0][0]              
__________________________________________________________________________________________________
crf_1 (CRF)                     (None, 57, 9)        3564        bidirectional_2[0][0]            
==================================================================================================
Total params: 6,902,956
Trainable params: 6,902,956
Non-trainable params: 0
__________________________________________________________________________________________________
Train on 7 samples, validate on 1 samples
Epoch 1/70

7/7 [==============================] - 3s 377ms/step - loss: 2.0429 - acc: 0.2698 - val_loss: 0.7381 - val_acc: 0.8276
…
Found 9 unique labels.
14 unique words not found in embedding.
8 unique chars not found in embedding.
Number of OOV: 325
OOV word occurences: 635
Padded until 57 tokens.
Padded until 24 chars.
Padded until 57 tokens.
Padded until 24 chars.
Padded until 57 tokens.
Model Choice:
__________________________________________________________________________________________________
Layer (type)                    Output Shape         Param #     Connected to                     
==================================================================================================
input_2 (InputLayer)            (None, 57, 24)       0                                            
__________________________________________________________________________________________________
embedding_2 (Embedding)         (None, 24, 64)       5952        input_2[0][0]                    
__________________________________________________________________________________________________
dropout_2 (Dropout)             (None, 24, 64)       0           embedding_2[0][0]                
__________________________________________________________________________________________________
input_1 (InputLayer)            (None, 57)           0                                            
__________________________________________________________________________________________________
lambda_1 (Lambda)               (None, 24, 64)       0           dropout_2[0][0]                  
__________________________________________________________________________________________________
embedding_1 (Embedding)         (None, 57, 64)       6401216     input_1[0][0]                    
__________________________________________________________________________________________________
bidirectional_1 (Bidirectional) (None, 128)          49536       lambda_1[0][0]                   
__________________________________________________________________________________________________
dropout_1 (Dropout)             (None, 57, 64)       0           embedding_1[0][0]                
__________________________________________________________________________________________________
lambda_2 (Lambda)               (None, 57, 128)      0           bidirectional_1[0][0]            
__________________________________________________________________________________________________
concatenate_1 (Concatenate)     (None, 57, 192)      0           dropout_1[0][0]                  
                                                                 lambda_2[0][0]                   
__________________________________________________________________________________________________
bidirectional_2 (Bidirectional) (None, 57, 384)      443520      concatenate_1[0][0]              
__________________________________________________________________________________________________
crf_1 (CRF)                     (None, 57, 10)       3970        bidirectional_2[0][0]            
==================================================================================================
Total params: 6,904,194
Trainable params: 6,904,194
Non-trainable params: 0
__________________________________________________________________________________________________
Train on 7 samples, validate on 1 samples
Epoch 1/70

7/7 [==============================] - 3s 368ms/step - loss: 2.1666 - acc: 0.1049 - val_loss: 0.8117 - val_acc: 0.8421
…
Found 9 unique labels.
12 unique words not found in embedding.
7 unique chars not found in embedding.
Number of OOV: 324
OOV word occurences: 560
Padded until 57 tokens.
Padded until 24 chars.
Padded until 57 tokens.
Padded until 24 chars.
Padded until 57 tokens.
Model Choice:
__________________________________________________________________________________________________
Layer (type)                    Output Shape         Param #     Connected to                     
==================================================================================================
input_2 (InputLayer)            (None, 57, 24)       0                                            
__________________________________________________________________________________________________
embedding_2 (Embedding)         (None, 24, 64)       5888        input_2[0][0]                    
__________________________________________________________________________________________________
dropout_2 (Dropout)             (None, 24, 64)       0           embedding_2[0][0]                
__________________________________________________________________________________________________
input_1 (InputLayer)            (None, 57)           0                                            
__________________________________________________________________________________________________
lambda_1 (Lambda)               (None, 24, 64)       0           dropout_2[0][0]                  
__________________________________________________________________________________________________
embedding_1 (Embedding)         (None, 57, 64)       6401088     input_1[0][0]                    
__________________________________________________________________________________________________
bidirectional_1 (Bidirectional) (None, 128)          49536       lambda_1[0][0]                   
__________________________________________________________________________________________________
dropout_1 (Dropout)             (None, 57, 64)       0           embedding_1[0][0]                
__________________________________________________________________________________________________
lambda_2 (Lambda)               (None, 57, 128)      0           bidirectional_1[0][0]            
__________________________________________________________________________________________________
concatenate_1 (Concatenate)     (None, 57, 192)      0           dropout_1[0][0]                  
                                                                 lambda_2[0][0]                   
__________________________________________________________________________________________________
bidirectional_2 (Bidirectional) (None, 57, 384)      443520      concatenate_1[0][0]              
__________________________________________________________________________________________________
crf_1 (CRF)                     (None, 57, 10)       3970        bidirectional_2[0][0]            
==================================================================================================
Total params: 6,904,002
Trainable params: 6,904,002
Non-trainable params: 0
__________________________________________________________________________________________________
Train on 7 samples, validate on 1 samples
Epoch 1/70

7/7 [==============================] - 3s 372ms/step - loss: 2.2937 - acc: 0.0556 - val_loss: 0.5027 - val_acc: 0.9259
…
Found 9 unique labels.
11 unique words not found in embedding.
10 unique chars not found in embedding.
Number of OOV: 326
OOV word occurences: 631
Padded until 57 tokens.
Padded until 24 chars.
Padded until 57 tokens.
Padded until 24 chars.
Padded until 57 tokens.
Model Choice:
__________________________________________________________________________________________________
Layer (type)                    Output Shape         Param #     Connected to                     
==================================================================================================
input_2 (InputLayer)            (None, 57, 24)       0                                            
__________________________________________________________________________________________________
embedding_2 (Embedding)         (None, 24, 64)       6080        input_2[0][0]                    
__________________________________________________________________________________________________
dropout_2 (Dropout)             (None, 24, 64)       0           embedding_2[0][0]                
__________________________________________________________________________________________________
input_1 (InputLayer)            (None, 57)           0                                            
__________________________________________________________________________________________________
lambda_1 (Lambda)               (None, 24, 64)       0           dropout_2[0][0]                  
__________________________________________________________________________________________________
embedding_1 (Embedding)         (None, 57, 64)       6401024     input_1[0][0]                    
__________________________________________________________________________________________________
bidirectional_1 (Bidirectional) (None, 128)          49536       lambda_1[0][0]                   
__________________________________________________________________________________________________
dropout_1 (Dropout)             (None, 57, 64)       0           embedding_1[0][0]                
__________________________________________________________________________________________________
lambda_2 (Lambda)               (None, 57, 128)      0           bidirectional_1[0][0]            
__________________________________________________________________________________________________
concatenate_1 (Concatenate)     (None, 57, 192)      0           dropout_1[0][0]                  
                                                                 lambda_2[0][0]                   
__________________________________________________________________________________________________
bidirectional_2 (Bidirectional) (None, 57, 384)      443520      concatenate_1[0][0]              
__________________________________________________________________________________________________
crf_1 (CRF)                     (None, 57, 10)       3970        bidirectional_2[0][0]            
==================================================================================================
Total params: 6,904,130
Trainable params: 6,904,130
Non-trainable params: 0
__________________________________________________________________________________________________
Train on 7 samples, validate on 1 samples
Epoch 1/70

7/7 [==============================] - 3s 373ms/step - loss: 2.4035 - acc: 0.0000e+00 - val_loss: 1.5744 - val_acc: 0.6364
…
Found 8 unique labels.
5 unique words not found in embedding.
8 unique chars not found in embedding.
Number of OOV: 328
OOV word occurences: 641
Padded until 57 tokens.
Padded until 24 chars.
Padded until 57 tokens.
Padded until 24 chars.
Padded until 57 tokens.
Model Choice:
__________________________________________________________________________________________________
Layer (type)                    Output Shape         Param #     Connected to                     
==================================================================================================
input_2 (InputLayer)            (None, 57, 24)       0                                            
__________________________________________________________________________________________________
embedding_2 (Embedding)         (None, 24, 64)       5952        input_2[0][0]                    
__________________________________________________________________________________________________
dropout_2 (Dropout)             (None, 24, 64)       0           embedding_2[0][0]                
__________________________________________________________________________________________________
input_1 (InputLayer)            (None, 57)           0                                            
__________________________________________________________________________________________________
lambda_1 (Lambda)               (None, 24, 64)       0           dropout_2[0][0]                  
__________________________________________________________________________________________________
embedding_1 (Embedding)         (None, 57, 64)       6400640     input_1[0][0]                    
__________________________________________________________________________________________________
bidirectional_1 (Bidirectional) (None, 128)          49536       lambda_1[0][0]                   
__________________________________________________________________________________________________
dropout_1 (Dropout)             (None, 57, 64)       0           embedding_1[0][0]                
__________________________________________________________________________________________________
lambda_2 (Lambda)               (None, 57, 128)      0           bidirectional_1[0][0]            
__________________________________________________________________________________________________
concatenate_1 (Concatenate)     (None, 57, 192)      0           dropout_1[0][0]                  
                                                                 lambda_2[0][0]                   
__________________________________________________________________________________________________
bidirectional_2 (Bidirectional) (None, 57, 384)      443520      concatenate_1[0][0]              
__________________________________________________________________________________________________
crf_1 (CRF)                     (None, 57, 9)        3564        bidirectional_2[0][0]            
==================================================================================================
Total params: 6,903,212
Trainable params: 6,903,212
Non-trainable params: 0
__________________________________________________________________________________________________
Train on 7 samples, validate on 1 samples
Epoch 1/70

7/7 [==============================] - 3s 381ms/step - loss: 2.2987 - acc: 0.0256 - val_loss: 1.3220 - val_acc: 0.6842
…
Found 8 unique labels.
10 unique words not found in embedding.
7 unique chars not found in embedding.
Number of OOV: 325
OOV word occurences: 636
Padded until 57 tokens.
Padded until 24 chars.
Padded until 57 tokens.
Padded until 24 chars.
Padded until 57 tokens.
Model Choice:
__________________________________________________________________________________________________
Layer (type)                    Output Shape         Param #     Connected to                     
==================================================================================================
input_2 (InputLayer)            (None, 57, 24)       0                                            
__________________________________________________________________________________________________
embedding_2 (Embedding)         (None, 24, 64)       5888        input_2[0][0]                    
__________________________________________________________________________________________________
dropout_2 (Dropout)             (None, 24, 64)       0           embedding_2[0][0]                
__________________________________________________________________________________________________
input_1 (InputLayer)            (None, 57)           0                                            
__________________________________________________________________________________________________
lambda_1 (Lambda)               (None, 24, 64)       0           dropout_2[0][0]                  
__________________________________________________________________________________________________
embedding_1 (Embedding)         (None, 57, 64)       6400960     input_1[0][0]                    
__________________________________________________________________________________________________
bidirectional_1 (Bidirectional) (None, 128)          49536       lambda_1[0][0]                   
__________________________________________________________________________________________________
dropout_1 (Dropout)             (None, 57, 64)       0           embedding_1[0][0]                
__________________________________________________________________________________________________
lambda_2 (Lambda)               (None, 57, 128)      0           bidirectional_1[0][0]            
__________________________________________________________________________________________________
concatenate_1 (Concatenate)     (None, 57, 192)      0           dropout_1[0][0]                  
                                                                 lambda_2[0][0]                   
__________________________________________________________________________________________________
bidirectional_2 (Bidirectional) (None, 57, 384)      443520      concatenate_1[0][0]              
__________________________________________________________________________________________________
crf_1 (CRF)                     (None, 57, 9)        3564        bidirectional_2[0][0]            
==================================================================================================
Total params: 6,903,468
Trainable params: 6,903,468
Non-trainable params: 0
__________________________________________________________________________________________________
Train on 7 samples, validate on 1 samples
Epoch 1/70

7/7 [==============================] - 3s 370ms/step - loss: 2.2049 - acc: 0.0000e+00 - val_loss: 1.0538 - val_acc: 0.7895
…
Found 9 unique labels.
11 unique words not found in embedding.
7 unique chars not found in embedding.
Number of OOV: 327
OOV word occurences: 638
Padded until 57 tokens.
Padded until 24 chars.
Padded until 57 tokens.
Padded until 24 chars.
Padded until 57 tokens.
Model Choice:
__________________________________________________________________________________________________
Layer (type)                    Output Shape         Param #     Connected to                     
==================================================================================================
input_2 (InputLayer)            (None, 57, 24)       0                                            
__________________________________________________________________________________________________
embedding_2 (Embedding)         (None, 24, 64)       5888        input_2[0][0]                    
__________________________________________________________________________________________________
dropout_2 (Dropout)             (None, 24, 64)       0           embedding_2[0][0]                
__________________________________________________________________________________________________
input_1 (InputLayer)            (None, 57)           0                                            
__________________________________________________________________________________________________
lambda_1 (Lambda)               (None, 24, 64)       0           dropout_2[0][0]                  
__________________________________________________________________________________________________
embedding_1 (Embedding)         (None, 57, 64)       6401024     input_1[0][0]                    
__________________________________________________________________________________________________
bidirectional_1 (Bidirectional) (None, 128)          49536       lambda_1[0][0]                   
__________________________________________________________________________________________________
dropout_1 (Dropout)             (None, 57, 64)       0           embedding_1[0][0]                
__________________________________________________________________________________________________
lambda_2 (Lambda)               (None, 57, 128)      0           bidirectional_1[0][0]            
__________________________________________________________________________________________________
concatenate_1 (Concatenate)     (None, 57, 192)      0           dropout_1[0][0]                  
                                                                 lambda_2[0][0]                   
__________________________________________________________________________________________________
bidirectional_2 (Bidirectional) (None, 57, 384)      443520      concatenate_1[0][0]              
__________________________________________________________________________________________________
crf_1 (CRF)                     (None, 57, 10)       3970        bidirectional_2[0][0]            
==================================================================================================
Total params: 6,903,938
Trainable params: 6,903,938
Non-trainable params: 0
__________________________________________________________________________________________________
Train on 7 samples, validate on 1 samples
Epoch 1/70

7/7 [==============================] - 3s 372ms/step - loss: 2.3346 - acc: 0.0458 - val_loss: 1.1524 - val_acc: 0.7200
…
Found 8 unique labels.
17 unique words not found in embedding.
7 unique chars not found in embedding.
Number of OOV: 323
OOV word occurences: 543
Padded until 57 tokens.
Padded until 24 chars.
Padded until 57 tokens.
Padded until 24 chars.
Padded until 57 tokens.
Model Choice:
__________________________________________________________________________________________________
Layer (type)                    Output Shape         Param #     Connected to                     
==================================================================================================
input_2 (InputLayer)            (None, 57, 24)       0                                            
__________________________________________________________________________________________________
embedding_2 (Embedding)         (None, 24, 64)       5888        input_2[0][0]                    
__________________________________________________________________________________________________
dropout_2 (Dropout)             (None, 24, 64)       0           embedding_2[0][0]                
__________________________________________________________________________________________________
input_1 (InputLayer)            (None, 57)           0                                            
__________________________________________________________________________________________________
lambda_1 (Lambda)               (None, 24, 64)       0           dropout_2[0][0]                  
__________________________________________________________________________________________________
embedding_1 (Embedding)         (None, 57, 64)       6401408     input_1[0][0]                    
__________________________________________________________________________________________________
bidirectional_1 (Bidirectional) (None, 128)          49536       lambda_1[0][0]                   
__________________________________________________________________________________________________
dropout_1 (Dropout)             (None, 57, 64)       0           embedding_1[0][0]                
__________________________________________________________________________________________________
lambda_2 (Lambda)               (None, 57, 128)      0           bidirectional_1[0][0]            
__________________________________________________________________________________________________
concatenate_1 (Concatenate)     (None, 57, 192)      0           dropout_1[0][0]                  
                                                                 lambda_2[0][0]                   
__________________________________________________________________________________________________
bidirectional_2 (Bidirectional) (None, 57, 384)      443520      concatenate_1[0][0]              
__________________________________________________________________________________________________
crf_1 (CRF)                     (None, 57, 9)        3564        bidirectional_2[0][0]            
==================================================================================================
Total params: 6,903,916
Trainable params: 6,903,916
Non-trainable params: 0
__________________________________________________________________________________________________
Train on 7 samples, validate on 1 samples
Epoch 1/70

7/7 [==============================] - 3s 370ms/step - loss: 2.0360 - acc: 0.2642 - val_loss: 1.5108 - val_acc: 0.6552
…
Found 9 unique labels.
8 unique words not found in embedding.
5 unique chars not found in embedding.
Number of OOV: 324
OOV word occurences: 628
Padded until 57 tokens.
Padded until 24 chars.
Padded until 57 tokens.
Padded until 24 chars.
Padded until 57 tokens.
Model Choice:
__________________________________________________________________________________________________
Layer (type)                    Output Shape         Param #     Connected to                     
==================================================================================================
input_2 (InputLayer)            (None, 57, 24)       0                                            
__________________________________________________________________________________________________
embedding_2 (Embedding)         (None, 24, 64)       5760        input_2[0][0]                    
__________________________________________________________________________________________________
dropout_2 (Dropout)             (None, 24, 64)       0           embedding_2[0][0]                
__________________________________________________________________________________________________
input_1 (InputLayer)            (None, 57)           0                                            
__________________________________________________________________________________________________
lambda_1 (Lambda)               (None, 24, 64)       0           dropout_2[0][0]                  
__________________________________________________________________________________________________
embedding_1 (Embedding)         (None, 57, 64)       6400832     input_1[0][0]                    
__________________________________________________________________________________________________
bidirectional_1 (Bidirectional) (None, 128)          49536       lambda_1[0][0]                   
__________________________________________________________________________________________________
dropout_1 (Dropout)             (None, 57, 64)       0           embedding_1[0][0]                
__________________________________________________________________________________________________
lambda_2 (Lambda)               (None, 57, 128)      0           bidirectional_1[0][0]            
__________________________________________________________________________________________________
concatenate_1 (Concatenate)     (None, 57, 192)      0           dropout_1[0][0]                  
                                                                 lambda_2[0][0]                   
__________________________________________________________________________________________________
bidirectional_2 (Bidirectional) (None, 57, 384)      443520      concatenate_1[0][0]              
__________________________________________________________________________________________________
crf_1 (CRF)                     (None, 57, 10)       3970        bidirectional_2[0][0]            
==================================================================================================
Total params: 6,903,618
Trainable params: 6,903,618
Non-trainable params: 0
__________________________________________________________________________________________________
Train on 7 samples, validate on 1 samples
Epoch 1/70

7/7 [==============================] - 3s 371ms/step - loss: 2.3981 - acc: 0.0312 - val_loss: 1.3311 - val_acc: 0.6667
…
Found 9 unique labels.
14 unique words not found in embedding.
4 unique chars not found in embedding.
Number of OOV: 327
OOV word occurences: 632
Padded until 58 tokens.
Padded until 24 chars.
Padded until 58 tokens.
Padded until 24 chars.
Padded until 58 tokens.
Model Choice:
__________________________________________________________________________________________________
Layer (type)                    Output Shape         Param #     Connected to                     
==================================================================================================
input_2 (InputLayer)            (None, 58, 24)       0                                            
__________________________________________________________________________________________________
embedding_2 (Embedding)         (None, 24, 64)       5696        input_2[0][0]                    
__________________________________________________________________________________________________
dropout_2 (Dropout)             (None, 24, 64)       0           embedding_2[0][0]                
__________________________________________________________________________________________________
input_1 (InputLayer)            (None, 58)           0                                            
__________________________________________________________________________________________________
lambda_1 (Lambda)               (None, 24, 64)       0           dropout_2[0][0]                  
__________________________________________________________________________________________________
embedding_1 (Embedding)         (None, 58, 64)       6401216     input_1[0][0]                    
__________________________________________________________________________________________________
bidirectional_1 (Bidirectional) (None, 128)          49536       lambda_1[0][0]                   
__________________________________________________________________________________________________
dropout_1 (Dropout)             (None, 58, 64)       0           embedding_1[0][0]                
__________________________________________________________________________________________________
lambda_2 (Lambda)               (None, 58, 128)      0           bidirectional_1[0][0]            
__________________________________________________________________________________________________
concatenate_1 (Concatenate)     (None, 58, 192)      0           dropout_1[0][0]                  
                                                                 lambda_2[0][0]                   
__________________________________________________________________________________________________
bidirectional_2 (Bidirectional) (None, 58, 384)      443520      concatenate_1[0][0]              
__________________________________________________________________________________________________
crf_1 (CRF)                     (None, 58, 10)       3970        bidirectional_2[0][0]            
==================================================================================================
Total params: 6,903,938
Trainable params: 6,903,938
Non-trainable params: 0
__________________________________________________________________________________________________
Train on 7 samples, validate on 1 samples
Epoch 1/70

7/7 [==============================] - 3s 367ms/step - loss: 2.1623 - acc: 0.3488 - val_loss: 1.3151 - val_acc: 0.6471
…
Found 7 unique labels.
11 unique words not found in embedding.
8 unique chars not found in embedding.
Number of OOV: 325
OOV word occurences: 632
Padded until 57 tokens.
Padded until 24 chars.
Padded until 57 tokens.
Padded until 24 chars.
Padded until 57 tokens.
Model Choice:
__________________________________________________________________________________________________
Layer (type)                    Output Shape         Param #     Connected to                     
==================================================================================================
input_2 (InputLayer)            (None, 57, 24)       0                                            
__________________________________________________________________________________________________
embedding_2 (Embedding)         (None, 24, 64)       5952        input_2[0][0]                    
__________________________________________________________________________________________________
dropout_2 (Dropout)             (None, 24, 64)       0           embedding_2[0][0]                
__________________________________________________________________________________________________
input_1 (InputLayer)            (None, 57)           0                                            
__________________________________________________________________________________________________
lambda_1 (Lambda)               (None, 24, 64)       0           dropout_2[0][0]                  
__________________________________________________________________________________________________
embedding_1 (Embedding)         (None, 57, 64)       6401024     input_1[0][0]                    
__________________________________________________________________________________________________
bidirectional_1 (Bidirectional) (None, 128)          49536       lambda_1[0][0]                   
__________________________________________________________________________________________________
dropout_1 (Dropout)             (None, 57, 64)       0           embedding_1[0][0]                
__________________________________________________________________________________________________
lambda_2 (Lambda)               (None, 57, 128)      0           bidirectional_1[0][0]            
__________________________________________________________________________________________________
concatenate_1 (Concatenate)     (None, 57, 192)      0           dropout_1[0][0]                  
                                                                 lambda_2[0][0]                   
__________________________________________________________________________________________________
bidirectional_2 (Bidirectional) (None, 57, 384)      443520      concatenate_1[0][0]              
__________________________________________________________________________________________________
crf_1 (CRF)                     (None, 57, 8)        3160        bidirectional_2[0][0]            
==================================================================================================
Total params: 6,903,192
Trainable params: 6,903,192
Non-trainable params: 0
__________________________________________________________________________________________________
Train on 7 samples, validate on 1 samples
Epoch 1/70

7/7 [==============================] - 3s 376ms/step - loss: 1.8453 - acc: 0.2593 - val_loss: 0.6497 - val_acc: 0.9583
…
Found 7 unique labels.
11 unique words not found in embedding.
4 unique chars not found in embedding.
Number of OOV: 326
OOV word occurences: 631
Padded until 57 tokens.
Padded until 24 chars.
Padded until 57 tokens.
Padded until 24 chars.
Padded until 57 tokens.
Model Choice:
__________________________________________________________________________________________________
Layer (type)                    Output Shape         Param #     Connected to                     
==================================================================================================
input_2 (InputLayer)            (None, 57, 24)       0                                            
__________________________________________________________________________________________________
embedding_2 (Embedding)         (None, 24, 64)       5696        input_2[0][0]                    
__________________________________________________________________________________________________
dropout_2 (Dropout)             (None, 24, 64)       0           embedding_2[0][0]                
__________________________________________________________________________________________________
input_1 (InputLayer)            (None, 57)           0                                            
__________________________________________________________________________________________________
lambda_1 (Lambda)               (None, 24, 64)       0           dropout_2[0][0]                  
__________________________________________________________________________________________________
embedding_1 (Embedding)         (None, 57, 64)       6401024     input_1[0][0]                    
__________________________________________________________________________________________________
bidirectional_1 (Bidirectional) (None, 128)          49536       lambda_1[0][0]                   
__________________________________________________________________________________________________
dropout_1 (Dropout)             (None, 57, 64)       0           embedding_1[0][0]                
__________________________________________________________________________________________________
lambda_2 (Lambda)               (None, 57, 128)      0           bidirectional_1[0][0]            
__________________________________________________________________________________________________
concatenate_1 (Concatenate)     (None, 57, 192)      0           dropout_1[0][0]                  
                                                                 lambda_2[0][0]                   
__________________________________________________________________________________________________
bidirectional_2 (Bidirectional) (None, 57, 384)      443520      concatenate_1[0][0]              
__________________________________________________________________________________________________
crf_1 (CRF)                     (None, 57, 8)        3160        bidirectional_2[0][0]            
==================================================================================================
Total params: 6,902,936
Trainable params: 6,902,936
Non-trainable params: 0
__________________________________________________________________________________________________
Train on 7 samples, validate on 1 samples
Epoch 1/70

7/7 [==============================] - 3s 374ms/step - loss: 1.8452 - acc: 0.3716 - val_loss: 0.9244 - val_acc: 0.7692
…
Found 9 unique labels.
12 unique words not found in embedding.
7 unique chars not found in embedding.
Number of OOV: 326
OOV word occurences: 635
Padded until 67 tokens.
Padded until 24 chars.
Padded until 67 tokens.
Padded until 24 chars.
Padded until 67 tokens.
Model Choice:
__________________________________________________________________________________________________
Layer (type)                    Output Shape         Param #     Connected to                     
==================================================================================================
input_2 (InputLayer)            (None, 67, 24)       0                                            
__________________________________________________________________________________________________
embedding_2 (Embedding)         (None, 24, 64)       5888        input_2[0][0]                    
__________________________________________________________________________________________________
dropout_2 (Dropout)             (None, 24, 64)       0           embedding_2[0][0]                
__________________________________________________________________________________________________
input_1 (InputLayer)            (None, 67)           0                                            
__________________________________________________________________________________________________
lambda_1 (Lambda)               (None, 24, 64)       0           dropout_2[0][0]                  
__________________________________________________________________________________________________
embedding_1 (Embedding)         (None, 67, 64)       6401088     input_1[0][0]                    
__________________________________________________________________________________________________
bidirectional_1 (Bidirectional) (None, 128)          49536       lambda_1[0][0]                   
__________________________________________________________________________________________________
dropout_1 (Dropout)             (None, 67, 64)       0           embedding_1[0][0]                
__________________________________________________________________________________________________
lambda_2 (Lambda)               (None, 67, 128)      0           bidirectional_1[0][0]            
__________________________________________________________________________________________________
concatenate_1 (Concatenate)     (None, 67, 192)      0           dropout_1[0][0]                  
                                                                 lambda_2[0][0]                   
__________________________________________________________________________________________________
bidirectional_2 (Bidirectional) (None, 67, 384)      443520      concatenate_1[0][0]              
__________________________________________________________________________________________________
crf_1 (CRF)                     (None, 67, 10)       3970        bidirectional_2[0][0]            
==================================================================================================
Total params: 6,904,002
Trainable params: 6,904,002
Non-trainable params: 0
__________________________________________________________________________________________________
Train on 7 samples, validate on 1 samples
Epoch 1/70

7/7 [==============================] - 3s 380ms/step - loss: 2.3486 - acc: 0.0380 - val_loss: 1.3488 - val_acc: 0.6538
…
Found 9 unique labels.
14 unique words not found in embedding.
7 unique chars not found in embedding.
Number of OOV: 326
OOV word occurences: 636
Padded until 57 tokens.
Padded until 24 chars.
Padded until 57 tokens.
Padded until 24 chars.
Padded until 57 tokens.
Model Choice:
__________________________________________________________________________________________________
Layer (type)                    Output Shape         Param #     Connected to                     
==================================================================================================
input_2 (InputLayer)            (None, 57, 24)       0                                            
__________________________________________________________________________________________________
embedding_2 (Embedding)         (None, 24, 64)       5888        input_2[0][0]                    
__________________________________________________________________________________________________
dropout_2 (Dropout)             (None, 24, 64)       0           embedding_2[0][0]                
__________________________________________________________________________________________________
input_1 (InputLayer)            (None, 57)           0                                            
__________________________________________________________________________________________________
lambda_1 (Lambda)               (None, 24, 64)       0           dropout_2[0][0]                  
__________________________________________________________________________________________________
embedding_1 (Embedding)         (None, 57, 64)       6401216     input_1[0][0]                    
__________________________________________________________________________________________________
bidirectional_1 (Bidirectional) (None, 128)          49536       lambda_1[0][0]                   
__________________________________________________________________________________________________
dropout_1 (Dropout)             (None, 57, 64)       0           embedding_1[0][0]                
__________________________________________________________________________________________________
lambda_2 (Lambda)               (None, 57, 128)      0           bidirectional_1[0][0]            
__________________________________________________________________________________________________
concatenate_1 (Concatenate)     (None, 57, 192)      0           dropout_1[0][0]                  
                                                                 lambda_2[0][0]                   
__________________________________________________________________________________________________
bidirectional_2 (Bidirectional) (None, 57, 384)      443520      concatenate_1[0][0]              
__________________________________________________________________________________________________
crf_1 (CRF)                     (None, 57, 10)       3970        bidirectional_2[0][0]            
==================================================================================================
Total params: 6,904,130
Trainable params: 6,904,130
Non-trainable params: 0
__________________________________________________________________________________________________
Train on 7 samples, validate on 1 samples
Epoch 1/70

7/7 [==============================] - 3s 373ms/step - loss: 2.3367 - acc: 0.0199 - val_loss: 0.5593 - val_acc: 0.9200
…
