…
Found additional 104845 unique words.
4841 unique words not found in embedding.
97 unique chars not found in embedding.
Number of OOV: 230
OOV word occurences: 314
Padded until 83 tokens.
Padded until 24 chars.
Padded until 83 tokens.
Padded until 24 chars.
Padded until 83 tokens.
Model Choice:
__________________________________________________________________________________________________
Layer (type)                    Output Shape         Param #     Connected to                     
==================================================================================================
input_2 (InputLayer)            (None, 83, 24)       0                                            
__________________________________________________________________________________________________
embedding_2 (Embedding)         (None, 24, 64)       11648       input_2[0][0]                    
__________________________________________________________________________________________________
dropout_2 (Dropout)             (None, 24, 64)       0           embedding_2[0][0]                
__________________________________________________________________________________________________
input_1 (InputLayer)            (None, 83)           0                                            
__________________________________________________________________________________________________
lambda_1 (Lambda)               (None, 24, 64)       0           dropout_2[0][0]                  
__________________________________________________________________________________________________
embedding_1 (Embedding)         (None, 83, 64)       6710144     input_1[0][0]                    
__________________________________________________________________________________________________
bidirectional_1 (Bidirectional) (None, 128)          49536       lambda_1[0][0]                   
__________________________________________________________________________________________________
dropout_1 (Dropout)             (None, 83, 64)       0           embedding_1[0][0]                
__________________________________________________________________________________________________
lambda_2 (Lambda)               (None, 83, 128)      0           bidirectional_1[0][0]            
__________________________________________________________________________________________________
concatenate_1 (Concatenate)     (None, 83, 192)      0           dropout_1[0][0]                  
                                                                 lambda_2[0][0]                   
__________________________________________________________________________________________________
bidirectional_2 (Bidirectional) (None, 83, 384)      443520      concatenate_1[0][0]              
__________________________________________________________________________________________________
crf_1 (CRF)                     (None, 83, 10)       3970        bidirectional_2[0][0]            
==================================================================================================
Total params: 7,218,818
Trainable params: 7,218,818
Non-trainable params: 0
__________________________________________________________________________________________________
Loading layer 0
Loading layer 1
Loading layer 2
Loading layer 3
Loading layer 4
Loading layer 5
…
Found additional 104328 unique words.
4324 unique words not found in embedding.
97 unique chars not found in embedding.
Number of OOV: 247
OOV word occurences: 371
Padded until 83 tokens.
Padded until 24 chars.
Padded until 83 tokens.
Padded until 24 chars.
Padded until 83 tokens.
Model Choice:
__________________________________________________________________________________________________
Layer (type)                    Output Shape         Param #     Connected to                     
==================================================================================================
input_2 (InputLayer)            (None, 83, 24)       0                                            
__________________________________________________________________________________________________
embedding_2 (Embedding)         (None, 24, 64)       11648       input_2[0][0]                    
__________________________________________________________________________________________________
dropout_2 (Dropout)             (None, 24, 64)       0           embedding_2[0][0]                
__________________________________________________________________________________________________
input_1 (InputLayer)            (None, 83)           0                                            
__________________________________________________________________________________________________
lambda_1 (Lambda)               (None, 24, 64)       0           dropout_2[0][0]                  
__________________________________________________________________________________________________
embedding_1 (Embedding)         (None, 83, 64)       6677056     input_1[0][0]                    
__________________________________________________________________________________________________
bidirectional_1 (Bidirectional) (None, 128)          49536       lambda_1[0][0]                   
__________________________________________________________________________________________________
dropout_1 (Dropout)             (None, 83, 64)       0           embedding_1[0][0]                
__________________________________________________________________________________________________
lambda_2 (Lambda)               (None, 83, 128)      0           bidirectional_1[0][0]            
__________________________________________________________________________________________________
concatenate_1 (Concatenate)     (None, 83, 192)      0           dropout_1[0][0]                  
                                                                 lambda_2[0][0]                   
__________________________________________________________________________________________________
bidirectional_2 (Bidirectional) (None, 83, 384)      443520      concatenate_1[0][0]              
__________________________________________________________________________________________________
crf_1 (CRF)                     (None, 83, 10)       3970        bidirectional_2[0][0]            
==================================================================================================
Total params: 7,185,730
Trainable params: 7,185,730
Non-trainable params: 0
__________________________________________________________________________________________________
Loading layer 0
Loading layer 1
Loading layer 2
Loading layer 3
Loading layer 4
Loading layer 5
…
Found additional 104325 unique words.
4321 unique words not found in embedding.
97 unique chars not found in embedding.
Number of OOV: 244
OOV word occurences: 351
Padded until 83 tokens.
Padded until 24 chars.
Padded until 83 tokens.
Padded until 24 chars.
Padded until 83 tokens.
Model Choice:
__________________________________________________________________________________________________
Layer (type)                    Output Shape         Param #     Connected to                     
==================================================================================================
input_2 (InputLayer)            (None, 83, 24)       0                                            
__________________________________________________________________________________________________
embedding_2 (Embedding)         (None, 24, 64)       11648       input_2[0][0]                    
__________________________________________________________________________________________________
dropout_2 (Dropout)             (None, 24, 64)       0           embedding_2[0][0]                
__________________________________________________________________________________________________
input_1 (InputLayer)            (None, 83)           0                                            
__________________________________________________________________________________________________
lambda_1 (Lambda)               (None, 24, 64)       0           dropout_2[0][0]                  
__________________________________________________________________________________________________
embedding_1 (Embedding)         (None, 83, 64)       6676864     input_1[0][0]                    
__________________________________________________________________________________________________
bidirectional_1 (Bidirectional) (None, 128)          49536       lambda_1[0][0]                   
__________________________________________________________________________________________________
dropout_1 (Dropout)             (None, 83, 64)       0           embedding_1[0][0]                
__________________________________________________________________________________________________
lambda_2 (Lambda)               (None, 83, 128)      0           bidirectional_1[0][0]            
__________________________________________________________________________________________________
concatenate_1 (Concatenate)     (None, 83, 192)      0           dropout_1[0][0]                  
                                                                 lambda_2[0][0]                   
__________________________________________________________________________________________________
bidirectional_2 (Bidirectional) (None, 83, 384)      443520      concatenate_1[0][0]              
__________________________________________________________________________________________________
crf_1 (CRF)                     (None, 83, 10)       3970        bidirectional_2[0][0]            
==================================================================================================
Total params: 7,185,538
Trainable params: 7,185,538
Non-trainable params: 0
__________________________________________________________________________________________________
Loading layer 0
Loading layer 1
Loading layer 2
Loading layer 3
Loading layer 4
Loading layer 5
…
Found additional 103885 unique words.
3881 unique words not found in embedding.
97 unique chars not found in embedding.
Number of OOV: 267
OOV word occurences: 434
Padded until 57 tokens.
Padded until 24 chars.
Padded until 57 tokens.
Padded until 24 chars.
Padded until 57 tokens.
Model Choice:
__________________________________________________________________________________________________
Layer (type)                    Output Shape         Param #     Connected to                     
==================================================================================================
input_2 (InputLayer)            (None, 57, 24)       0                                            
__________________________________________________________________________________________________
embedding_2 (Embedding)         (None, 24, 64)       11648       input_2[0][0]                    
__________________________________________________________________________________________________
dropout_2 (Dropout)             (None, 24, 64)       0           embedding_2[0][0]                
__________________________________________________________________________________________________
input_1 (InputLayer)            (None, 57)           0                                            
__________________________________________________________________________________________________
lambda_1 (Lambda)               (None, 24, 64)       0           dropout_2[0][0]                  
__________________________________________________________________________________________________
embedding_1 (Embedding)         (None, 57, 64)       6648704     input_1[0][0]                    
__________________________________________________________________________________________________
bidirectional_1 (Bidirectional) (None, 128)          49536       lambda_1[0][0]                   
__________________________________________________________________________________________________
dropout_1 (Dropout)             (None, 57, 64)       0           embedding_1[0][0]                
__________________________________________________________________________________________________
lambda_2 (Lambda)               (None, 57, 128)      0           bidirectional_1[0][0]            
__________________________________________________________________________________________________
concatenate_1 (Concatenate)     (None, 57, 192)      0           dropout_1[0][0]                  
                                                                 lambda_2[0][0]                   
__________________________________________________________________________________________________
bidirectional_2 (Bidirectional) (None, 57, 384)      443520      concatenate_1[0][0]              
__________________________________________________________________________________________________
crf_1 (CRF)                     (None, 57, 10)       3970        bidirectional_2[0][0]            
==================================================================================================
Total params: 7,157,378
Trainable params: 7,157,378
Non-trainable params: 0
__________________________________________________________________________________________________
Loading layer 0
Loading layer 1
Loading layer 2
Loading layer 3
Loading layer 4
Loading layer 5
…
Found additional 103920 unique words.
3916 unique words not found in embedding.
97 unique chars not found in embedding.
Number of OOV: 261
OOV word occurences: 380
Padded until 58 tokens.
Padded until 24 chars.
Padded until 58 tokens.
Padded until 24 chars.
Padded until 58 tokens.
Model Choice:
__________________________________________________________________________________________________
Layer (type)                    Output Shape         Param #     Connected to                     
==================================================================================================
input_2 (InputLayer)            (None, 58, 24)       0                                            
__________________________________________________________________________________________________
embedding_2 (Embedding)         (None, 24, 64)       11648       input_2[0][0]                    
__________________________________________________________________________________________________
dropout_2 (Dropout)             (None, 24, 64)       0           embedding_2[0][0]                
__________________________________________________________________________________________________
input_1 (InputLayer)            (None, 58)           0                                            
__________________________________________________________________________________________________
lambda_1 (Lambda)               (None, 24, 64)       0           dropout_2[0][0]                  
__________________________________________________________________________________________________
embedding_1 (Embedding)         (None, 58, 64)       6650944     input_1[0][0]                    
__________________________________________________________________________________________________
bidirectional_1 (Bidirectional) (None, 128)          49536       lambda_1[0][0]                   
__________________________________________________________________________________________________
dropout_1 (Dropout)             (None, 58, 64)       0           embedding_1[0][0]                
__________________________________________________________________________________________________
lambda_2 (Lambda)               (None, 58, 128)      0           bidirectional_1[0][0]            
__________________________________________________________________________________________________
concatenate_1 (Concatenate)     (None, 58, 192)      0           dropout_1[0][0]                  
                                                                 lambda_2[0][0]                   
__________________________________________________________________________________________________
bidirectional_2 (Bidirectional) (None, 58, 384)      443520      concatenate_1[0][0]              
__________________________________________________________________________________________________
crf_1 (CRF)                     (None, 58, 10)       3970        bidirectional_2[0][0]            
==================================================================================================
Total params: 7,159,618
Trainable params: 7,159,618
Non-trainable params: 0
__________________________________________________________________________________________________
Loading layer 0
Loading layer 1
Loading layer 2
Loading layer 3
Loading layer 4
Loading layer 5
…
Found additional 103739 unique words.
3735 unique words not found in embedding.
97 unique chars not found in embedding.
Number of OOV: 272
OOV word occurences: 452
Padded until 57 tokens.
Padded until 24 chars.
Padded until 57 tokens.
Padded until 24 chars.
Padded until 57 tokens.
Model Choice:
__________________________________________________________________________________________________
Layer (type)                    Output Shape         Param #     Connected to                     
==================================================================================================
input_2 (InputLayer)            (None, 57, 24)       0                                            
__________________________________________________________________________________________________
embedding_2 (Embedding)         (None, 24, 64)       11648       input_2[0][0]                    
__________________________________________________________________________________________________
dropout_2 (Dropout)             (None, 24, 64)       0           embedding_2[0][0]                
__________________________________________________________________________________________________
input_1 (InputLayer)            (None, 57)           0                                            
__________________________________________________________________________________________________
lambda_1 (Lambda)               (None, 24, 64)       0           dropout_2[0][0]                  
__________________________________________________________________________________________________
embedding_1 (Embedding)         (None, 57, 64)       6639360     input_1[0][0]                    
__________________________________________________________________________________________________
bidirectional_1 (Bidirectional) (None, 128)          49536       lambda_1[0][0]                   
__________________________________________________________________________________________________
dropout_1 (Dropout)             (None, 57, 64)       0           embedding_1[0][0]                
__________________________________________________________________________________________________
lambda_2 (Lambda)               (None, 57, 128)      0           bidirectional_1[0][0]            
__________________________________________________________________________________________________
concatenate_1 (Concatenate)     (None, 57, 192)      0           dropout_1[0][0]                  
                                                                 lambda_2[0][0]                   
__________________________________________________________________________________________________
bidirectional_2 (Bidirectional) (None, 57, 384)      443520      concatenate_1[0][0]              
__________________________________________________________________________________________________
crf_1 (CRF)                     (None, 57, 10)       3970        bidirectional_2[0][0]            
==================================================================================================
Total params: 7,148,034
Trainable params: 7,148,034
Non-trainable params: 0
__________________________________________________________________________________________________
Loading layer 0
Loading layer 1
Loading layer 2
Loading layer 3
Loading layer 4
Loading layer 5
…
Found additional 103772 unique words.
3768 unique words not found in embedding.
97 unique chars not found in embedding.
Number of OOV: 271
OOV word occurences: 423
Padded until 57 tokens.
Padded until 24 chars.
Padded until 57 tokens.
Padded until 24 chars.
Padded until 57 tokens.
Model Choice:
__________________________________________________________________________________________________
Layer (type)                    Output Shape         Param #     Connected to                     
==================================================================================================
input_2 (InputLayer)            (None, 57, 24)       0                                            
__________________________________________________________________________________________________
embedding_2 (Embedding)         (None, 24, 64)       11648       input_2[0][0]                    
__________________________________________________________________________________________________
dropout_2 (Dropout)             (None, 24, 64)       0           embedding_2[0][0]                
__________________________________________________________________________________________________
input_1 (InputLayer)            (None, 57)           0                                            
__________________________________________________________________________________________________
lambda_1 (Lambda)               (None, 24, 64)       0           dropout_2[0][0]                  
__________________________________________________________________________________________________
embedding_1 (Embedding)         (None, 57, 64)       6641472     input_1[0][0]                    
__________________________________________________________________________________________________
bidirectional_1 (Bidirectional) (None, 128)          49536       lambda_1[0][0]                   
__________________________________________________________________________________________________
dropout_1 (Dropout)             (None, 57, 64)       0           embedding_1[0][0]                
__________________________________________________________________________________________________
lambda_2 (Lambda)               (None, 57, 128)      0           bidirectional_1[0][0]            
__________________________________________________________________________________________________
concatenate_1 (Concatenate)     (None, 57, 192)      0           dropout_1[0][0]                  
                                                                 lambda_2[0][0]                   
__________________________________________________________________________________________________
bidirectional_2 (Bidirectional) (None, 57, 384)      443520      concatenate_1[0][0]              
__________________________________________________________________________________________________
crf_1 (CRF)                     (None, 57, 10)       3970        bidirectional_2[0][0]            
==================================================================================================
Total params: 7,150,146
Trainable params: 7,150,146
Non-trainable params: 0
__________________________________________________________________________________________________
Loading layer 0
Loading layer 1
Loading layer 2
Loading layer 3
Loading layer 4
Loading layer 5
…
Found additional 103663 unique words.
3659 unique words not found in embedding.
97 unique chars not found in embedding.
Number of OOV: 275
OOV word occurences: 468
Padded until 57 tokens.
Padded until 24 chars.
Padded until 57 tokens.
Padded until 24 chars.
Padded until 57 tokens.
Model Choice:
__________________________________________________________________________________________________
Layer (type)                    Output Shape         Param #     Connected to                     
==================================================================================================
input_2 (InputLayer)            (None, 57, 24)       0                                            
__________________________________________________________________________________________________
embedding_2 (Embedding)         (None, 24, 64)       11648       input_2[0][0]                    
__________________________________________________________________________________________________
dropout_2 (Dropout)             (None, 24, 64)       0           embedding_2[0][0]                
__________________________________________________________________________________________________
input_1 (InputLayer)            (None, 57)           0                                            
__________________________________________________________________________________________________
lambda_1 (Lambda)               (None, 24, 64)       0           dropout_2[0][0]                  
__________________________________________________________________________________________________
embedding_1 (Embedding)         (None, 57, 64)       6634496     input_1[0][0]                    
__________________________________________________________________________________________________
bidirectional_1 (Bidirectional) (None, 128)          49536       lambda_1[0][0]                   
__________________________________________________________________________________________________
dropout_1 (Dropout)             (None, 57, 64)       0           embedding_1[0][0]                
__________________________________________________________________________________________________
lambda_2 (Lambda)               (None, 57, 128)      0           bidirectional_1[0][0]            
__________________________________________________________________________________________________
concatenate_1 (Concatenate)     (None, 57, 192)      0           dropout_1[0][0]                  
                                                                 lambda_2[0][0]                   
__________________________________________________________________________________________________
bidirectional_2 (Bidirectional) (None, 57, 384)      443520      concatenate_1[0][0]              
__________________________________________________________________________________________________
crf_1 (CRF)                     (None, 57, 10)       3970        bidirectional_2[0][0]            
==================================================================================================
Total params: 7,143,170
Trainable params: 7,143,170
Non-trainable params: 0
__________________________________________________________________________________________________
Loading layer 0
Loading layer 1
Loading layer 2
Loading layer 3
Loading layer 4
Loading layer 5
…
Found additional 103694 unique words.
3690 unique words not found in embedding.
97 unique chars not found in embedding.
Number of OOV: 276
OOV word occurences: 511
Padded until 57 tokens.
Padded until 24 chars.
Padded until 57 tokens.
Padded until 24 chars.
Padded until 57 tokens.
Model Choice:
__________________________________________________________________________________________________
Layer (type)                    Output Shape         Param #     Connected to                     
==================================================================================================
input_2 (InputLayer)            (None, 57, 24)       0                                            
__________________________________________________________________________________________________
embedding_2 (Embedding)         (None, 24, 64)       11648       input_2[0][0]                    
__________________________________________________________________________________________________
dropout_2 (Dropout)             (None, 24, 64)       0           embedding_2[0][0]                
__________________________________________________________________________________________________
input_1 (InputLayer)            (None, 57)           0                                            
__________________________________________________________________________________________________
lambda_1 (Lambda)               (None, 24, 64)       0           dropout_2[0][0]                  
__________________________________________________________________________________________________
embedding_1 (Embedding)         (None, 57, 64)       6636480     input_1[0][0]                    
__________________________________________________________________________________________________
bidirectional_1 (Bidirectional) (None, 128)          49536       lambda_1[0][0]                   
__________________________________________________________________________________________________
dropout_1 (Dropout)             (None, 57, 64)       0           embedding_1[0][0]                
__________________________________________________________________________________________________
lambda_2 (Lambda)               (None, 57, 128)      0           bidirectional_1[0][0]            
__________________________________________________________________________________________________
concatenate_1 (Concatenate)     (None, 57, 192)      0           dropout_1[0][0]                  
                                                                 lambda_2[0][0]                   
__________________________________________________________________________________________________
bidirectional_2 (Bidirectional) (None, 57, 384)      443520      concatenate_1[0][0]              
__________________________________________________________________________________________________
crf_1 (CRF)                     (None, 57, 10)       3970        bidirectional_2[0][0]            
==================================================================================================
Total params: 7,145,154
Trainable params: 7,145,154
Non-trainable params: 0
__________________________________________________________________________________________________
Loading layer 0
Loading layer 1
Loading layer 2
Loading layer 3
Loading layer 4
Loading layer 5
…
Found additional 103615 unique words.
3611 unique words not found in embedding.
97 unique chars not found in embedding.
Number of OOV: 281
OOV word occurences: 562
Padded until 57 tokens.
Padded until 24 chars.
Padded until 57 tokens.
Padded until 24 chars.
Padded until 57 tokens.
Model Choice:
__________________________________________________________________________________________________
Layer (type)                    Output Shape         Param #     Connected to                     
==================================================================================================
input_2 (InputLayer)            (None, 57, 24)       0                                            
__________________________________________________________________________________________________
embedding_2 (Embedding)         (None, 24, 64)       11648       input_2[0][0]                    
__________________________________________________________________________________________________
dropout_2 (Dropout)             (None, 24, 64)       0           embedding_2[0][0]                
__________________________________________________________________________________________________
input_1 (InputLayer)            (None, 57)           0                                            
__________________________________________________________________________________________________
lambda_1 (Lambda)               (None, 24, 64)       0           dropout_2[0][0]                  
__________________________________________________________________________________________________
embedding_1 (Embedding)         (None, 57, 64)       6631424     input_1[0][0]                    
__________________________________________________________________________________________________
bidirectional_1 (Bidirectional) (None, 128)          49536       lambda_1[0][0]                   
__________________________________________________________________________________________________
dropout_1 (Dropout)             (None, 57, 64)       0           embedding_1[0][0]                
__________________________________________________________________________________________________
lambda_2 (Lambda)               (None, 57, 128)      0           bidirectional_1[0][0]            
__________________________________________________________________________________________________
concatenate_1 (Concatenate)     (None, 57, 192)      0           dropout_1[0][0]                  
                                                                 lambda_2[0][0]                   
__________________________________________________________________________________________________
bidirectional_2 (Bidirectional) (None, 57, 384)      443520      concatenate_1[0][0]              
__________________________________________________________________________________________________
crf_1 (CRF)                     (None, 57, 10)       3970        bidirectional_2[0][0]            
==================================================================================================
Total params: 7,140,098
Trainable params: 7,140,098
Non-trainable params: 0
__________________________________________________________________________________________________
Loading layer 0
Loading layer 1
Loading layer 2
Loading layer 3
Loading layer 4
Loading layer 5
…
Found additional 103629 unique words.
3625 unique words not found in embedding.
97 unique chars not found in embedding.
Number of OOV: 282
OOV word occurences: 558
Padded until 57 tokens.
Padded until 24 chars.
Padded until 57 tokens.
Padded until 24 chars.
Padded until 57 tokens.
Model Choice:
__________________________________________________________________________________________________
Layer (type)                    Output Shape         Param #     Connected to                     
==================================================================================================
input_2 (InputLayer)            (None, 57, 24)       0                                            
__________________________________________________________________________________________________
embedding_2 (Embedding)         (None, 24, 64)       11648       input_2[0][0]                    
__________________________________________________________________________________________________
dropout_2 (Dropout)             (None, 24, 64)       0           embedding_2[0][0]                
__________________________________________________________________________________________________
input_1 (InputLayer)            (None, 57)           0                                            
__________________________________________________________________________________________________
lambda_1 (Lambda)               (None, 24, 64)       0           dropout_2[0][0]                  
__________________________________________________________________________________________________
embedding_1 (Embedding)         (None, 57, 64)       6632320     input_1[0][0]                    
__________________________________________________________________________________________________
bidirectional_1 (Bidirectional) (None, 128)          49536       lambda_1[0][0]                   
__________________________________________________________________________________________________
dropout_1 (Dropout)             (None, 57, 64)       0           embedding_1[0][0]                
__________________________________________________________________________________________________
lambda_2 (Lambda)               (None, 57, 128)      0           bidirectional_1[0][0]            
__________________________________________________________________________________________________
concatenate_1 (Concatenate)     (None, 57, 192)      0           dropout_1[0][0]                  
                                                                 lambda_2[0][0]                   
__________________________________________________________________________________________________
bidirectional_2 (Bidirectional) (None, 57, 384)      443520      concatenate_1[0][0]              
__________________________________________________________________________________________________
crf_1 (CRF)                     (None, 57, 10)       3970        bidirectional_2[0][0]            
==================================================================================================
Total params: 7,140,994
Trainable params: 7,140,994
Non-trainable params: 0
__________________________________________________________________________________________________
Loading layer 0
Loading layer 1
Loading layer 2
Loading layer 3
Loading layer 4
Loading layer 5
…
Found additional 103602 unique words.
3598 unique words not found in embedding.
97 unique chars not found in embedding.
Number of OOV: 281
OOV word occurences: 562
Padded until 57 tokens.
Padded until 24 chars.
Padded until 57 tokens.
Padded until 24 chars.
Padded until 57 tokens.
Model Choice:
__________________________________________________________________________________________________
Layer (type)                    Output Shape         Param #     Connected to                     
==================================================================================================
input_2 (InputLayer)            (None, 57, 24)       0                                            
__________________________________________________________________________________________________
embedding_2 (Embedding)         (None, 24, 64)       11648       input_2[0][0]                    
__________________________________________________________________________________________________
dropout_2 (Dropout)             (None, 24, 64)       0           embedding_2[0][0]                
__________________________________________________________________________________________________
input_1 (InputLayer)            (None, 57)           0                                            
__________________________________________________________________________________________________
lambda_1 (Lambda)               (None, 24, 64)       0           dropout_2[0][0]                  
__________________________________________________________________________________________________
embedding_1 (Embedding)         (None, 57, 64)       6630592     input_1[0][0]                    
__________________________________________________________________________________________________
bidirectional_1 (Bidirectional) (None, 128)          49536       lambda_1[0][0]                   
__________________________________________________________________________________________________
dropout_1 (Dropout)             (None, 57, 64)       0           embedding_1[0][0]                
__________________________________________________________________________________________________
lambda_2 (Lambda)               (None, 57, 128)      0           bidirectional_1[0][0]            
__________________________________________________________________________________________________
concatenate_1 (Concatenate)     (None, 57, 192)      0           dropout_1[0][0]                  
                                                                 lambda_2[0][0]                   
__________________________________________________________________________________________________
bidirectional_2 (Bidirectional) (None, 57, 384)      443520      concatenate_1[0][0]              
__________________________________________________________________________________________________
crf_1 (CRF)                     (None, 57, 10)       3970        bidirectional_2[0][0]            
==================================================================================================
Total params: 7,139,266
Trainable params: 7,139,266
Non-trainable params: 0
__________________________________________________________________________________________________
Loading layer 0
Loading layer 1
Loading layer 2
Loading layer 3
Loading layer 4
Loading layer 5
…
Found additional 103611 unique words.
3607 unique words not found in embedding.
97 unique chars not found in embedding.
Number of OOV: 283
OOV word occurences: 567
Padded until 57 tokens.
Padded until 24 chars.
Padded until 57 tokens.
Padded until 24 chars.
Padded until 57 tokens.
Model Choice:
__________________________________________________________________________________________________
Layer (type)                    Output Shape         Param #     Connected to                     
==================================================================================================
input_2 (InputLayer)            (None, 57, 24)       0                                            
__________________________________________________________________________________________________
embedding_2 (Embedding)         (None, 24, 64)       11648       input_2[0][0]                    
__________________________________________________________________________________________________
dropout_2 (Dropout)             (None, 24, 64)       0           embedding_2[0][0]                
__________________________________________________________________________________________________
input_1 (InputLayer)            (None, 57)           0                                            
__________________________________________________________________________________________________
lambda_1 (Lambda)               (None, 24, 64)       0           dropout_2[0][0]                  
__________________________________________________________________________________________________
embedding_1 (Embedding)         (None, 57, 64)       6631168     input_1[0][0]                    
__________________________________________________________________________________________________
bidirectional_1 (Bidirectional) (None, 128)          49536       lambda_1[0][0]                   
__________________________________________________________________________________________________
dropout_1 (Dropout)             (None, 57, 64)       0           embedding_1[0][0]                
__________________________________________________________________________________________________
lambda_2 (Lambda)               (None, 57, 128)      0           bidirectional_1[0][0]            
__________________________________________________________________________________________________
concatenate_1 (Concatenate)     (None, 57, 192)      0           dropout_1[0][0]                  
                                                                 lambda_2[0][0]                   
__________________________________________________________________________________________________
bidirectional_2 (Bidirectional) (None, 57, 384)      443520      concatenate_1[0][0]              
__________________________________________________________________________________________________
crf_1 (CRF)                     (None, 57, 10)       3970        bidirectional_2[0][0]            
==================================================================================================
Total params: 7,139,842
Trainable params: 7,139,842
Non-trainable params: 0
__________________________________________________________________________________________________
Loading layer 0
Loading layer 1
Loading layer 2
Loading layer 3
Loading layer 4
Loading layer 5
…
Found additional 103598 unique words.
3594 unique words not found in embedding.
97 unique chars not found in embedding.
Number of OOV: 284
OOV word occurences: 568
Padded until 57 tokens.
Padded until 24 chars.
Padded until 57 tokens.
Padded until 24 chars.
Padded until 57 tokens.
Model Choice:
__________________________________________________________________________________________________
Layer (type)                    Output Shape         Param #     Connected to                     
==================================================================================================
input_2 (InputLayer)            (None, 57, 24)       0                                            
__________________________________________________________________________________________________
embedding_2 (Embedding)         (None, 24, 64)       11648       input_2[0][0]                    
__________________________________________________________________________________________________
dropout_2 (Dropout)             (None, 24, 64)       0           embedding_2[0][0]                
__________________________________________________________________________________________________
input_1 (InputLayer)            (None, 57)           0                                            
__________________________________________________________________________________________________
lambda_1 (Lambda)               (None, 24, 64)       0           dropout_2[0][0]                  
__________________________________________________________________________________________________
embedding_1 (Embedding)         (None, 57, 64)       6630336     input_1[0][0]                    
__________________________________________________________________________________________________
bidirectional_1 (Bidirectional) (None, 128)          49536       lambda_1[0][0]                   
__________________________________________________________________________________________________
dropout_1 (Dropout)             (None, 57, 64)       0           embedding_1[0][0]                
__________________________________________________________________________________________________
lambda_2 (Lambda)               (None, 57, 128)      0           bidirectional_1[0][0]            
__________________________________________________________________________________________________
concatenate_1 (Concatenate)     (None, 57, 192)      0           dropout_1[0][0]                  
                                                                 lambda_2[0][0]                   
__________________________________________________________________________________________________
bidirectional_2 (Bidirectional) (None, 57, 384)      443520      concatenate_1[0][0]              
__________________________________________________________________________________________________
crf_1 (CRF)                     (None, 57, 9)        3564        bidirectional_2[0][0]            
==================================================================================================
Total params: 7,138,604
Trainable params: 7,138,604
Non-trainable params: 0
__________________________________________________________________________________________________
Loading layer 0
Loading layer 1
Loading layer 2
Loading layer 3
Loading layer 4
Loading layer 5
…
Found additional 103600 unique words.
3596 unique words not found in embedding.
97 unique chars not found in embedding.
Number of OOV: 283
OOV word occurences: 567
Padded until 57 tokens.
Padded until 24 chars.
Padded until 57 tokens.
Padded until 24 chars.
Padded until 57 tokens.
Model Choice:
__________________________________________________________________________________________________
Layer (type)                    Output Shape         Param #     Connected to                     
==================================================================================================
input_2 (InputLayer)            (None, 57, 24)       0                                            
__________________________________________________________________________________________________
embedding_2 (Embedding)         (None, 24, 64)       11648       input_2[0][0]                    
__________________________________________________________________________________________________
dropout_2 (Dropout)             (None, 24, 64)       0           embedding_2[0][0]                
__________________________________________________________________________________________________
input_1 (InputLayer)            (None, 57)           0                                            
__________________________________________________________________________________________________
lambda_1 (Lambda)               (None, 24, 64)       0           dropout_2[0][0]                  
__________________________________________________________________________________________________
embedding_1 (Embedding)         (None, 57, 64)       6630464     input_1[0][0]                    
__________________________________________________________________________________________________
bidirectional_1 (Bidirectional) (None, 128)          49536       lambda_1[0][0]                   
__________________________________________________________________________________________________
dropout_1 (Dropout)             (None, 57, 64)       0           embedding_1[0][0]                
__________________________________________________________________________________________________
lambda_2 (Lambda)               (None, 57, 128)      0           bidirectional_1[0][0]            
__________________________________________________________________________________________________
concatenate_1 (Concatenate)     (None, 57, 192)      0           dropout_1[0][0]                  
                                                                 lambda_2[0][0]                   
__________________________________________________________________________________________________
bidirectional_2 (Bidirectional) (None, 57, 384)      443520      concatenate_1[0][0]              
__________________________________________________________________________________________________
crf_1 (CRF)                     (None, 57, 10)       3970        bidirectional_2[0][0]            
==================================================================================================
Total params: 7,139,138
Trainable params: 7,139,138
Non-trainable params: 0
__________________________________________________________________________________________________
Loading layer 0
Loading layer 1
Loading layer 2
Loading layer 3
Loading layer 4
Loading layer 5
…
