…
4744 unique words not found in embedding.
97 unique chars not found in embedding.
Number of OOV: 97
OOV word occurences: 99
Padded until 83 tokens.
Padded until 23 chars.
Padded until 83 tokens.
Padded until 23 chars.
Padded until 83 tokens.
Padded until 23 chars.
Padded until 83 tokens.
Model Choice:
__________________________________________________________________________________________________
Layer (type)                    Output Shape         Param #     Connected to                     
==================================================================================================
input_2 (InputLayer)            (None, 83, 23)       0                                            
__________________________________________________________________________________________________
embedding_2 (Embedding)         (None, 23, 64)       11648       input_2[0][0]                    
__________________________________________________________________________________________________
dropout_2 (Dropout)             (None, 23, 64)       0           embedding_2[0][0]                
__________________________________________________________________________________________________
input_1 (InputLayer)            (None, 83)           0                                            
__________________________________________________________________________________________________
lambda_1 (Lambda)               (None, 23, 64)       0           dropout_2[0][0]                  
__________________________________________________________________________________________________
embedding_1 (Embedding)         (None, 83, 64)       6703936     input_1[0][0]                    
__________________________________________________________________________________________________
bidirectional_1 (Bidirectional) (None, 128)          49536       lambda_1[0][0]                   
__________________________________________________________________________________________________
dropout_1 (Dropout)             (None, 83, 64)       0           embedding_1[0][0]                
__________________________________________________________________________________________________
lambda_2 (Lambda)               (None, 83, 128)      0           bidirectional_1[0][0]            
__________________________________________________________________________________________________
concatenate_1 (Concatenate)     (None, 83, 192)      0           dropout_1[0][0]                  
                                                                 lambda_2[0][0]                   
__________________________________________________________________________________________________
bidirectional_2 (Bidirectional) (None, 83, 384)      443520      concatenate_1[0][0]              
__________________________________________________________________________________________________
crf_1 (CRF)                     (None, 83, 10)       3970        bidirectional_2[0][0]            
==================================================================================================
Total params: 7,212,610
Trainable params: 7,212,610
Non-trainable params: 0
__________________________________________________________________________________________________
Loading layer 0
Loading layer 1
Loading layer 2
Loading layer 3
Loading layer 4
Loading layer 5
…
4740 unique words not found in embedding.
97 unique chars not found in embedding.
Number of OOV: 101
OOV word occurences: 105
Padded until 83 tokens.
Padded until 23 chars.
Padded until 83 tokens.
Padded until 23 chars.
Padded until 83 tokens.
Padded until 23 chars.
Padded until 83 tokens.
Model Choice:
__________________________________________________________________________________________________
Layer (type)                    Output Shape         Param #     Connected to                     
==================================================================================================
input_2 (InputLayer)            (None, 83, 23)       0                                            
__________________________________________________________________________________________________
embedding_2 (Embedding)         (None, 23, 64)       11648       input_2[0][0]                    
__________________________________________________________________________________________________
dropout_2 (Dropout)             (None, 23, 64)       0           embedding_2[0][0]                
__________________________________________________________________________________________________
input_1 (InputLayer)            (None, 83)           0                                            
__________________________________________________________________________________________________
lambda_1 (Lambda)               (None, 23, 64)       0           dropout_2[0][0]                  
__________________________________________________________________________________________________
embedding_1 (Embedding)         (None, 83, 64)       6703680     input_1[0][0]                    
__________________________________________________________________________________________________
bidirectional_1 (Bidirectional) (None, 128)          49536       lambda_1[0][0]                   
__________________________________________________________________________________________________
dropout_1 (Dropout)             (None, 83, 64)       0           embedding_1[0][0]                
__________________________________________________________________________________________________
lambda_2 (Lambda)               (None, 83, 128)      0           bidirectional_1[0][0]            
__________________________________________________________________________________________________
concatenate_1 (Concatenate)     (None, 83, 192)      0           dropout_1[0][0]                  
                                                                 lambda_2[0][0]                   
__________________________________________________________________________________________________
bidirectional_2 (Bidirectional) (None, 83, 384)      443520      concatenate_1[0][0]              
__________________________________________________________________________________________________
crf_1 (CRF)                     (None, 83, 10)       3970        bidirectional_2[0][0]            
==================================================================================================
Total params: 7,212,354
Trainable params: 7,212,354
Non-trainable params: 0
__________________________________________________________________________________________________
Loading layer 0
Loading layer 1
Loading layer 2
Loading layer 3
Loading layer 4
Loading layer 5
…
4747 unique words not found in embedding.
97 unique chars not found in embedding.
Number of OOV: 94
OOV word occurences: 95
Padded until 83 tokens.
Padded until 23 chars.
Padded until 83 tokens.
Padded until 23 chars.
Padded until 83 tokens.
Padded until 23 chars.
Padded until 83 tokens.
Model Choice:
__________________________________________________________________________________________________
Layer (type)                    Output Shape         Param #     Connected to                     
==================================================================================================
input_2 (InputLayer)            (None, 83, 23)       0                                            
__________________________________________________________________________________________________
embedding_2 (Embedding)         (None, 23, 64)       11648       input_2[0][0]                    
__________________________________________________________________________________________________
dropout_2 (Dropout)             (None, 23, 64)       0           embedding_2[0][0]                
__________________________________________________________________________________________________
input_1 (InputLayer)            (None, 83)           0                                            
__________________________________________________________________________________________________
lambda_1 (Lambda)               (None, 23, 64)       0           dropout_2[0][0]                  
__________________________________________________________________________________________________
embedding_1 (Embedding)         (None, 83, 64)       6704128     input_1[0][0]                    
__________________________________________________________________________________________________
bidirectional_1 (Bidirectional) (None, 128)          49536       lambda_1[0][0]                   
__________________________________________________________________________________________________
dropout_1 (Dropout)             (None, 83, 64)       0           embedding_1[0][0]                
__________________________________________________________________________________________________
lambda_2 (Lambda)               (None, 83, 128)      0           bidirectional_1[0][0]            
__________________________________________________________________________________________________
concatenate_1 (Concatenate)     (None, 83, 192)      0           dropout_1[0][0]                  
                                                                 lambda_2[0][0]                   
__________________________________________________________________________________________________
bidirectional_2 (Bidirectional) (None, 83, 384)      443520      concatenate_1[0][0]              
__________________________________________________________________________________________________
crf_1 (CRF)                     (None, 83, 10)       3970        bidirectional_2[0][0]            
==================================================================================================
Total params: 7,212,802
Trainable params: 7,212,802
Non-trainable params: 0
__________________________________________________________________________________________________
Loading layer 0
Loading layer 1
Loading layer 2
Loading layer 3
Loading layer 4
Loading layer 5
…
