…
Padding...
Data padded!
Padding...
Data padded!
Padded until 83 tokens.
Mapping...
Data mapped!
Mapping...
Data mapped!
Padding...
Data padded!
Padding...
Data padded!
Padded until 24 chars.
Padded until 83 tokens.
Padded until 24 chars.
Padded until 83 tokens.
Model Choice:
__________________________________________________________________________________________________
Layer (type)                    Output Shape         Param #     Connected to                     
==================================================================================================
input_2 (InputLayer)            (None, 83, 24)       0                                            
__________________________________________________________________________________________________
embedding_2 (Embedding)         (None, 24, 64)       11648       input_2[0][0]                    
__________________________________________________________________________________________________
dropout_2 (Dropout)             (None, 24, 64)       0           embedding_2[0][0]                
__________________________________________________________________________________________________
input_1 (InputLayer)            (None, 83)           0                                            
__________________________________________________________________________________________________
lambda_1 (Lambda)               (None, 24, 64)       0           dropout_2[0][0]                  
__________________________________________________________________________________________________
embedding_1 (Embedding)         (None, 83, 64)       6710144     input_1[0][0]                    
__________________________________________________________________________________________________
bidirectional_1 (Bidirectional) (None, 128)          49536       lambda_1[0][0]                   
__________________________________________________________________________________________________
dropout_1 (Dropout)             (None, 83, 64)       0           embedding_1[0][0]                
__________________________________________________________________________________________________
lambda_2 (Lambda)               (None, 83, 128)      0           bidirectional_1[0][0]            
__________________________________________________________________________________________________
concatenate_1 (Concatenate)     (None, 83, 192)      0           dropout_1[0][0]                  
                                                                 lambda_2[0][0]                   
__________________________________________________________________________________________________
bidirectional_2 (Bidirectional) (None, 83, 384)      443520      concatenate_1[0][0]              
__________________________________________________________________________________________________
crf_1 (CRF)                     (None, 83, 10)       3970        bidirectional_2[0][0]            
==================================================================================================
Total params: 7,218,818
Trainable params: 7,218,818
Non-trainable params: 0
__________________________________________________________________________________________________
Loading layer 0
Loading layer 1
Loading layer 2
Loading layer 3
Loading layer 4
Loading layer 5
…
Padding...
Data padded!
Padding...
Data padded!
Padded until 83 tokens.
Mapping...
Data mapped!
Mapping...
Data mapped!
Padding...
Data padded!
Padding...
Data padded!
Padded until 24 chars.
Padded until 83 tokens.
Padded until 24 chars.
Padded until 83 tokens.
Model Choice:
__________________________________________________________________________________________________
Layer (type)                    Output Shape         Param #     Connected to                     
==================================================================================================
input_2 (InputLayer)            (None, 83, 24)       0                                            
__________________________________________________________________________________________________
embedding_2 (Embedding)         (None, 24, 64)       11648       input_2[0][0]                    
__________________________________________________________________________________________________
dropout_2 (Dropout)             (None, 24, 64)       0           embedding_2[0][0]                
__________________________________________________________________________________________________
input_1 (InputLayer)            (None, 83)           0                                            
__________________________________________________________________________________________________
lambda_1 (Lambda)               (None, 24, 64)       0           dropout_2[0][0]                  
__________________________________________________________________________________________________
embedding_1 (Embedding)         (None, 83, 64)       6677056     input_1[0][0]                    
__________________________________________________________________________________________________
bidirectional_1 (Bidirectional) (None, 128)          49536       lambda_1[0][0]                   
__________________________________________________________________________________________________
dropout_1 (Dropout)             (None, 83, 64)       0           embedding_1[0][0]                
__________________________________________________________________________________________________
lambda_2 (Lambda)               (None, 83, 128)      0           bidirectional_1[0][0]            
__________________________________________________________________________________________________
concatenate_1 (Concatenate)     (None, 83, 192)      0           dropout_1[0][0]                  
                                                                 lambda_2[0][0]                   
__________________________________________________________________________________________________
bidirectional_2 (Bidirectional) (None, 83, 384)      443520      concatenate_1[0][0]              
__________________________________________________________________________________________________
crf_1 (CRF)                     (None, 83, 10)       3970        bidirectional_2[0][0]            
==================================================================================================
Total params: 7,185,730
Trainable params: 7,185,730
Non-trainable params: 0
__________________________________________________________________________________________________
Loading layer 0
Loading layer 1
Loading layer 2
Loading layer 3
Loading layer 4
Loading layer 5
…
Padding...
Data padded!
Padding...
Data padded!
Padded until 83 tokens.
Mapping...
Data mapped!
Mapping...
Data mapped!
Padding...
Data padded!
Padding...
Data padded!
Padded until 24 chars.
Padded until 83 tokens.
Padded until 24 chars.
Padded until 83 tokens.
Model Choice:
__________________________________________________________________________________________________
Layer (type)                    Output Shape         Param #     Connected to                     
==================================================================================================
input_2 (InputLayer)            (None, 83, 24)       0                                            
__________________________________________________________________________________________________
embedding_2 (Embedding)         (None, 24, 64)       11648       input_2[0][0]                    
__________________________________________________________________________________________________
dropout_2 (Dropout)             (None, 24, 64)       0           embedding_2[0][0]                
__________________________________________________________________________________________________
input_1 (InputLayer)            (None, 83)           0                                            
__________________________________________________________________________________________________
lambda_1 (Lambda)               (None, 24, 64)       0           dropout_2[0][0]                  
__________________________________________________________________________________________________
embedding_1 (Embedding)         (None, 83, 64)       6676864     input_1[0][0]                    
__________________________________________________________________________________________________
bidirectional_1 (Bidirectional) (None, 128)          49536       lambda_1[0][0]                   
__________________________________________________________________________________________________
dropout_1 (Dropout)             (None, 83, 64)       0           embedding_1[0][0]                
__________________________________________________________________________________________________
lambda_2 (Lambda)               (None, 83, 128)      0           bidirectional_1[0][0]            
__________________________________________________________________________________________________
concatenate_1 (Concatenate)     (None, 83, 192)      0           dropout_1[0][0]                  
                                                                 lambda_2[0][0]                   
__________________________________________________________________________________________________
bidirectional_2 (Bidirectional) (None, 83, 384)      443520      concatenate_1[0][0]              
__________________________________________________________________________________________________
crf_1 (CRF)                     (None, 83, 10)       3970        bidirectional_2[0][0]            
==================================================================================================
Total params: 7,185,538
Trainable params: 7,185,538
Non-trainable params: 0
__________________________________________________________________________________________________
Loading layer 0
Loading layer 1
Loading layer 2
Loading layer 3
Loading layer 4
Loading layer 5
…
Padding...
Data padded!
Padding...
Data padded!
Padded until 83 tokens.
Mapping...
Data mapped!
Mapping...
Data mapped!
Padding...
Data padded!
Padding...
Data padded!
Padded until 24 chars.
Padded until 83 tokens.
Padded until 24 chars.
Padded until 83 tokens.
Model Choice:
__________________________________________________________________________________________________
Layer (type)                    Output Shape         Param #     Connected to                     
==================================================================================================
input_2 (InputLayer)            (None, 83, 24)       0                                            
__________________________________________________________________________________________________
embedding_2 (Embedding)         (None, 24, 64)       11648       input_2[0][0]                    
__________________________________________________________________________________________________
dropout_2 (Dropout)             (None, 24, 64)       0           embedding_2[0][0]                
__________________________________________________________________________________________________
input_1 (InputLayer)            (None, 83)           0                                            
__________________________________________________________________________________________________
lambda_1 (Lambda)               (None, 24, 64)       0           dropout_2[0][0]                  
__________________________________________________________________________________________________
embedding_1 (Embedding)         (None, 83, 64)       6675264     input_1[0][0]                    
__________________________________________________________________________________________________
bidirectional_1 (Bidirectional) (None, 128)          49536       lambda_1[0][0]                   
__________________________________________________________________________________________________
dropout_1 (Dropout)             (None, 83, 64)       0           embedding_1[0][0]                
__________________________________________________________________________________________________
lambda_2 (Lambda)               (None, 83, 128)      0           bidirectional_1[0][0]            
__________________________________________________________________________________________________
concatenate_1 (Concatenate)     (None, 83, 192)      0           dropout_1[0][0]                  
                                                                 lambda_2[0][0]                   
__________________________________________________________________________________________________
bidirectional_2 (Bidirectional) (None, 83, 384)      443520      concatenate_1[0][0]              
__________________________________________________________________________________________________
crf_1 (CRF)                     (None, 83, 10)       3970        bidirectional_2[0][0]            
==================================================================================================
Total params: 7,183,938
Trainable params: 7,183,938
Non-trainable params: 0
__________________________________________________________________________________________________
Loading layer 0
Loading layer 1
Loading layer 2
Loading layer 3
Loading layer 4
Loading layer 5
…
Padding...
Data padded!
Padding...
Data padded!
Padded until 58 tokens.
Mapping...
Data mapped!
Mapping...
Data mapped!
Padding...
Data padded!
Padding...
Data padded!
Padded until 24 chars.
Padded until 58 tokens.
Padded until 24 chars.
Padded until 58 tokens.
Model Choice:
__________________________________________________________________________________________________
Layer (type)                    Output Shape         Param #     Connected to                     
==================================================================================================
input_2 (InputLayer)            (None, 58, 24)       0                                            
__________________________________________________________________________________________________
embedding_2 (Embedding)         (None, 24, 64)       11648       input_2[0][0]                    
__________________________________________________________________________________________________
dropout_2 (Dropout)             (None, 24, 64)       0           embedding_2[0][0]                
__________________________________________________________________________________________________
input_1 (InputLayer)            (None, 58)           0                                            
__________________________________________________________________________________________________
lambda_1 (Lambda)               (None, 24, 64)       0           dropout_2[0][0]                  
__________________________________________________________________________________________________
embedding_1 (Embedding)         (None, 58, 64)       6675264     input_1[0][0]                    
__________________________________________________________________________________________________
bidirectional_1 (Bidirectional) (None, 128)          49536       lambda_1[0][0]                   
__________________________________________________________________________________________________
dropout_1 (Dropout)             (None, 58, 64)       0           embedding_1[0][0]                
__________________________________________________________________________________________________
lambda_2 (Lambda)               (None, 58, 128)      0           bidirectional_1[0][0]            
__________________________________________________________________________________________________
concatenate_1 (Concatenate)     (None, 58, 192)      0           dropout_1[0][0]                  
                                                                 lambda_2[0][0]                   
__________________________________________________________________________________________________
bidirectional_2 (Bidirectional) (None, 58, 384)      443520      concatenate_1[0][0]              
__________________________________________________________________________________________________
crf_1 (CRF)                     (None, 58, 10)       3970        bidirectional_2[0][0]            
==================================================================================================
Total params: 7,183,938
Trainable params: 7,183,938
Non-trainable params: 0
__________________________________________________________________________________________________
Loading layer 0
Loading layer 1
Loading layer 2
Loading layer 3
Loading layer 4
Loading layer 5
…
Padding...
Data padded!
Padding...
Data padded!
Padded until 67 tokens.
Mapping...
Data mapped!
Mapping...
Data mapped!
Padding...
Data padded!
Padding...
Data padded!
Padded until 24 chars.
Padded until 67 tokens.
Padded until 24 chars.
Padded until 67 tokens.
Model Choice:
__________________________________________________________________________________________________
Layer (type)                    Output Shape         Param #     Connected to                     
==================================================================================================
input_2 (InputLayer)            (None, 67, 24)       0                                            
__________________________________________________________________________________________________
embedding_2 (Embedding)         (None, 24, 64)       11648       input_2[0][0]                    
__________________________________________________________________________________________________
dropout_2 (Dropout)             (None, 24, 64)       0           embedding_2[0][0]                
__________________________________________________________________________________________________
input_1 (InputLayer)            (None, 67)           0                                            
__________________________________________________________________________________________________
lambda_1 (Lambda)               (None, 24, 64)       0           dropout_2[0][0]                  
__________________________________________________________________________________________________
embedding_1 (Embedding)         (None, 67, 64)       6674048     input_1[0][0]                    
__________________________________________________________________________________________________
bidirectional_1 (Bidirectional) (None, 128)          49536       lambda_1[0][0]                   
__________________________________________________________________________________________________
dropout_1 (Dropout)             (None, 67, 64)       0           embedding_1[0][0]                
__________________________________________________________________________________________________
lambda_2 (Lambda)               (None, 67, 128)      0           bidirectional_1[0][0]            
__________________________________________________________________________________________________
concatenate_1 (Concatenate)     (None, 67, 192)      0           dropout_1[0][0]                  
                                                                 lambda_2[0][0]                   
__________________________________________________________________________________________________
bidirectional_2 (Bidirectional) (None, 67, 384)      443520      concatenate_1[0][0]              
__________________________________________________________________________________________________
crf_1 (CRF)                     (None, 67, 10)       3970        bidirectional_2[0][0]            
==================================================================================================
Total params: 7,182,722
Trainable params: 7,182,722
Non-trainable params: 0
__________________________________________________________________________________________________
Loading layer 0
Loading layer 1
Loading layer 2
Loading layer 3
Loading layer 4
Loading layer 5
…
Padding...
Data padded!
Padding...
Data padded!
Padded until 67 tokens.
Mapping...
Data mapped!
Mapping...
Data mapped!
Padding...
Data padded!
Padding...
Data padded!
Padded until 24 chars.
Padded until 67 tokens.
Padded until 24 chars.
Padded until 67 tokens.
Model Choice:
__________________________________________________________________________________________________
Layer (type)                    Output Shape         Param #     Connected to                     
==================================================================================================
input_2 (InputLayer)            (None, 67, 24)       0                                            
__________________________________________________________________________________________________
embedding_2 (Embedding)         (None, 24, 64)       11648       input_2[0][0]                    
__________________________________________________________________________________________________
dropout_2 (Dropout)             (None, 24, 64)       0           embedding_2[0][0]                
__________________________________________________________________________________________________
input_1 (InputLayer)            (None, 67)           0                                            
__________________________________________________________________________________________________
lambda_1 (Lambda)               (None, 24, 64)       0           dropout_2[0][0]                  
__________________________________________________________________________________________________
embedding_1 (Embedding)         (None, 67, 64)       6671808     input_1[0][0]                    
__________________________________________________________________________________________________
bidirectional_1 (Bidirectional) (None, 128)          49536       lambda_1[0][0]                   
__________________________________________________________________________________________________
dropout_1 (Dropout)             (None, 67, 64)       0           embedding_1[0][0]                
__________________________________________________________________________________________________
lambda_2 (Lambda)               (None, 67, 128)      0           bidirectional_1[0][0]            
__________________________________________________________________________________________________
concatenate_1 (Concatenate)     (None, 67, 192)      0           dropout_1[0][0]                  
                                                                 lambda_2[0][0]                   
__________________________________________________________________________________________________
bidirectional_2 (Bidirectional) (None, 67, 384)      443520      concatenate_1[0][0]              
__________________________________________________________________________________________________
crf_1 (CRF)                     (None, 67, 10)       3970        bidirectional_2[0][0]            
==================================================================================================
Total params: 7,180,482
Trainable params: 7,180,482
Non-trainable params: 0
__________________________________________________________________________________________________
Loading layer 0
Loading layer 1
Loading layer 2
Loading layer 3
Loading layer 4
Loading layer 5
…
Padding...
Data padded!
Padding...
Data padded!
Padded until 67 tokens.
Mapping...
Data mapped!
Mapping...
Data mapped!
Padding...
Data padded!
Padding...
Data padded!
Padded until 24 chars.
Padded until 67 tokens.
Padded until 24 chars.
Padded until 67 tokens.
Model Choice:
__________________________________________________________________________________________________
Layer (type)                    Output Shape         Param #     Connected to                     
==================================================================================================
input_2 (InputLayer)            (None, 67, 24)       0                                            
__________________________________________________________________________________________________
embedding_2 (Embedding)         (None, 24, 64)       11648       input_2[0][0]                    
__________________________________________________________________________________________________
dropout_2 (Dropout)             (None, 24, 64)       0           embedding_2[0][0]                
__________________________________________________________________________________________________
input_1 (InputLayer)            (None, 67)           0                                            
__________________________________________________________________________________________________
lambda_1 (Lambda)               (None, 24, 64)       0           dropout_2[0][0]                  
__________________________________________________________________________________________________
embedding_1 (Embedding)         (None, 67, 64)       6674176     input_1[0][0]                    
__________________________________________________________________________________________________
bidirectional_1 (Bidirectional) (None, 128)          49536       lambda_1[0][0]                   
__________________________________________________________________________________________________
dropout_1 (Dropout)             (None, 67, 64)       0           embedding_1[0][0]                
__________________________________________________________________________________________________
lambda_2 (Lambda)               (None, 67, 128)      0           bidirectional_1[0][0]            
__________________________________________________________________________________________________
concatenate_1 (Concatenate)     (None, 67, 192)      0           dropout_1[0][0]                  
                                                                 lambda_2[0][0]                   
__________________________________________________________________________________________________
bidirectional_2 (Bidirectional) (None, 67, 384)      443520      concatenate_1[0][0]              
__________________________________________________________________________________________________
crf_1 (CRF)                     (None, 67, 10)       3970        bidirectional_2[0][0]            
==================================================================================================
Total params: 7,182,850
Trainable params: 7,182,850
Non-trainable params: 0
__________________________________________________________________________________________________
Loading layer 0
Loading layer 1
Loading layer 2
Loading layer 3
Loading layer 4
Loading layer 5
…
Padding...
Data padded!
Padding...
Data padded!
Padded until 58 tokens.
Mapping...
Data mapped!
Mapping...
Data mapped!
Padding...
Data padded!
Padding...
Data padded!
Padded until 24 chars.
Padded until 58 tokens.
Padded until 24 chars.
Padded until 58 tokens.
Model Choice:
__________________________________________________________________________________________________
Layer (type)                    Output Shape         Param #     Connected to                     
==================================================================================================
input_2 (InputLayer)            (None, 58, 24)       0                                            
__________________________________________________________________________________________________
embedding_2 (Embedding)         (None, 24, 64)       11648       input_2[0][0]                    
__________________________________________________________________________________________________
dropout_2 (Dropout)             (None, 24, 64)       0           embedding_2[0][0]                
__________________________________________________________________________________________________
input_1 (InputLayer)            (None, 58)           0                                            
__________________________________________________________________________________________________
lambda_1 (Lambda)               (None, 24, 64)       0           dropout_2[0][0]                  
__________________________________________________________________________________________________
embedding_1 (Embedding)         (None, 58, 64)       6674304     input_1[0][0]                    
__________________________________________________________________________________________________
bidirectional_1 (Bidirectional) (None, 128)          49536       lambda_1[0][0]                   
__________________________________________________________________________________________________
dropout_1 (Dropout)             (None, 58, 64)       0           embedding_1[0][0]                
__________________________________________________________________________________________________
lambda_2 (Lambda)               (None, 58, 128)      0           bidirectional_1[0][0]            
__________________________________________________________________________________________________
concatenate_1 (Concatenate)     (None, 58, 192)      0           dropout_1[0][0]                  
                                                                 lambda_2[0][0]                   
__________________________________________________________________________________________________
bidirectional_2 (Bidirectional) (None, 58, 384)      443520      concatenate_1[0][0]              
__________________________________________________________________________________________________
crf_1 (CRF)                     (None, 58, 10)       3970        bidirectional_2[0][0]            
==================================================================================================
Total params: 7,182,978
Trainable params: 7,182,978
Non-trainable params: 0
__________________________________________________________________________________________________
Loading layer 0
Loading layer 1
Loading layer 2
Loading layer 3
Loading layer 4
Loading layer 5
…
Padding...
Data padded!
Padding...
Data padded!
Padded until 83 tokens.
Mapping...
Data mapped!
Mapping...
Data mapped!
Padding...
Data padded!
Padding...
Data padded!
Padded until 24 chars.
Padded until 83 tokens.
Padded until 24 chars.
Padded until 83 tokens.
Model Choice:
__________________________________________________________________________________________________
Layer (type)                    Output Shape         Param #     Connected to                     
==================================================================================================
input_2 (InputLayer)            (None, 83, 24)       0                                            
__________________________________________________________________________________________________
embedding_2 (Embedding)         (None, 24, 64)       11648       input_2[0][0]                    
__________________________________________________________________________________________________
dropout_2 (Dropout)             (None, 24, 64)       0           embedding_2[0][0]                
__________________________________________________________________________________________________
input_1 (InputLayer)            (None, 83)           0                                            
__________________________________________________________________________________________________
lambda_1 (Lambda)               (None, 24, 64)       0           dropout_2[0][0]                  
__________________________________________________________________________________________________
embedding_1 (Embedding)         (None, 83, 64)       6674880     input_1[0][0]                    
__________________________________________________________________________________________________
bidirectional_1 (Bidirectional) (None, 128)          49536       lambda_1[0][0]                   
__________________________________________________________________________________________________
dropout_1 (Dropout)             (None, 83, 64)       0           embedding_1[0][0]                
__________________________________________________________________________________________________
lambda_2 (Lambda)               (None, 83, 128)      0           bidirectional_1[0][0]            
__________________________________________________________________________________________________
concatenate_1 (Concatenate)     (None, 83, 192)      0           dropout_1[0][0]                  
                                                                 lambda_2[0][0]                   
__________________________________________________________________________________________________
bidirectional_2 (Bidirectional) (None, 83, 384)      443520      concatenate_1[0][0]              
__________________________________________________________________________________________________
crf_1 (CRF)                     (None, 83, 10)       3970        bidirectional_2[0][0]            
==================================================================================================
Total params: 7,183,554
Trainable params: 7,183,554
Non-trainable params: 0
__________________________________________________________________________________________________
Loading layer 0
Loading layer 1
Loading layer 2
Loading layer 3
Loading layer 4
Loading layer 5
…
Padding...
Data padded!
Padding...
Data padded!
Padded until 67 tokens.
Mapping...
Data mapped!
Mapping...
Data mapped!
Padding...
Data padded!
Padding...
Data padded!
Padded until 24 chars.
Padded until 67 tokens.
Padded until 24 chars.
Padded until 67 tokens.
Model Choice:
__________________________________________________________________________________________________
Layer (type)                    Output Shape         Param #     Connected to                     
==================================================================================================
input_2 (InputLayer)            (None, 67, 24)       0                                            
__________________________________________________________________________________________________
embedding_2 (Embedding)         (None, 24, 64)       11648       input_2[0][0]                    
__________________________________________________________________________________________________
dropout_2 (Dropout)             (None, 24, 64)       0           embedding_2[0][0]                
__________________________________________________________________________________________________
input_1 (InputLayer)            (None, 67)           0                                            
__________________________________________________________________________________________________
lambda_1 (Lambda)               (None, 24, 64)       0           dropout_2[0][0]                  
__________________________________________________________________________________________________
embedding_1 (Embedding)         (None, 67, 64)       6675392     input_1[0][0]                    
__________________________________________________________________________________________________
bidirectional_1 (Bidirectional) (None, 128)          49536       lambda_1[0][0]                   
__________________________________________________________________________________________________
dropout_1 (Dropout)             (None, 67, 64)       0           embedding_1[0][0]                
__________________________________________________________________________________________________
lambda_2 (Lambda)               (None, 67, 128)      0           bidirectional_1[0][0]            
__________________________________________________________________________________________________
concatenate_1 (Concatenate)     (None, 67, 192)      0           dropout_1[0][0]                  
                                                                 lambda_2[0][0]                   
__________________________________________________________________________________________________
bidirectional_2 (Bidirectional) (None, 67, 384)      443520      concatenate_1[0][0]              
__________________________________________________________________________________________________
crf_1 (CRF)                     (None, 67, 10)       3970        bidirectional_2[0][0]            
==================================================================================================
Total params: 7,184,066
Trainable params: 7,184,066
Non-trainable params: 0
__________________________________________________________________________________________________
Loading layer 0
Loading layer 1
Loading layer 2
Loading layer 3
Loading layer 4
Loading layer 5
…
Padding...
Data padded!
Padding...
Data padded!
Padded until 67 tokens.
Mapping...
Data mapped!
Mapping...
Data mapped!
Padding...
Data padded!
Padding...
Data padded!
Padded until 24 chars.
Padded until 67 tokens.
Padded until 24 chars.
Padded until 67 tokens.
Model Choice:
__________________________________________________________________________________________________
Layer (type)                    Output Shape         Param #     Connected to                     
==================================================================================================
input_2 (InputLayer)            (None, 67, 24)       0                                            
__________________________________________________________________________________________________
embedding_2 (Embedding)         (None, 24, 64)       11648       input_2[0][0]                    
__________________________________________________________________________________________________
dropout_2 (Dropout)             (None, 24, 64)       0           embedding_2[0][0]                
__________________________________________________________________________________________________
input_1 (InputLayer)            (None, 67)           0                                            
__________________________________________________________________________________________________
lambda_1 (Lambda)               (None, 24, 64)       0           dropout_2[0][0]                  
__________________________________________________________________________________________________
embedding_1 (Embedding)         (None, 67, 64)       6673664     input_1[0][0]                    
__________________________________________________________________________________________________
bidirectional_1 (Bidirectional) (None, 128)          49536       lambda_1[0][0]                   
__________________________________________________________________________________________________
dropout_1 (Dropout)             (None, 67, 64)       0           embedding_1[0][0]                
__________________________________________________________________________________________________
lambda_2 (Lambda)               (None, 67, 128)      0           bidirectional_1[0][0]            
__________________________________________________________________________________________________
concatenate_1 (Concatenate)     (None, 67, 192)      0           dropout_1[0][0]                  
                                                                 lambda_2[0][0]                   
__________________________________________________________________________________________________
bidirectional_2 (Bidirectional) (None, 67, 384)      443520      concatenate_1[0][0]              
__________________________________________________________________________________________________
crf_1 (CRF)                     (None, 67, 10)       3970        bidirectional_2[0][0]            
==================================================================================================
Total params: 7,182,338
Trainable params: 7,182,338
Non-trainable params: 0
__________________________________________________________________________________________________
Loading layer 0
Loading layer 1
Loading layer 2
Loading layer 3
Loading layer 4
Loading layer 5
…
Padding...
Data padded!
Padding...
Data padded!
Padded until 83 tokens.
Mapping...
Data mapped!
Mapping...
Data mapped!
Padding...
Data padded!
Padding...
Data padded!
Padded until 24 chars.
Padded until 83 tokens.
Padded until 24 chars.
Padded until 83 tokens.
Model Choice:
__________________________________________________________________________________________________
Layer (type)                    Output Shape         Param #     Connected to                     
==================================================================================================
input_2 (InputLayer)            (None, 83, 24)       0                                            
__________________________________________________________________________________________________
embedding_2 (Embedding)         (None, 24, 64)       11648       input_2[0][0]                    
__________________________________________________________________________________________________
dropout_2 (Dropout)             (None, 24, 64)       0           embedding_2[0][0]                
__________________________________________________________________________________________________
input_1 (InputLayer)            (None, 83)           0                                            
__________________________________________________________________________________________________
lambda_1 (Lambda)               (None, 24, 64)       0           dropout_2[0][0]                  
__________________________________________________________________________________________________
embedding_1 (Embedding)         (None, 83, 64)       6675904     input_1[0][0]                    
__________________________________________________________________________________________________
bidirectional_1 (Bidirectional) (None, 128)          49536       lambda_1[0][0]                   
__________________________________________________________________________________________________
dropout_1 (Dropout)             (None, 83, 64)       0           embedding_1[0][0]                
__________________________________________________________________________________________________
lambda_2 (Lambda)               (None, 83, 128)      0           bidirectional_1[0][0]            
__________________________________________________________________________________________________
concatenate_1 (Concatenate)     (None, 83, 192)      0           dropout_1[0][0]                  
                                                                 lambda_2[0][0]                   
__________________________________________________________________________________________________
bidirectional_2 (Bidirectional) (None, 83, 384)      443520      concatenate_1[0][0]              
__________________________________________________________________________________________________
crf_1 (CRF)                     (None, 83, 10)       3970        bidirectional_2[0][0]            
==================================================================================================
Total params: 7,184,578
Trainable params: 7,184,578
Non-trainable params: 0
__________________________________________________________________________________________________
Loading layer 0
Loading layer 1
Loading layer 2
Loading layer 3
Loading layer 4
Loading layer 5
…
Padding...
Data padded!
Padding...
Data padded!
Padded until 63 tokens.
Mapping...
Data mapped!
Mapping...
Data mapped!
Padding...
Data padded!
Padding...
Data padded!
Padded until 24 chars.
Padded until 63 tokens.
Padded until 24 chars.
Padded until 63 tokens.
Model Choice:
__________________________________________________________________________________________________
Layer (type)                    Output Shape         Param #     Connected to                     
==================================================================================================
input_2 (InputLayer)            (None, 63, 24)       0                                            
__________________________________________________________________________________________________
embedding_2 (Embedding)         (None, 24, 64)       11648       input_2[0][0]                    
__________________________________________________________________________________________________
dropout_2 (Dropout)             (None, 24, 64)       0           embedding_2[0][0]                
__________________________________________________________________________________________________
input_1 (InputLayer)            (None, 63)           0                                            
__________________________________________________________________________________________________
lambda_1 (Lambda)               (None, 24, 64)       0           dropout_2[0][0]                  
__________________________________________________________________________________________________
embedding_1 (Embedding)         (None, 63, 64)       6674688     input_1[0][0]                    
__________________________________________________________________________________________________
bidirectional_1 (Bidirectional) (None, 128)          49536       lambda_1[0][0]                   
__________________________________________________________________________________________________
dropout_1 (Dropout)             (None, 63, 64)       0           embedding_1[0][0]                
__________________________________________________________________________________________________
lambda_2 (Lambda)               (None, 63, 128)      0           bidirectional_1[0][0]            
__________________________________________________________________________________________________
concatenate_1 (Concatenate)     (None, 63, 192)      0           dropout_1[0][0]                  
                                                                 lambda_2[0][0]                   
__________________________________________________________________________________________________
bidirectional_2 (Bidirectional) (None, 63, 384)      443520      concatenate_1[0][0]              
__________________________________________________________________________________________________
crf_1 (CRF)                     (None, 63, 10)       3970        bidirectional_2[0][0]            
==================================================================================================
Total params: 7,183,362
Trainable params: 7,183,362
Non-trainable params: 0
__________________________________________________________________________________________________
Loading layer 0
Loading layer 1
Loading layer 2
Loading layer 3
Loading layer 4
Loading layer 5
…
Padding...
Data padded!
Padding...
Data padded!
Padded until 67 tokens.
Mapping...
Data mapped!
Mapping...
Data mapped!
Padding...
Data padded!
Padding...
Data padded!
Padded until 24 chars.
Padded until 67 tokens.
Padded until 24 chars.
Padded until 67 tokens.
Model Choice:
__________________________________________________________________________________________________
Layer (type)                    Output Shape         Param #     Connected to                     
==================================================================================================
input_2 (InputLayer)            (None, 67, 24)       0                                            
__________________________________________________________________________________________________
embedding_2 (Embedding)         (None, 24, 64)       11648       input_2[0][0]                    
__________________________________________________________________________________________________
dropout_2 (Dropout)             (None, 24, 64)       0           embedding_2[0][0]                
__________________________________________________________________________________________________
input_1 (InputLayer)            (None, 67)           0                                            
__________________________________________________________________________________________________
lambda_1 (Lambda)               (None, 24, 64)       0           dropout_2[0][0]                  
__________________________________________________________________________________________________
embedding_1 (Embedding)         (None, 67, 64)       6673792     input_1[0][0]                    
__________________________________________________________________________________________________
bidirectional_1 (Bidirectional) (None, 128)          49536       lambda_1[0][0]                   
__________________________________________________________________________________________________
dropout_1 (Dropout)             (None, 67, 64)       0           embedding_1[0][0]                
__________________________________________________________________________________________________
lambda_2 (Lambda)               (None, 67, 128)      0           bidirectional_1[0][0]            
__________________________________________________________________________________________________
concatenate_1 (Concatenate)     (None, 67, 192)      0           dropout_1[0][0]                  
                                                                 lambda_2[0][0]                   
__________________________________________________________________________________________________
bidirectional_2 (Bidirectional) (None, 67, 384)      443520      concatenate_1[0][0]              
__________________________________________________________________________________________________
crf_1 (CRF)                     (None, 67, 10)       3970        bidirectional_2[0][0]            
==================================================================================================
Total params: 7,182,466
Trainable params: 7,182,466
Non-trainable params: 0
__________________________________________________________________________________________________
Loading layer 0
Loading layer 1
Loading layer 2
Loading layer 3
Loading layer 4
Loading layer 5
…
Padding...
Data padded!
Padding...
Data padded!
Padded until 67 tokens.
Mapping...
Data mapped!
Mapping...
Data mapped!
Padding...
Data padded!
Padding...
Data padded!
Padded until 24 chars.
Padded until 67 tokens.
Padded until 24 chars.
Padded until 67 tokens.
Model Choice:
__________________________________________________________________________________________________
Layer (type)                    Output Shape         Param #     Connected to                     
==================================================================================================
input_2 (InputLayer)            (None, 67, 24)       0                                            
__________________________________________________________________________________________________
embedding_2 (Embedding)         (None, 24, 64)       11648       input_2[0][0]                    
__________________________________________________________________________________________________
dropout_2 (Dropout)             (None, 24, 64)       0           embedding_2[0][0]                
__________________________________________________________________________________________________
input_1 (InputLayer)            (None, 67)           0                                            
__________________________________________________________________________________________________
lambda_1 (Lambda)               (None, 24, 64)       0           dropout_2[0][0]                  
__________________________________________________________________________________________________
embedding_1 (Embedding)         (None, 67, 64)       6674240     input_1[0][0]                    
__________________________________________________________________________________________________
bidirectional_1 (Bidirectional) (None, 128)          49536       lambda_1[0][0]                   
__________________________________________________________________________________________________
dropout_1 (Dropout)             (None, 67, 64)       0           embedding_1[0][0]                
__________________________________________________________________________________________________
lambda_2 (Lambda)               (None, 67, 128)      0           bidirectional_1[0][0]            
__________________________________________________________________________________________________
concatenate_1 (Concatenate)     (None, 67, 192)      0           dropout_1[0][0]                  
                                                                 lambda_2[0][0]                   
__________________________________________________________________________________________________
bidirectional_2 (Bidirectional) (None, 67, 384)      443520      concatenate_1[0][0]              
__________________________________________________________________________________________________
crf_1 (CRF)                     (None, 67, 10)       3970        bidirectional_2[0][0]            
==================================================================================================
Total params: 7,182,914
Trainable params: 7,182,914
Non-trainable params: 0
__________________________________________________________________________________________________
Loading layer 0
Loading layer 1
Loading layer 2
Loading layer 3
Loading layer 4
Loading layer 5
…
Padding...
Data padded!
Padding...
Data padded!
Padded until 57 tokens.
Mapping...
Data mapped!
Mapping...
Data mapped!
Padding...
Data padded!
Padding...
Data padded!
Padded until 24 chars.
Padded until 57 tokens.
Padded until 24 chars.
Padded until 57 tokens.
Model Choice:
__________________________________________________________________________________________________
Layer (type)                    Output Shape         Param #     Connected to                     
==================================================================================================
input_2 (InputLayer)            (None, 57, 24)       0                                            
__________________________________________________________________________________________________
embedding_2 (Embedding)         (None, 24, 64)       11648       input_2[0][0]                    
__________________________________________________________________________________________________
dropout_2 (Dropout)             (None, 24, 64)       0           embedding_2[0][0]                
__________________________________________________________________________________________________
input_1 (InputLayer)            (None, 57)           0                                            
__________________________________________________________________________________________________
lambda_1 (Lambda)               (None, 24, 64)       0           dropout_2[0][0]                  
__________________________________________________________________________________________________
embedding_1 (Embedding)         (None, 57, 64)       6648704     input_1[0][0]                    
__________________________________________________________________________________________________
bidirectional_1 (Bidirectional) (None, 128)          49536       lambda_1[0][0]                   
__________________________________________________________________________________________________
dropout_1 (Dropout)             (None, 57, 64)       0           embedding_1[0][0]                
__________________________________________________________________________________________________
lambda_2 (Lambda)               (None, 57, 128)      0           bidirectional_1[0][0]            
__________________________________________________________________________________________________
concatenate_1 (Concatenate)     (None, 57, 192)      0           dropout_1[0][0]                  
                                                                 lambda_2[0][0]                   
__________________________________________________________________________________________________
bidirectional_2 (Bidirectional) (None, 57, 384)      443520      concatenate_1[0][0]              
__________________________________________________________________________________________________
crf_1 (CRF)                     (None, 57, 10)       3970        bidirectional_2[0][0]            
==================================================================================================
Total params: 7,157,378
Trainable params: 7,157,378
Non-trainable params: 0
__________________________________________________________________________________________________
Loading layer 0
Loading layer 1
Loading layer 2
Loading layer 3
Loading layer 4
Loading layer 5
…
Padding...
Data padded!
Padding...
Data padded!
Padded until 58 tokens.
Mapping...
Data mapped!
Mapping...
Data mapped!
Padding...
Data padded!
Padding...
Data padded!
Padded until 24 chars.
Padded until 58 tokens.
Padded until 24 chars.
Padded until 58 tokens.
Model Choice:
__________________________________________________________________________________________________
Layer (type)                    Output Shape         Param #     Connected to                     
==================================================================================================
input_2 (InputLayer)            (None, 58, 24)       0                                            
__________________________________________________________________________________________________
embedding_2 (Embedding)         (None, 24, 64)       11648       input_2[0][0]                    
__________________________________________________________________________________________________
dropout_2 (Dropout)             (None, 24, 64)       0           embedding_2[0][0]                
__________________________________________________________________________________________________
input_1 (InputLayer)            (None, 58)           0                                            
__________________________________________________________________________________________________
lambda_1 (Lambda)               (None, 24, 64)       0           dropout_2[0][0]                  
__________________________________________________________________________________________________
embedding_1 (Embedding)         (None, 58, 64)       6650944     input_1[0][0]                    
__________________________________________________________________________________________________
bidirectional_1 (Bidirectional) (None, 128)          49536       lambda_1[0][0]                   
__________________________________________________________________________________________________
dropout_1 (Dropout)             (None, 58, 64)       0           embedding_1[0][0]                
__________________________________________________________________________________________________
lambda_2 (Lambda)               (None, 58, 128)      0           bidirectional_1[0][0]            
__________________________________________________________________________________________________
concatenate_1 (Concatenate)     (None, 58, 192)      0           dropout_1[0][0]                  
                                                                 lambda_2[0][0]                   
__________________________________________________________________________________________________
bidirectional_2 (Bidirectional) (None, 58, 384)      443520      concatenate_1[0][0]              
__________________________________________________________________________________________________
crf_1 (CRF)                     (None, 58, 10)       3970        bidirectional_2[0][0]            
==================================================================================================
Total params: 7,159,618
Trainable params: 7,159,618
Non-trainable params: 0
__________________________________________________________________________________________________
Loading layer 0
Loading layer 1
Loading layer 2
Loading layer 3
Loading layer 4
Loading layer 5
…
Padding...
Data padded!
Padding...
Data padded!
Padded until 66 tokens.
Mapping...
Data mapped!
Mapping...
Data mapped!
Padding...
Data padded!
Padding...
Data padded!
Padded until 24 chars.
Padded until 66 tokens.
Padded until 24 chars.
Padded until 66 tokens.
Model Choice:
__________________________________________________________________________________________________
Layer (type)                    Output Shape         Param #     Connected to                     
==================================================================================================
input_2 (InputLayer)            (None, 66, 24)       0                                            
__________________________________________________________________________________________________
embedding_2 (Embedding)         (None, 24, 64)       11648       input_2[0][0]                    
__________________________________________________________________________________________________
dropout_2 (Dropout)             (None, 24, 64)       0           embedding_2[0][0]                
__________________________________________________________________________________________________
input_1 (InputLayer)            (None, 66)           0                                            
__________________________________________________________________________________________________
lambda_1 (Lambda)               (None, 24, 64)       0           dropout_2[0][0]                  
__________________________________________________________________________________________________
embedding_1 (Embedding)         (None, 66, 64)       6649216     input_1[0][0]                    
__________________________________________________________________________________________________
bidirectional_1 (Bidirectional) (None, 128)          49536       lambda_1[0][0]                   
__________________________________________________________________________________________________
dropout_1 (Dropout)             (None, 66, 64)       0           embedding_1[0][0]                
__________________________________________________________________________________________________
lambda_2 (Lambda)               (None, 66, 128)      0           bidirectional_1[0][0]            
__________________________________________________________________________________________________
concatenate_1 (Concatenate)     (None, 66, 192)      0           dropout_1[0][0]                  
                                                                 lambda_2[0][0]                   
__________________________________________________________________________________________________
bidirectional_2 (Bidirectional) (None, 66, 384)      443520      concatenate_1[0][0]              
__________________________________________________________________________________________________
crf_1 (CRF)                     (None, 66, 10)       3970        bidirectional_2[0][0]            
==================================================================================================
Total params: 7,157,890
Trainable params: 7,157,890
Non-trainable params: 0
__________________________________________________________________________________________________
Loading layer 0
Loading layer 1
Loading layer 2
Loading layer 3
Loading layer 4
Loading layer 5
…
Padding...
Data padded!
Padding...
Data padded!
Padded until 57 tokens.
Mapping...
Data mapped!
Mapping...
Data mapped!
Padding...
Data padded!
Padding...
Data padded!
Padded until 24 chars.
Padded until 57 tokens.
Padded until 24 chars.
Padded until 57 tokens.
Model Choice:
__________________________________________________________________________________________________
Layer (type)                    Output Shape         Param #     Connected to                     
==================================================================================================
input_2 (InputLayer)            (None, 57, 24)       0                                            
__________________________________________________________________________________________________
embedding_2 (Embedding)         (None, 24, 64)       11648       input_2[0][0]                    
__________________________________________________________________________________________________
dropout_2 (Dropout)             (None, 24, 64)       0           embedding_2[0][0]                
__________________________________________________________________________________________________
input_1 (InputLayer)            (None, 57)           0                                            
__________________________________________________________________________________________________
lambda_1 (Lambda)               (None, 24, 64)       0           dropout_2[0][0]                  
__________________________________________________________________________________________________
embedding_1 (Embedding)         (None, 57, 64)       6648576     input_1[0][0]                    
__________________________________________________________________________________________________
bidirectional_1 (Bidirectional) (None, 128)          49536       lambda_1[0][0]                   
__________________________________________________________________________________________________
dropout_1 (Dropout)             (None, 57, 64)       0           embedding_1[0][0]                
__________________________________________________________________________________________________
lambda_2 (Lambda)               (None, 57, 128)      0           bidirectional_1[0][0]            
__________________________________________________________________________________________________
concatenate_1 (Concatenate)     (None, 57, 192)      0           dropout_1[0][0]                  
                                                                 lambda_2[0][0]                   
__________________________________________________________________________________________________
bidirectional_2 (Bidirectional) (None, 57, 384)      443520      concatenate_1[0][0]              
__________________________________________________________________________________________________
crf_1 (CRF)                     (None, 57, 10)       3970        bidirectional_2[0][0]            
==================================================================================================
Total params: 7,157,250
Trainable params: 7,157,250
Non-trainable params: 0
__________________________________________________________________________________________________
Loading layer 0
Loading layer 1
Loading layer 2
Loading layer 3
Loading layer 4
Loading layer 5
…
Padding...
Data padded!
Padding...
Data padded!
Padded until 63 tokens.
Mapping...
Data mapped!
Mapping...
Data mapped!
Padding...
Data padded!
Padding...
Data padded!
Padded until 24 chars.
Padded until 63 tokens.
Padded until 24 chars.
Padded until 63 tokens.
Model Choice:
__________________________________________________________________________________________________
Layer (type)                    Output Shape         Param #     Connected to                     
==================================================================================================
input_2 (InputLayer)            (None, 63, 24)       0                                            
__________________________________________________________________________________________________
embedding_2 (Embedding)         (None, 24, 64)       11648       input_2[0][0]                    
__________________________________________________________________________________________________
dropout_2 (Dropout)             (None, 24, 64)       0           embedding_2[0][0]                
__________________________________________________________________________________________________
input_1 (InputLayer)            (None, 63)           0                                            
__________________________________________________________________________________________________
lambda_1 (Lambda)               (None, 24, 64)       0           dropout_2[0][0]                  
__________________________________________________________________________________________________
embedding_1 (Embedding)         (None, 63, 64)       6650304     input_1[0][0]                    
__________________________________________________________________________________________________
bidirectional_1 (Bidirectional) (None, 128)          49536       lambda_1[0][0]                   
__________________________________________________________________________________________________
dropout_1 (Dropout)             (None, 63, 64)       0           embedding_1[0][0]                
__________________________________________________________________________________________________
lambda_2 (Lambda)               (None, 63, 128)      0           bidirectional_1[0][0]            
__________________________________________________________________________________________________
concatenate_1 (Concatenate)     (None, 63, 192)      0           dropout_1[0][0]                  
                                                                 lambda_2[0][0]                   
__________________________________________________________________________________________________
bidirectional_2 (Bidirectional) (None, 63, 384)      443520      concatenate_1[0][0]              
__________________________________________________________________________________________________
crf_1 (CRF)                     (None, 63, 10)       3970        bidirectional_2[0][0]            
==================================================================================================
Total params: 7,158,978
Trainable params: 7,158,978
Non-trainable params: 0
__________________________________________________________________________________________________
Loading layer 0
Loading layer 1
Loading layer 2
Loading layer 3
Loading layer 4
Loading layer 5
…
Padding...
Data padded!
Padding...
Data padded!
Padded until 58 tokens.
Mapping...
Data mapped!
Mapping...
Data mapped!
Padding...
Data padded!
Padding...
Data padded!
Padded until 24 chars.
Padded until 58 tokens.
Padded until 24 chars.
Padded until 58 tokens.
Model Choice:
__________________________________________________________________________________________________
Layer (type)                    Output Shape         Param #     Connected to                     
==================================================================================================
input_2 (InputLayer)            (None, 58, 24)       0                                            
__________________________________________________________________________________________________
embedding_2 (Embedding)         (None, 24, 64)       11648       input_2[0][0]                    
__________________________________________________________________________________________________
dropout_2 (Dropout)             (None, 24, 64)       0           embedding_2[0][0]                
__________________________________________________________________________________________________
input_1 (InputLayer)            (None, 58)           0                                            
__________________________________________________________________________________________________
lambda_1 (Lambda)               (None, 24, 64)       0           dropout_2[0][0]                  
__________________________________________________________________________________________________
embedding_1 (Embedding)         (None, 58, 64)       6648256     input_1[0][0]                    
__________________________________________________________________________________________________
bidirectional_1 (Bidirectional) (None, 128)          49536       lambda_1[0][0]                   
__________________________________________________________________________________________________
dropout_1 (Dropout)             (None, 58, 64)       0           embedding_1[0][0]                
__________________________________________________________________________________________________
lambda_2 (Lambda)               (None, 58, 128)      0           bidirectional_1[0][0]            
__________________________________________________________________________________________________
concatenate_1 (Concatenate)     (None, 58, 192)      0           dropout_1[0][0]                  
                                                                 lambda_2[0][0]                   
__________________________________________________________________________________________________
bidirectional_2 (Bidirectional) (None, 58, 384)      443520      concatenate_1[0][0]              
__________________________________________________________________________________________________
crf_1 (CRF)                     (None, 58, 10)       3970        bidirectional_2[0][0]            
==================================================================================================
Total params: 7,156,930
Trainable params: 7,156,930
Non-trainable params: 0
__________________________________________________________________________________________________
Loading layer 0
Loading layer 1
Loading layer 2
Loading layer 3
Loading layer 4
Loading layer 5
…
Padding...
Data padded!
Padding...
Data padded!
Padded until 58 tokens.
Mapping...
Data mapped!
Mapping...
Data mapped!
Padding...
Data padded!
Padding...
Data padded!
Padded until 24 chars.
Padded until 58 tokens.
Padded until 24 chars.
Padded until 58 tokens.
Model Choice:
__________________________________________________________________________________________________
Layer (type)                    Output Shape         Param #     Connected to                     
==================================================================================================
input_2 (InputLayer)            (None, 58, 24)       0                                            
__________________________________________________________________________________________________
embedding_2 (Embedding)         (None, 24, 64)       11648       input_2[0][0]                    
__________________________________________________________________________________________________
dropout_2 (Dropout)             (None, 24, 64)       0           embedding_2[0][0]                
__________________________________________________________________________________________________
input_1 (InputLayer)            (None, 58)           0                                            
__________________________________________________________________________________________________
lambda_1 (Lambda)               (None, 24, 64)       0           dropout_2[0][0]                  
__________________________________________________________________________________________________
embedding_1 (Embedding)         (None, 58, 64)       6649536     input_1[0][0]                    
__________________________________________________________________________________________________
bidirectional_1 (Bidirectional) (None, 128)          49536       lambda_1[0][0]                   
__________________________________________________________________________________________________
dropout_1 (Dropout)             (None, 58, 64)       0           embedding_1[0][0]                
__________________________________________________________________________________________________
lambda_2 (Lambda)               (None, 58, 128)      0           bidirectional_1[0][0]            
__________________________________________________________________________________________________
concatenate_1 (Concatenate)     (None, 58, 192)      0           dropout_1[0][0]                  
                                                                 lambda_2[0][0]                   
__________________________________________________________________________________________________
bidirectional_2 (Bidirectional) (None, 58, 384)      443520      concatenate_1[0][0]              
__________________________________________________________________________________________________
crf_1 (CRF)                     (None, 58, 10)       3970        bidirectional_2[0][0]            
==================================================================================================
Total params: 7,158,210
Trainable params: 7,158,210
Non-trainable params: 0
__________________________________________________________________________________________________
Loading layer 0
Loading layer 1
Loading layer 2
Loading layer 3
Loading layer 4
Loading layer 5
…
Padding...
Data padded!
Padding...
Data padded!
Padded until 58 tokens.
Mapping...
Data mapped!
Mapping...
Data mapped!
Padding...
Data padded!
Padding...
Data padded!
Padded until 24 chars.
Padded until 58 tokens.
Padded until 24 chars.
Padded until 58 tokens.
Model Choice:
__________________________________________________________________________________________________
Layer (type)                    Output Shape         Param #     Connected to                     
==================================================================================================
input_2 (InputLayer)            (None, 58, 24)       0                                            
__________________________________________________________________________________________________
embedding_2 (Embedding)         (None, 24, 64)       11648       input_2[0][0]                    
__________________________________________________________________________________________________
dropout_2 (Dropout)             (None, 24, 64)       0           embedding_2[0][0]                
__________________________________________________________________________________________________
input_1 (InputLayer)            (None, 58)           0                                            
__________________________________________________________________________________________________
lambda_1 (Lambda)               (None, 24, 64)       0           dropout_2[0][0]                  
__________________________________________________________________________________________________
embedding_1 (Embedding)         (None, 58, 64)       6649792     input_1[0][0]                    
__________________________________________________________________________________________________
bidirectional_1 (Bidirectional) (None, 128)          49536       lambda_1[0][0]                   
__________________________________________________________________________________________________
dropout_1 (Dropout)             (None, 58, 64)       0           embedding_1[0][0]                
__________________________________________________________________________________________________
lambda_2 (Lambda)               (None, 58, 128)      0           bidirectional_1[0][0]            
__________________________________________________________________________________________________
concatenate_1 (Concatenate)     (None, 58, 192)      0           dropout_1[0][0]                  
                                                                 lambda_2[0][0]                   
__________________________________________________________________________________________________
bidirectional_2 (Bidirectional) (None, 58, 384)      443520      concatenate_1[0][0]              
__________________________________________________________________________________________________
crf_1 (CRF)                     (None, 58, 10)       3970        bidirectional_2[0][0]            
==================================================================================================
Total params: 7,158,466
Trainable params: 7,158,466
Non-trainable params: 0
__________________________________________________________________________________________________
Loading layer 0
Loading layer 1
Loading layer 2
Loading layer 3
Loading layer 4
Loading layer 5
…
Padding...
Data padded!
Padding...
Data padded!
Padded until 67 tokens.
Mapping...
Data mapped!
Mapping...
Data mapped!
Padding...
Data padded!
Padding...
Data padded!
Padded until 24 chars.
Padded until 67 tokens.
Padded until 24 chars.
Padded until 67 tokens.
Model Choice:
__________________________________________________________________________________________________
Layer (type)                    Output Shape         Param #     Connected to                     
==================================================================================================
input_2 (InputLayer)            (None, 67, 24)       0                                            
__________________________________________________________________________________________________
embedding_2 (Embedding)         (None, 24, 64)       11648       input_2[0][0]                    
__________________________________________________________________________________________________
dropout_2 (Dropout)             (None, 24, 64)       0           embedding_2[0][0]                
__________________________________________________________________________________________________
input_1 (InputLayer)            (None, 67)           0                                            
__________________________________________________________________________________________________
lambda_1 (Lambda)               (None, 24, 64)       0           dropout_2[0][0]                  
__________________________________________________________________________________________________
embedding_1 (Embedding)         (None, 67, 64)       6651840     input_1[0][0]                    
__________________________________________________________________________________________________
bidirectional_1 (Bidirectional) (None, 128)          49536       lambda_1[0][0]                   
__________________________________________________________________________________________________
dropout_1 (Dropout)             (None, 67, 64)       0           embedding_1[0][0]                
__________________________________________________________________________________________________
lambda_2 (Lambda)               (None, 67, 128)      0           bidirectional_1[0][0]            
__________________________________________________________________________________________________
concatenate_1 (Concatenate)     (None, 67, 192)      0           dropout_1[0][0]                  
                                                                 lambda_2[0][0]                   
__________________________________________________________________________________________________
bidirectional_2 (Bidirectional) (None, 67, 384)      443520      concatenate_1[0][0]              
__________________________________________________________________________________________________
crf_1 (CRF)                     (None, 67, 10)       3970        bidirectional_2[0][0]            
==================================================================================================
Total params: 7,160,514
Trainable params: 7,160,514
Non-trainable params: 0
__________________________________________________________________________________________________
Loading layer 0
Loading layer 1
Loading layer 2
Loading layer 3
Loading layer 4
Loading layer 5
…
Padding...
Data padded!
Padding...
Data padded!
Padded until 66 tokens.
Mapping...
Data mapped!
Mapping...
Data mapped!
Padding...
Data padded!
Padding...
Data padded!
Padded until 24 chars.
Padded until 66 tokens.
Padded until 24 chars.
Padded until 66 tokens.
Model Choice:
__________________________________________________________________________________________________
Layer (type)                    Output Shape         Param #     Connected to                     
==================================================================================================
input_2 (InputLayer)            (None, 66, 24)       0                                            
__________________________________________________________________________________________________
embedding_2 (Embedding)         (None, 24, 64)       11648       input_2[0][0]                    
__________________________________________________________________________________________________
dropout_2 (Dropout)             (None, 24, 64)       0           embedding_2[0][0]                
__________________________________________________________________________________________________
input_1 (InputLayer)            (None, 66)           0                                            
__________________________________________________________________________________________________
lambda_1 (Lambda)               (None, 24, 64)       0           dropout_2[0][0]                  
__________________________________________________________________________________________________
embedding_1 (Embedding)         (None, 66, 64)       6651328     input_1[0][0]                    
__________________________________________________________________________________________________
bidirectional_1 (Bidirectional) (None, 128)          49536       lambda_1[0][0]                   
__________________________________________________________________________________________________
dropout_1 (Dropout)             (None, 66, 64)       0           embedding_1[0][0]                
__________________________________________________________________________________________________
lambda_2 (Lambda)               (None, 66, 128)      0           bidirectional_1[0][0]            
__________________________________________________________________________________________________
concatenate_1 (Concatenate)     (None, 66, 192)      0           dropout_1[0][0]                  
                                                                 lambda_2[0][0]                   
__________________________________________________________________________________________________
bidirectional_2 (Bidirectional) (None, 66, 384)      443520      concatenate_1[0][0]              
__________________________________________________________________________________________________
crf_1 (CRF)                     (None, 66, 10)       3970        bidirectional_2[0][0]            
==================================================================================================
Total params: 7,160,002
Trainable params: 7,160,002
Non-trainable params: 0
__________________________________________________________________________________________________
Loading layer 0
Loading layer 1
Loading layer 2
Loading layer 3
Loading layer 4
Loading layer 5
…
Padding...
Data padded!
Padding...
Data padded!
Padded until 83 tokens.
Mapping...
Data mapped!
Mapping...
Data mapped!
Padding...
Data padded!
Padding...
Data padded!
Padded until 24 chars.
Padded until 83 tokens.
Padded until 24 chars.
Padded until 83 tokens.
Model Choice:
__________________________________________________________________________________________________
Layer (type)                    Output Shape         Param #     Connected to                     
==================================================================================================
input_2 (InputLayer)            (None, 83, 24)       0                                            
__________________________________________________________________________________________________
embedding_2 (Embedding)         (None, 24, 64)       11648       input_2[0][0]                    
__________________________________________________________________________________________________
dropout_2 (Dropout)             (None, 24, 64)       0           embedding_2[0][0]                
__________________________________________________________________________________________________
input_1 (InputLayer)            (None, 83)           0                                            
__________________________________________________________________________________________________
lambda_1 (Lambda)               (None, 24, 64)       0           dropout_2[0][0]                  
__________________________________________________________________________________________________
embedding_1 (Embedding)         (None, 83, 64)       6650752     input_1[0][0]                    
__________________________________________________________________________________________________
bidirectional_1 (Bidirectional) (None, 128)          49536       lambda_1[0][0]                   
__________________________________________________________________________________________________
dropout_1 (Dropout)             (None, 83, 64)       0           embedding_1[0][0]                
__________________________________________________________________________________________________
lambda_2 (Lambda)               (None, 83, 128)      0           bidirectional_1[0][0]            
__________________________________________________________________________________________________
concatenate_1 (Concatenate)     (None, 83, 192)      0           dropout_1[0][0]                  
                                                                 lambda_2[0][0]                   
__________________________________________________________________________________________________
bidirectional_2 (Bidirectional) (None, 83, 384)      443520      concatenate_1[0][0]              
__________________________________________________________________________________________________
crf_1 (CRF)                     (None, 83, 10)       3970        bidirectional_2[0][0]            
==================================================================================================
Total params: 7,159,426
Trainable params: 7,159,426
Non-trainable params: 0
__________________________________________________________________________________________________
Loading layer 0
Loading layer 1
Loading layer 2
Loading layer 3
Loading layer 4
Loading layer 5
…
Padding...
Data padded!
Padding...
Data padded!
Padded until 57 tokens.
Mapping...
Data mapped!
Mapping...
Data mapped!
Padding...
Data padded!
Padding...
Data padded!
Padded until 24 chars.
Padded until 57 tokens.
Padded until 24 chars.
Padded until 57 tokens.
Model Choice:
__________________________________________________________________________________________________
Layer (type)                    Output Shape         Param #     Connected to                     
==================================================================================================
input_2 (InputLayer)            (None, 57, 24)       0                                            
__________________________________________________________________________________________________
embedding_2 (Embedding)         (None, 24, 64)       11648       input_2[0][0]                    
__________________________________________________________________________________________________
dropout_2 (Dropout)             (None, 24, 64)       0           embedding_2[0][0]                
__________________________________________________________________________________________________
input_1 (InputLayer)            (None, 57)           0                                            
__________________________________________________________________________________________________
lambda_1 (Lambda)               (None, 24, 64)       0           dropout_2[0][0]                  
__________________________________________________________________________________________________
embedding_1 (Embedding)         (None, 57, 64)       6649600     input_1[0][0]                    
__________________________________________________________________________________________________
bidirectional_1 (Bidirectional) (None, 128)          49536       lambda_1[0][0]                   
__________________________________________________________________________________________________
dropout_1 (Dropout)             (None, 57, 64)       0           embedding_1[0][0]                
__________________________________________________________________________________________________
lambda_2 (Lambda)               (None, 57, 128)      0           bidirectional_1[0][0]            
__________________________________________________________________________________________________
concatenate_1 (Concatenate)     (None, 57, 192)      0           dropout_1[0][0]                  
                                                                 lambda_2[0][0]                   
__________________________________________________________________________________________________
bidirectional_2 (Bidirectional) (None, 57, 384)      443520      concatenate_1[0][0]              
__________________________________________________________________________________________________
crf_1 (CRF)                     (None, 57, 10)       3970        bidirectional_2[0][0]            
==================================================================================================
Total params: 7,158,274
Trainable params: 7,158,274
Non-trainable params: 0
__________________________________________________________________________________________________
Loading layer 0
Loading layer 1
Loading layer 2
Loading layer 3
Loading layer 4
Loading layer 5
…
Padding...
Data padded!
Padding...
Data padded!
Padded until 67 tokens.
Mapping...
Data mapped!
Mapping...
Data mapped!
Padding...
Data padded!
Padding...
Data padded!
Padded until 24 chars.
Padded until 67 tokens.
Padded until 24 chars.
Padded until 67 tokens.
Model Choice:
__________________________________________________________________________________________________
Layer (type)                    Output Shape         Param #     Connected to                     
==================================================================================================
input_2 (InputLayer)            (None, 67, 24)       0                                            
__________________________________________________________________________________________________
embedding_2 (Embedding)         (None, 24, 64)       11648       input_2[0][0]                    
__________________________________________________________________________________________________
dropout_2 (Dropout)             (None, 24, 64)       0           embedding_2[0][0]                
__________________________________________________________________________________________________
input_1 (InputLayer)            (None, 67)           0                                            
__________________________________________________________________________________________________
lambda_1 (Lambda)               (None, 24, 64)       0           dropout_2[0][0]                  
__________________________________________________________________________________________________
embedding_1 (Embedding)         (None, 67, 64)       6650112     input_1[0][0]                    
__________________________________________________________________________________________________
bidirectional_1 (Bidirectional) (None, 128)          49536       lambda_1[0][0]                   
__________________________________________________________________________________________________
dropout_1 (Dropout)             (None, 67, 64)       0           embedding_1[0][0]                
__________________________________________________________________________________________________
lambda_2 (Lambda)               (None, 67, 128)      0           bidirectional_1[0][0]            
__________________________________________________________________________________________________
concatenate_1 (Concatenate)     (None, 67, 192)      0           dropout_1[0][0]                  
                                                                 lambda_2[0][0]                   
__________________________________________________________________________________________________
bidirectional_2 (Bidirectional) (None, 67, 384)      443520      concatenate_1[0][0]              
__________________________________________________________________________________________________
crf_1 (CRF)                     (None, 67, 10)       3970        bidirectional_2[0][0]            
==================================================================================================
Total params: 7,158,786
Trainable params: 7,158,786
Non-trainable params: 0
__________________________________________________________________________________________________
Loading layer 0
Loading layer 1
Loading layer 2
Loading layer 3
Loading layer 4
Loading layer 5
…
Padding...
Data padded!
Padding...
Data padded!
Padded until 57 tokens.
Mapping...
Data mapped!
Mapping...
Data mapped!
Padding...
Data padded!
Padding...
Data padded!
Padded until 24 chars.
Padded until 57 tokens.
Padded until 24 chars.
Padded until 57 tokens.
Model Choice:
__________________________________________________________________________________________________
Layer (type)                    Output Shape         Param #     Connected to                     
==================================================================================================
input_2 (InputLayer)            (None, 57, 24)       0                                            
__________________________________________________________________________________________________
embedding_2 (Embedding)         (None, 24, 64)       11648       input_2[0][0]                    
__________________________________________________________________________________________________
dropout_2 (Dropout)             (None, 24, 64)       0           embedding_2[0][0]                
__________________________________________________________________________________________________
input_1 (InputLayer)            (None, 57)           0                                            
__________________________________________________________________________________________________
lambda_1 (Lambda)               (None, 24, 64)       0           dropout_2[0][0]                  
__________________________________________________________________________________________________
embedding_1 (Embedding)         (None, 57, 64)       6650816     input_1[0][0]                    
__________________________________________________________________________________________________
bidirectional_1 (Bidirectional) (None, 128)          49536       lambda_1[0][0]                   
__________________________________________________________________________________________________
dropout_1 (Dropout)             (None, 57, 64)       0           embedding_1[0][0]                
__________________________________________________________________________________________________
lambda_2 (Lambda)               (None, 57, 128)      0           bidirectional_1[0][0]            
__________________________________________________________________________________________________
concatenate_1 (Concatenate)     (None, 57, 192)      0           dropout_1[0][0]                  
                                                                 lambda_2[0][0]                   
__________________________________________________________________________________________________
bidirectional_2 (Bidirectional) (None, 57, 384)      443520      concatenate_1[0][0]              
__________________________________________________________________________________________________
crf_1 (CRF)                     (None, 57, 10)       3970        bidirectional_2[0][0]            
==================================================================================================
Total params: 7,159,490
Trainable params: 7,159,490
Non-trainable params: 0
__________________________________________________________________________________________________
Loading layer 0
Loading layer 1
Loading layer 2
Loading layer 3
Loading layer 4
Loading layer 5
…
Padding...
Data padded!
Padding...
Data padded!
Padded until 57 tokens.
Mapping...
Data mapped!
Mapping...
Data mapped!
Padding...
Data padded!
Padding...
Data padded!
Padded until 24 chars.
Padded until 57 tokens.
Padded until 24 chars.
Padded until 57 tokens.
Model Choice:
__________________________________________________________________________________________________
Layer (type)                    Output Shape         Param #     Connected to                     
==================================================================================================
input_2 (InputLayer)            (None, 57, 24)       0                                            
__________________________________________________________________________________________________
embedding_2 (Embedding)         (None, 24, 64)       11648       input_2[0][0]                    
__________________________________________________________________________________________________
dropout_2 (Dropout)             (None, 24, 64)       0           embedding_2[0][0]                
__________________________________________________________________________________________________
input_1 (InputLayer)            (None, 57)           0                                            
__________________________________________________________________________________________________
lambda_1 (Lambda)               (None, 24, 64)       0           dropout_2[0][0]                  
__________________________________________________________________________________________________
embedding_1 (Embedding)         (None, 57, 64)       6639360     input_1[0][0]                    
__________________________________________________________________________________________________
bidirectional_1 (Bidirectional) (None, 128)          49536       lambda_1[0][0]                   
__________________________________________________________________________________________________
dropout_1 (Dropout)             (None, 57, 64)       0           embedding_1[0][0]                
__________________________________________________________________________________________________
lambda_2 (Lambda)               (None, 57, 128)      0           bidirectional_1[0][0]            
__________________________________________________________________________________________________
concatenate_1 (Concatenate)     (None, 57, 192)      0           dropout_1[0][0]                  
                                                                 lambda_2[0][0]                   
__________________________________________________________________________________________________
bidirectional_2 (Bidirectional) (None, 57, 384)      443520      concatenate_1[0][0]              
__________________________________________________________________________________________________
crf_1 (CRF)                     (None, 57, 10)       3970        bidirectional_2[0][0]            
==================================================================================================
Total params: 7,148,034
Trainable params: 7,148,034
Non-trainable params: 0
__________________________________________________________________________________________________
Loading layer 0
Loading layer 1
Loading layer 2
Loading layer 3
Loading layer 4
Loading layer 5
…
Padding...
Data padded!
Padding...
Data padded!
Padded until 57 tokens.
Mapping...
Data mapped!
Mapping...
Data mapped!
Padding...
Data padded!
Padding...
Data padded!
Padded until 24 chars.
Padded until 57 tokens.
Padded until 24 chars.
Padded until 57 tokens.
Model Choice:
__________________________________________________________________________________________________
Layer (type)                    Output Shape         Param #     Connected to                     
==================================================================================================
input_2 (InputLayer)            (None, 57, 24)       0                                            
__________________________________________________________________________________________________
embedding_2 (Embedding)         (None, 24, 64)       11648       input_2[0][0]                    
__________________________________________________________________________________________________
dropout_2 (Dropout)             (None, 24, 64)       0           embedding_2[0][0]                
__________________________________________________________________________________________________
input_1 (InputLayer)            (None, 57)           0                                            
__________________________________________________________________________________________________
lambda_1 (Lambda)               (None, 24, 64)       0           dropout_2[0][0]                  
__________________________________________________________________________________________________
embedding_1 (Embedding)         (None, 57, 64)       6641472     input_1[0][0]                    
__________________________________________________________________________________________________
bidirectional_1 (Bidirectional) (None, 128)          49536       lambda_1[0][0]                   
__________________________________________________________________________________________________
dropout_1 (Dropout)             (None, 57, 64)       0           embedding_1[0][0]                
__________________________________________________________________________________________________
lambda_2 (Lambda)               (None, 57, 128)      0           bidirectional_1[0][0]            
__________________________________________________________________________________________________
concatenate_1 (Concatenate)     (None, 57, 192)      0           dropout_1[0][0]                  
                                                                 lambda_2[0][0]                   
__________________________________________________________________________________________________
bidirectional_2 (Bidirectional) (None, 57, 384)      443520      concatenate_1[0][0]              
__________________________________________________________________________________________________
crf_1 (CRF)                     (None, 57, 10)       3970        bidirectional_2[0][0]            
==================================================================================================
Total params: 7,150,146
Trainable params: 7,150,146
Non-trainable params: 0
__________________________________________________________________________________________________
Loading layer 0
Loading layer 1
Loading layer 2
Loading layer 3
Loading layer 4
Loading layer 5
…
Padding...
Data padded!
Padding...
Data padded!
Padded until 66 tokens.
Mapping...
Data mapped!
Mapping...
Data mapped!
Padding...
Data padded!
Padding...
Data padded!
Padded until 24 chars.
Padded until 66 tokens.
Padded until 24 chars.
Padded until 66 tokens.
Model Choice:
__________________________________________________________________________________________________
Layer (type)                    Output Shape         Param #     Connected to                     
==================================================================================================
input_2 (InputLayer)            (None, 66, 24)       0                                            
__________________________________________________________________________________________________
embedding_2 (Embedding)         (None, 24, 64)       11648       input_2[0][0]                    
__________________________________________________________________________________________________
dropout_2 (Dropout)             (None, 24, 64)       0           embedding_2[0][0]                
__________________________________________________________________________________________________
input_1 (InputLayer)            (None, 66)           0                                            
__________________________________________________________________________________________________
lambda_1 (Lambda)               (None, 24, 64)       0           dropout_2[0][0]                  
__________________________________________________________________________________________________
embedding_1 (Embedding)         (None, 66, 64)       6639232     input_1[0][0]                    
__________________________________________________________________________________________________
bidirectional_1 (Bidirectional) (None, 128)          49536       lambda_1[0][0]                   
__________________________________________________________________________________________________
dropout_1 (Dropout)             (None, 66, 64)       0           embedding_1[0][0]                
__________________________________________________________________________________________________
lambda_2 (Lambda)               (None, 66, 128)      0           bidirectional_1[0][0]            
__________________________________________________________________________________________________
concatenate_1 (Concatenate)     (None, 66, 192)      0           dropout_1[0][0]                  
                                                                 lambda_2[0][0]                   
__________________________________________________________________________________________________
bidirectional_2 (Bidirectional) (None, 66, 384)      443520      concatenate_1[0][0]              
__________________________________________________________________________________________________
crf_1 (CRF)                     (None, 66, 10)       3970        bidirectional_2[0][0]            
==================================================================================================
Total params: 7,147,906
Trainable params: 7,147,906
Non-trainable params: 0
__________________________________________________________________________________________________
Loading layer 0
Loading layer 1
Loading layer 2
Loading layer 3
Loading layer 4
Loading layer 5
…
Padding...
Data padded!
Padding...
Data padded!
Padded until 57 tokens.
Mapping...
Data mapped!
Mapping...
Data mapped!
Padding...
Data padded!
Padding...
Data padded!
Padded until 24 chars.
Padded until 57 tokens.
Padded until 24 chars.
Padded until 57 tokens.
Model Choice:
__________________________________________________________________________________________________
Layer (type)                    Output Shape         Param #     Connected to                     
==================================================================================================
input_2 (InputLayer)            (None, 57, 24)       0                                            
__________________________________________________________________________________________________
embedding_2 (Embedding)         (None, 24, 64)       11648       input_2[0][0]                    
__________________________________________________________________________________________________
dropout_2 (Dropout)             (None, 24, 64)       0           embedding_2[0][0]                
__________________________________________________________________________________________________
input_1 (InputLayer)            (None, 57)           0                                            
__________________________________________________________________________________________________
lambda_1 (Lambda)               (None, 24, 64)       0           dropout_2[0][0]                  
__________________________________________________________________________________________________
embedding_1 (Embedding)         (None, 57, 64)       6639232     input_1[0][0]                    
__________________________________________________________________________________________________
bidirectional_1 (Bidirectional) (None, 128)          49536       lambda_1[0][0]                   
__________________________________________________________________________________________________
dropout_1 (Dropout)             (None, 57, 64)       0           embedding_1[0][0]                
__________________________________________________________________________________________________
lambda_2 (Lambda)               (None, 57, 128)      0           bidirectional_1[0][0]            
__________________________________________________________________________________________________
concatenate_1 (Concatenate)     (None, 57, 192)      0           dropout_1[0][0]                  
                                                                 lambda_2[0][0]                   
__________________________________________________________________________________________________
bidirectional_2 (Bidirectional) (None, 57, 384)      443520      concatenate_1[0][0]              
__________________________________________________________________________________________________
crf_1 (CRF)                     (None, 57, 10)       3970        bidirectional_2[0][0]            
==================================================================================================
Total params: 7,147,906
Trainable params: 7,147,906
Non-trainable params: 0
__________________________________________________________________________________________________
Loading layer 0
Loading layer 1
Loading layer 2
Loading layer 3
Loading layer 4
Loading layer 5
…
Padding...
Data padded!
Padding...
Data padded!
Padded until 63 tokens.
Mapping...
Data mapped!
Mapping...
Data mapped!
Padding...
Data padded!
Padding...
Data padded!
Padded until 24 chars.
Padded until 63 tokens.
Padded until 24 chars.
Padded until 63 tokens.
Model Choice:
__________________________________________________________________________________________________
Layer (type)                    Output Shape         Param #     Connected to                     
==================================================================================================
input_2 (InputLayer)            (None, 63, 24)       0                                            
__________________________________________________________________________________________________
embedding_2 (Embedding)         (None, 24, 64)       11648       input_2[0][0]                    
__________________________________________________________________________________________________
dropout_2 (Dropout)             (None, 24, 64)       0           embedding_2[0][0]                
__________________________________________________________________________________________________
input_1 (InputLayer)            (None, 63)           0                                            
__________________________________________________________________________________________________
lambda_1 (Lambda)               (None, 24, 64)       0           dropout_2[0][0]                  
__________________________________________________________________________________________________
embedding_1 (Embedding)         (None, 63, 64)       6640512     input_1[0][0]                    
__________________________________________________________________________________________________
bidirectional_1 (Bidirectional) (None, 128)          49536       lambda_1[0][0]                   
__________________________________________________________________________________________________
dropout_1 (Dropout)             (None, 63, 64)       0           embedding_1[0][0]                
__________________________________________________________________________________________________
lambda_2 (Lambda)               (None, 63, 128)      0           bidirectional_1[0][0]            
__________________________________________________________________________________________________
concatenate_1 (Concatenate)     (None, 63, 192)      0           dropout_1[0][0]                  
                                                                 lambda_2[0][0]                   
__________________________________________________________________________________________________
bidirectional_2 (Bidirectional) (None, 63, 384)      443520      concatenate_1[0][0]              
__________________________________________________________________________________________________
crf_1 (CRF)                     (None, 63, 10)       3970        bidirectional_2[0][0]            
==================================================================================================
Total params: 7,149,186
Trainable params: 7,149,186
Non-trainable params: 0
__________________________________________________________________________________________________
Loading layer 0
Loading layer 1
Loading layer 2
Loading layer 3
Loading layer 4
Loading layer 5
…
Padding...
Data padded!
Padding...
Data padded!
Padded until 57 tokens.
Mapping...
Data mapped!
Mapping...
Data mapped!
Padding...
Data padded!
Padding...
Data padded!
Padded until 24 chars.
Padded until 57 tokens.
Padded until 24 chars.
Padded until 57 tokens.
Model Choice:
__________________________________________________________________________________________________
Layer (type)                    Output Shape         Param #     Connected to                     
==================================================================================================
input_2 (InputLayer)            (None, 57, 24)       0                                            
__________________________________________________________________________________________________
embedding_2 (Embedding)         (None, 24, 64)       11648       input_2[0][0]                    
__________________________________________________________________________________________________
dropout_2 (Dropout)             (None, 24, 64)       0           embedding_2[0][0]                
__________________________________________________________________________________________________
input_1 (InputLayer)            (None, 57)           0                                            
__________________________________________________________________________________________________
lambda_1 (Lambda)               (None, 24, 64)       0           dropout_2[0][0]                  
__________________________________________________________________________________________________
embedding_1 (Embedding)         (None, 57, 64)       6638400     input_1[0][0]                    
__________________________________________________________________________________________________
bidirectional_1 (Bidirectional) (None, 128)          49536       lambda_1[0][0]                   
__________________________________________________________________________________________________
dropout_1 (Dropout)             (None, 57, 64)       0           embedding_1[0][0]                
__________________________________________________________________________________________________
lambda_2 (Lambda)               (None, 57, 128)      0           bidirectional_1[0][0]            
__________________________________________________________________________________________________
concatenate_1 (Concatenate)     (None, 57, 192)      0           dropout_1[0][0]                  
                                                                 lambda_2[0][0]                   
__________________________________________________________________________________________________
bidirectional_2 (Bidirectional) (None, 57, 384)      443520      concatenate_1[0][0]              
__________________________________________________________________________________________________
crf_1 (CRF)                     (None, 57, 10)       3970        bidirectional_2[0][0]            
==================================================================================================
Total params: 7,147,074
Trainable params: 7,147,074
Non-trainable params: 0
__________________________________________________________________________________________________
Loading layer 0
Loading layer 1
Loading layer 2
Loading layer 3
Loading layer 4
Loading layer 5
…
Padding...
Data padded!
Padding...
Data padded!
Padded until 57 tokens.
Mapping...
Data mapped!
Mapping...
Data mapped!
Padding...
Data padded!
Padding...
Data padded!
Padded until 24 chars.
Padded until 57 tokens.
Padded until 24 chars.
Padded until 57 tokens.
Model Choice:
__________________________________________________________________________________________________
Layer (type)                    Output Shape         Param #     Connected to                     
==================================================================================================
input_2 (InputLayer)            (None, 57, 24)       0                                            
__________________________________________________________________________________________________
embedding_2 (Embedding)         (None, 24, 64)       11648       input_2[0][0]                    
__________________________________________________________________________________________________
dropout_2 (Dropout)             (None, 24, 64)       0           embedding_2[0][0]                
__________________________________________________________________________________________________
input_1 (InputLayer)            (None, 57)           0                                            
__________________________________________________________________________________________________
lambda_1 (Lambda)               (None, 24, 64)       0           dropout_2[0][0]                  
__________________________________________________________________________________________________
embedding_1 (Embedding)         (None, 57, 64)       6640512     input_1[0][0]                    
__________________________________________________________________________________________________
bidirectional_1 (Bidirectional) (None, 128)          49536       lambda_1[0][0]                   
__________________________________________________________________________________________________
dropout_1 (Dropout)             (None, 57, 64)       0           embedding_1[0][0]                
__________________________________________________________________________________________________
lambda_2 (Lambda)               (None, 57, 128)      0           bidirectional_1[0][0]            
__________________________________________________________________________________________________
concatenate_1 (Concatenate)     (None, 57, 192)      0           dropout_1[0][0]                  
                                                                 lambda_2[0][0]                   
__________________________________________________________________________________________________
bidirectional_2 (Bidirectional) (None, 57, 384)      443520      concatenate_1[0][0]              
__________________________________________________________________________________________________
crf_1 (CRF)                     (None, 57, 10)       3970        bidirectional_2[0][0]            
==================================================================================================
Total params: 7,149,186
Trainable params: 7,149,186
Non-trainable params: 0
__________________________________________________________________________________________________
Loading layer 0
Loading layer 1
Loading layer 2
Loading layer 3
Loading layer 4
Loading layer 5
…
Padding...
Data padded!
Padding...
Data padded!
Padded until 58 tokens.
Mapping...
Data mapped!
Mapping...
Data mapped!
Padding...
Data padded!
Padding...
Data padded!
Padded until 24 chars.
Padded until 58 tokens.
Padded until 24 chars.
Padded until 58 tokens.
Model Choice:
__________________________________________________________________________________________________
Layer (type)                    Output Shape         Param #     Connected to                     
==================================================================================================
input_2 (InputLayer)            (None, 58, 24)       0                                            
__________________________________________________________________________________________________
embedding_2 (Embedding)         (None, 24, 64)       11648       input_2[0][0]                    
__________________________________________________________________________________________________
dropout_2 (Dropout)             (None, 24, 64)       0           embedding_2[0][0]                
__________________________________________________________________________________________________
input_1 (InputLayer)            (None, 58)           0                                            
__________________________________________________________________________________________________
lambda_1 (Lambda)               (None, 24, 64)       0           dropout_2[0][0]                  
__________________________________________________________________________________________________
embedding_1 (Embedding)         (None, 58, 64)       6641024     input_1[0][0]                    
__________________________________________________________________________________________________
bidirectional_1 (Bidirectional) (None, 128)          49536       lambda_1[0][0]                   
__________________________________________________________________________________________________
dropout_1 (Dropout)             (None, 58, 64)       0           embedding_1[0][0]                
__________________________________________________________________________________________________
lambda_2 (Lambda)               (None, 58, 128)      0           bidirectional_1[0][0]            
__________________________________________________________________________________________________
concatenate_1 (Concatenate)     (None, 58, 192)      0           dropout_1[0][0]                  
                                                                 lambda_2[0][0]                   
__________________________________________________________________________________________________
bidirectional_2 (Bidirectional) (None, 58, 384)      443520      concatenate_1[0][0]              
__________________________________________________________________________________________________
crf_1 (CRF)                     (None, 58, 10)       3970        bidirectional_2[0][0]            
==================================================================================================
Total params: 7,149,698
Trainable params: 7,149,698
Non-trainable params: 0
__________________________________________________________________________________________________
Loading layer 0
Loading layer 1
Loading layer 2
Loading layer 3
Loading layer 4
Loading layer 5
…
Padding...
Data padded!
Padding...
Data padded!
Padded until 57 tokens.
Mapping...
Data mapped!
Mapping...
Data mapped!
Padding...
Data padded!
Padding...
Data padded!
Padded until 24 chars.
Padded until 57 tokens.
Padded until 24 chars.
Padded until 57 tokens.
Model Choice:
__________________________________________________________________________________________________
Layer (type)                    Output Shape         Param #     Connected to                     
==================================================================================================
input_2 (InputLayer)            (None, 57, 24)       0                                            
__________________________________________________________________________________________________
embedding_2 (Embedding)         (None, 24, 64)       11648       input_2[0][0]                    
__________________________________________________________________________________________________
dropout_2 (Dropout)             (None, 24, 64)       0           embedding_2[0][0]                
__________________________________________________________________________________________________
input_1 (InputLayer)            (None, 57)           0                                            
__________________________________________________________________________________________________
lambda_1 (Lambda)               (None, 24, 64)       0           dropout_2[0][0]                  
__________________________________________________________________________________________________
embedding_1 (Embedding)         (None, 57, 64)       6641024     input_1[0][0]                    
__________________________________________________________________________________________________
bidirectional_1 (Bidirectional) (None, 128)          49536       lambda_1[0][0]                   
__________________________________________________________________________________________________
dropout_1 (Dropout)             (None, 57, 64)       0           embedding_1[0][0]                
__________________________________________________________________________________________________
lambda_2 (Lambda)               (None, 57, 128)      0           bidirectional_1[0][0]            
__________________________________________________________________________________________________
concatenate_1 (Concatenate)     (None, 57, 192)      0           dropout_1[0][0]                  
                                                                 lambda_2[0][0]                   
__________________________________________________________________________________________________
bidirectional_2 (Bidirectional) (None, 57, 384)      443520      concatenate_1[0][0]              
__________________________________________________________________________________________________
crf_1 (CRF)                     (None, 57, 10)       3970        bidirectional_2[0][0]            
==================================================================================================
Total params: 7,149,698
Trainable params: 7,149,698
Non-trainable params: 0
__________________________________________________________________________________________________
Loading layer 0
Loading layer 1
Loading layer 2
Loading layer 3
Loading layer 4
Loading layer 5
…
Padding...
Data padded!
Padding...
Data padded!
Padded until 66 tokens.
Mapping...
Data mapped!
Mapping...
Data mapped!
Padding...
Data padded!
Padding...
Data padded!
Padded until 24 chars.
Padded until 66 tokens.
Padded until 24 chars.
Padded until 66 tokens.
Model Choice:
__________________________________________________________________________________________________
Layer (type)                    Output Shape         Param #     Connected to                     
==================================================================================================
input_2 (InputLayer)            (None, 66, 24)       0                                            
__________________________________________________________________________________________________
embedding_2 (Embedding)         (None, 24, 64)       11648       input_2[0][0]                    
__________________________________________________________________________________________________
dropout_2 (Dropout)             (None, 24, 64)       0           embedding_2[0][0]                
__________________________________________________________________________________________________
input_1 (InputLayer)            (None, 66)           0                                            
__________________________________________________________________________________________________
lambda_1 (Lambda)               (None, 24, 64)       0           dropout_2[0][0]                  
__________________________________________________________________________________________________
embedding_1 (Embedding)         (None, 66, 64)       6640640     input_1[0][0]                    
__________________________________________________________________________________________________
bidirectional_1 (Bidirectional) (None, 128)          49536       lambda_1[0][0]                   
__________________________________________________________________________________________________
dropout_1 (Dropout)             (None, 66, 64)       0           embedding_1[0][0]                
__________________________________________________________________________________________________
lambda_2 (Lambda)               (None, 66, 128)      0           bidirectional_1[0][0]            
__________________________________________________________________________________________________
concatenate_1 (Concatenate)     (None, 66, 192)      0           dropout_1[0][0]                  
                                                                 lambda_2[0][0]                   
__________________________________________________________________________________________________
bidirectional_2 (Bidirectional) (None, 66, 384)      443520      concatenate_1[0][0]              
__________________________________________________________________________________________________
crf_1 (CRF)                     (None, 66, 10)       3970        bidirectional_2[0][0]            
==================================================================================================
Total params: 7,149,314
Trainable params: 7,149,314
Non-trainable params: 0
__________________________________________________________________________________________________
Loading layer 0
Loading layer 1
Loading layer 2
Loading layer 3
Loading layer 4
Loading layer 5
…
Padding...
Data padded!
Padding...
Data padded!
Padded until 58 tokens.
Mapping...
Data mapped!
Mapping...
Data mapped!
Padding...
Data padded!
Padding...
Data padded!
Padded until 24 chars.
Padded until 58 tokens.
Padded until 24 chars.
Padded until 58 tokens.
Model Choice:
__________________________________________________________________________________________________
Layer (type)                    Output Shape         Param #     Connected to                     
==================================================================================================
input_2 (InputLayer)            (None, 58, 24)       0                                            
__________________________________________________________________________________________________
embedding_2 (Embedding)         (None, 24, 64)       11648       input_2[0][0]                    
__________________________________________________________________________________________________
dropout_2 (Dropout)             (None, 24, 64)       0           embedding_2[0][0]                
__________________________________________________________________________________________________
input_1 (InputLayer)            (None, 58)           0                                            
__________________________________________________________________________________________________
lambda_1 (Lambda)               (None, 24, 64)       0           dropout_2[0][0]                  
__________________________________________________________________________________________________
embedding_1 (Embedding)         (None, 58, 64)       6640704     input_1[0][0]                    
__________________________________________________________________________________________________
bidirectional_1 (Bidirectional) (None, 128)          49536       lambda_1[0][0]                   
__________________________________________________________________________________________________
dropout_1 (Dropout)             (None, 58, 64)       0           embedding_1[0][0]                
__________________________________________________________________________________________________
lambda_2 (Lambda)               (None, 58, 128)      0           bidirectional_1[0][0]            
__________________________________________________________________________________________________
concatenate_1 (Concatenate)     (None, 58, 192)      0           dropout_1[0][0]                  
                                                                 lambda_2[0][0]                   
__________________________________________________________________________________________________
bidirectional_2 (Bidirectional) (None, 58, 384)      443520      concatenate_1[0][0]              
__________________________________________________________________________________________________
crf_1 (CRF)                     (None, 58, 10)       3970        bidirectional_2[0][0]            
==================================================================================================
Total params: 7,149,378
Trainable params: 7,149,378
Non-trainable params: 0
__________________________________________________________________________________________________
Loading layer 0
Loading layer 1
Loading layer 2
Loading layer 3
Loading layer 4
Loading layer 5
…
Padding...
Data padded!
Padding...
Data padded!
Padded until 66 tokens.
Mapping...
Data mapped!
Mapping...
Data mapped!
Padding...
Data padded!
Padding...
Data padded!
Padded until 24 chars.
Padded until 66 tokens.
Padded until 24 chars.
Padded until 66 tokens.
Model Choice:
__________________________________________________________________________________________________
Layer (type)                    Output Shape         Param #     Connected to                     
==================================================================================================
input_2 (InputLayer)            (None, 66, 24)       0                                            
__________________________________________________________________________________________________
embedding_2 (Embedding)         (None, 24, 64)       11648       input_2[0][0]                    
__________________________________________________________________________________________________
dropout_2 (Dropout)             (None, 24, 64)       0           embedding_2[0][0]                
__________________________________________________________________________________________________
input_1 (InputLayer)            (None, 66)           0                                            
__________________________________________________________________________________________________
lambda_1 (Lambda)               (None, 24, 64)       0           dropout_2[0][0]                  
__________________________________________________________________________________________________
embedding_1 (Embedding)         (None, 66, 64)       6640896     input_1[0][0]                    
__________________________________________________________________________________________________
bidirectional_1 (Bidirectional) (None, 128)          49536       lambda_1[0][0]                   
__________________________________________________________________________________________________
dropout_1 (Dropout)             (None, 66, 64)       0           embedding_1[0][0]                
__________________________________________________________________________________________________
lambda_2 (Lambda)               (None, 66, 128)      0           bidirectional_1[0][0]            
__________________________________________________________________________________________________
concatenate_1 (Concatenate)     (None, 66, 192)      0           dropout_1[0][0]                  
                                                                 lambda_2[0][0]                   
__________________________________________________________________________________________________
bidirectional_2 (Bidirectional) (None, 66, 384)      443520      concatenate_1[0][0]              
__________________________________________________________________________________________________
crf_1 (CRF)                     (None, 66, 10)       3970        bidirectional_2[0][0]            
==================================================================================================
Total params: 7,149,570
Trainable params: 7,149,570
Non-trainable params: 0
__________________________________________________________________________________________________
Loading layer 0
Loading layer 1
Loading layer 2
Loading layer 3
Loading layer 4
Loading layer 5
…
Padding...
Data padded!
Padding...
Data padded!
Padded until 57 tokens.
Mapping...
Data mapped!
Mapping...
Data mapped!
Padding...
Data padded!
Padding...
Data padded!
Padded until 24 chars.
Padded until 57 tokens.
Padded until 24 chars.
Padded until 57 tokens.
Model Choice:
__________________________________________________________________________________________________
Layer (type)                    Output Shape         Param #     Connected to                     
==================================================================================================
input_2 (InputLayer)            (None, 57, 24)       0                                            
__________________________________________________________________________________________________
embedding_2 (Embedding)         (None, 24, 64)       11648       input_2[0][0]                    
__________________________________________________________________________________________________
dropout_2 (Dropout)             (None, 24, 64)       0           embedding_2[0][0]                
__________________________________________________________________________________________________
input_1 (InputLayer)            (None, 57)           0                                            
__________________________________________________________________________________________________
lambda_1 (Lambda)               (None, 24, 64)       0           dropout_2[0][0]                  
__________________________________________________________________________________________________
embedding_1 (Embedding)         (None, 57, 64)       6640448     input_1[0][0]                    
__________________________________________________________________________________________________
bidirectional_1 (Bidirectional) (None, 128)          49536       lambda_1[0][0]                   
__________________________________________________________________________________________________
dropout_1 (Dropout)             (None, 57, 64)       0           embedding_1[0][0]                
__________________________________________________________________________________________________
lambda_2 (Lambda)               (None, 57, 128)      0           bidirectional_1[0][0]            
__________________________________________________________________________________________________
concatenate_1 (Concatenate)     (None, 57, 192)      0           dropout_1[0][0]                  
                                                                 lambda_2[0][0]                   
__________________________________________________________________________________________________
bidirectional_2 (Bidirectional) (None, 57, 384)      443520      concatenate_1[0][0]              
__________________________________________________________________________________________________
crf_1 (CRF)                     (None, 57, 10)       3970        bidirectional_2[0][0]            
==================================================================================================
Total params: 7,149,122
Trainable params: 7,149,122
Non-trainable params: 0
__________________________________________________________________________________________________
Loading layer 0
Loading layer 1
Loading layer 2
Loading layer 3
Loading layer 4
Loading layer 5
…
Padding...
Data padded!
Padding...
Data padded!
Padded until 67 tokens.
Mapping...
Data mapped!
Mapping...
Data mapped!
Padding...
Data padded!
Padding...
Data padded!
Padded until 24 chars.
Padded until 67 tokens.
Padded until 24 chars.
Padded until 67 tokens.
Model Choice:
__________________________________________________________________________________________________
Layer (type)                    Output Shape         Param #     Connected to                     
==================================================================================================
input_2 (InputLayer)            (None, 67, 24)       0                                            
__________________________________________________________________________________________________
embedding_2 (Embedding)         (None, 24, 64)       11648       input_2[0][0]                    
__________________________________________________________________________________________________
dropout_2 (Dropout)             (None, 24, 64)       0           embedding_2[0][0]                
__________________________________________________________________________________________________
input_1 (InputLayer)            (None, 67)           0                                            
__________________________________________________________________________________________________
lambda_1 (Lambda)               (None, 24, 64)       0           dropout_2[0][0]                  
__________________________________________________________________________________________________
embedding_1 (Embedding)         (None, 67, 64)       6641280     input_1[0][0]                    
__________________________________________________________________________________________________
bidirectional_1 (Bidirectional) (None, 128)          49536       lambda_1[0][0]                   
__________________________________________________________________________________________________
dropout_1 (Dropout)             (None, 67, 64)       0           embedding_1[0][0]                
__________________________________________________________________________________________________
lambda_2 (Lambda)               (None, 67, 128)      0           bidirectional_1[0][0]            
__________________________________________________________________________________________________
concatenate_1 (Concatenate)     (None, 67, 192)      0           dropout_1[0][0]                  
                                                                 lambda_2[0][0]                   
__________________________________________________________________________________________________
bidirectional_2 (Bidirectional) (None, 67, 384)      443520      concatenate_1[0][0]              
__________________________________________________________________________________________________
crf_1 (CRF)                     (None, 67, 10)       3970        bidirectional_2[0][0]            
==================================================================================================
Total params: 7,149,954
Trainable params: 7,149,954
Non-trainable params: 0
__________________________________________________________________________________________________
Loading layer 0
Loading layer 1
Loading layer 2
Loading layer 3
Loading layer 4
Loading layer 5
…
Padding...
Data padded!
Padding...
Data padded!
Padded until 57 tokens.
Mapping...
Data mapped!
Mapping...
Data mapped!
Padding...
Data padded!
Padding...
Data padded!
Padded until 24 chars.
Padded until 57 tokens.
Padded until 24 chars.
Padded until 57 tokens.
Model Choice:
__________________________________________________________________________________________________
Layer (type)                    Output Shape         Param #     Connected to                     
==================================================================================================
input_2 (InputLayer)            (None, 57, 24)       0                                            
__________________________________________________________________________________________________
embedding_2 (Embedding)         (None, 24, 64)       11648       input_2[0][0]                    
__________________________________________________________________________________________________
dropout_2 (Dropout)             (None, 24, 64)       0           embedding_2[0][0]                
__________________________________________________________________________________________________
input_1 (InputLayer)            (None, 57)           0                                            
__________________________________________________________________________________________________
lambda_1 (Lambda)               (None, 24, 64)       0           dropout_2[0][0]                  
__________________________________________________________________________________________________
embedding_1 (Embedding)         (None, 57, 64)       6634496     input_1[0][0]                    
__________________________________________________________________________________________________
bidirectional_1 (Bidirectional) (None, 128)          49536       lambda_1[0][0]                   
__________________________________________________________________________________________________
dropout_1 (Dropout)             (None, 57, 64)       0           embedding_1[0][0]                
__________________________________________________________________________________________________
lambda_2 (Lambda)               (None, 57, 128)      0           bidirectional_1[0][0]            
__________________________________________________________________________________________________
concatenate_1 (Concatenate)     (None, 57, 192)      0           dropout_1[0][0]                  
                                                                 lambda_2[0][0]                   
__________________________________________________________________________________________________
bidirectional_2 (Bidirectional) (None, 57, 384)      443520      concatenate_1[0][0]              
__________________________________________________________________________________________________
crf_1 (CRF)                     (None, 57, 10)       3970        bidirectional_2[0][0]            
==================================================================================================
Total params: 7,143,170
Trainable params: 7,143,170
Non-trainable params: 0
__________________________________________________________________________________________________
Loading layer 0
Loading layer 1
Loading layer 2
Loading layer 3
Loading layer 4
Loading layer 5
…
Padding...
Data padded!
Padding...
Data padded!
Padded until 57 tokens.
Mapping...
Data mapped!
Mapping...
Data mapped!
Padding...
Data padded!
Padding...
Data padded!
Padded until 24 chars.
Padded until 57 tokens.
Padded until 24 chars.
Padded until 57 tokens.
Model Choice:
__________________________________________________________________________________________________
Layer (type)                    Output Shape         Param #     Connected to                     
…
__________________________________________________________________________________________________
Loading layer 0
Loading layer 1
Loading layer 2
Loading layer 3
Loading layer 4
Loading layer 5
…
Padding...
Data padded!
Padding...
Data padded!
Padded until 58 tokens.
Mapping...
Data mapped!
Mapping...
Data mapped!
Padding...
Data padded!
Padding...
Data padded!
Padded until 24 chars.
Padded until 58 tokens.
Padded until 24 chars.
Padded until 58 tokens.
Model Choice:
__________________________________________________________________________________________________
Layer (type)                    Output Shape         Param #     Connected to                     
==================================================================================================
input_2 (InputLayer)            (None, 58, 24)       0                                            
__________________________________________________________________________________________________
embedding_2 (Embedding)         (None, 24, 64)       11648       input_2[0][0]                    
__________________________________________________________________________________________________
dropout_2 (Dropout)             (None, 24, 64)       0           embedding_2[0][0]                
__________________________________________________________________________________________________
input_1 (InputLayer)            (None, 58)           0                                            
__________________________________________________________________________________________________
lambda_1 (Lambda)               (None, 24, 64)       0           dropout_2[0][0]                  
__________________________________________________________________________________________________
embedding_1 (Embedding)         (None, 58, 64)       6630976     input_1[0][0]                    
__________________________________________________________________________________________________
bidirectional_1 (Bidirectional) (None, 128)          49536       lambda_1[0][0]                   
__________________________________________________________________________________________________
dropout_1 (Dropout)             (None, 58, 64)       0           embedding_1[0][0]                
__________________________________________________________________________________________________
lambda_2 (Lambda)               (None, 58, 128)      0           bidirectional_1[0][0]            
__________________________________________________________________________________________________
concatenate_1 (Concatenate)     (None, 58, 192)      0           dropout_1[0][0]                  
                                                                 lambda_2[0][0]                   
__________________________________________________________________________________________________
bidirectional_2 (Bidirectional) (None, 58, 384)      443520      concatenate_1[0][0]              
__________________________________________________________________________________________________
crf_1 (CRF)                     (None, 58, 10)       3970        bidirectional_2[0][0]            
==================================================================================================
Total params: 7,139,650
Trainable params: 7,139,650
Non-trainable params: 0
__________________________________________________________________________________________________
Loading layer 0
Loading layer 1
Loading layer 2
Loading layer 3
Loading layer 4
Loading layer 5
…
Padding...
Data padded!
Padding...
Data padded!
Padded until 57 tokens.
Mapping...
Data mapped!
Mapping...
Data mapped!
Padding...
Data padded!
Padding...
Data padded!
Padded until 24 chars.
Padded until 57 tokens.
Padded until 24 chars.
Padded until 57 tokens.
Model Choice:
__________________________________________________________________________________________________
Layer (type)                    Output Shape         Param #     Connected to                     
==================================================================================================
input_2 (InputLayer)            (None, 57, 24)       0                                            
__________________________________________________________________________________________________
embedding_2 (Embedding)         (None, 24, 64)       11648       input_2[0][0]                    
__________________________________________________________________________________________________
dropout_2 (Dropout)             (None, 24, 64)       0           embedding_2[0][0]                
__________________________________________________________________________________________________
input_1 (InputLayer)            (None, 57)           0                                            
__________________________________________________________________________________________________
lambda_1 (Lambda)               (None, 24, 64)       0           dropout_2[0][0]                  
__________________________________________________________________________________________________
embedding_1 (Embedding)         (None, 57, 64)       6631104     input_1[0][0]                    
__________________________________________________________________________________________________
bidirectional_1 (Bidirectional) (None, 128)          49536       lambda_1[0][0]                   
__________________________________________________________________________________________________
dropout_1 (Dropout)             (None, 57, 64)       0           embedding_1[0][0]                
__________________________________________________________________________________________________
lambda_2 (Lambda)               (None, 57, 128)      0           bidirectional_1[0][0]            
__________________________________________________________________________________________________
concatenate_1 (Concatenate)     (None, 57, 192)      0           dropout_1[0][0]                  
                                                                 lambda_2[0][0]                   
__________________________________________________________________________________________________
bidirectional_2 (Bidirectional) (None, 57, 384)      443520      concatenate_1[0][0]              
__________________________________________________________________________________________________
crf_1 (CRF)                     (None, 57, 8)        3160        bidirectional_2[0][0]            
==================================================================================================
Total params: 7,138,968
Trainable params: 7,138,968
Non-trainable params: 0
__________________________________________________________________________________________________
Loading layer 0
Loading layer 1
Loading layer 2
Loading layer 3
Loading layer 4
Loading layer 5
…
Padding...
Data padded!
Padding...
Data padded!
Padded until 57 tokens.
Mapping...
Data mapped!
Mapping...
Data mapped!
Padding...
Data padded!
Padding...
Data padded!
Padded until 24 chars.
Padded until 57 tokens.
Padded until 24 chars.
Padded until 57 tokens.
Model Choice:
__________________________________________________________________________________________________
Layer (type)                    Output Shape         Param #     Connected to                     
==================================================================================================
input_2 (InputLayer)            (None, 57, 24)       0                                            
__________________________________________________________________________________________________
embedding_2 (Embedding)         (None, 24, 64)       11648       input_2[0][0]                    
__________________________________________________________________________________________________
dropout_2 (Dropout)             (None, 24, 64)       0           embedding_2[0][0]                
__________________________________________________________________________________________________
input_1 (InputLayer)            (None, 57)           0                                            
__________________________________________________________________________________________________
lambda_1 (Lambda)               (None, 24, 64)       0           dropout_2[0][0]                  
__________________________________________________________________________________________________
embedding_1 (Embedding)         (None, 57, 64)       6631104     input_1[0][0]                    
__________________________________________________________________________________________________
bidirectional_1 (Bidirectional) (None, 128)          49536       lambda_1[0][0]                   
__________________________________________________________________________________________________
dropout_1 (Dropout)             (None, 57, 64)       0           embedding_1[0][0]                
__________________________________________________________________________________________________
lambda_2 (Lambda)               (None, 57, 128)      0           bidirectional_1[0][0]            
__________________________________________________________________________________________________
concatenate_1 (Concatenate)     (None, 57, 192)      0           dropout_1[0][0]                  
                                                                 lambda_2[0][0]                   
__________________________________________________________________________________________________
bidirectional_2 (Bidirectional) (None, 57, 384)      443520      concatenate_1[0][0]              
__________________________________________________________________________________________________
crf_1 (CRF)                     (None, 57, 10)       3970        bidirectional_2[0][0]            
==================================================================================================
Total params: 7,139,778
Trainable params: 7,139,778
Non-trainable params: 0
__________________________________________________________________________________________________
Loading layer 0
Loading layer 1
Loading layer 2
Loading layer 3
Loading layer 4
Loading layer 5
…
Padding...
Data padded!
Padding...
Data padded!
Padded until 67 tokens.
Mapping...
Data mapped!
Mapping...
Data mapped!
Padding...
Data padded!
Padding...
Data padded!
Padded until 24 chars.
Padded until 67 tokens.
Padded until 24 chars.
Padded until 67 tokens.
Model Choice:
__________________________________________________________________________________________________
Layer (type)                    Output Shape         Param #     Connected to                     
==================================================================================================
input_2 (InputLayer)            (None, 67, 24)       0                                            
__________________________________________________________________________________________________
embedding_2 (Embedding)         (None, 24, 64)       11648       input_2[0][0]                    
__________________________________________________________________________________________________
dropout_2 (Dropout)             (None, 24, 64)       0           embedding_2[0][0]                
__________________________________________________________________________________________________
input_1 (InputLayer)            (None, 67)           0                                            
__________________________________________________________________________________________________
lambda_1 (Lambda)               (None, 24, 64)       0           dropout_2[0][0]                  
__________________________________________________________________________________________________
embedding_1 (Embedding)         (None, 67, 64)       6631168     input_1[0][0]                    
__________________________________________________________________________________________________
bidirectional_1 (Bidirectional) (None, 128)          49536       lambda_1[0][0]                   
__________________________________________________________________________________________________
dropout_1 (Dropout)             (None, 67, 64)       0           embedding_1[0][0]                
__________________________________________________________________________________________________
lambda_2 (Lambda)               (None, 67, 128)      0           bidirectional_1[0][0]            
__________________________________________________________________________________________________
concatenate_1 (Concatenate)     (None, 67, 192)      0           dropout_1[0][0]                  
                                                                 lambda_2[0][0]                   
__________________________________________________________________________________________________
bidirectional_2 (Bidirectional) (None, 67, 384)      443520      concatenate_1[0][0]              
__________________________________________________________________________________________________
crf_1 (CRF)                     (None, 67, 10)       3970        bidirectional_2[0][0]            
==================================================================================================
Total params: 7,139,842
Trainable params: 7,139,842
Non-trainable params: 0
__________________________________________________________________________________________________
Loading layer 0
Loading layer 1
Loading layer 2
Loading layer 3
Loading layer 4
Loading layer 5
…
Padding...
Data padded!
Padding...
Data padded!
Padded until 57 tokens.
Mapping...
Data mapped!
Mapping...
Data mapped!
Padding...
Data padded!
Padding...
Data padded!
Padded until 24 chars.
Padded until 57 tokens.
Padded until 24 chars.
Padded until 57 tokens.
Model Choice:
__________________________________________________________________________________________________
Layer (type)                    Output Shape         Param #     Connected to                     
==================================================================================================
input_2 (InputLayer)            (None, 57, 24)       0                                            
__________________________________________________________________________________________________
embedding_2 (Embedding)         (None, 24, 64)       11648       input_2[0][0]                    
__________________________________________________________________________________________________
dropout_2 (Dropout)             (None, 24, 64)       0           embedding_2[0][0]                
__________________________________________________________________________________________________
input_1 (InputLayer)            (None, 57)           0                                            
__________________________________________________________________________________________________
lambda_1 (Lambda)               (None, 24, 64)       0           dropout_2[0][0]                  
__________________________________________________________________________________________________
embedding_1 (Embedding)         (None, 57, 64)       6630720     input_1[0][0]                    
__________________________________________________________________________________________________
bidirectional_1 (Bidirectional) (None, 128)          49536       lambda_1[0][0]                   
__________________________________________________________________________________________________
dropout_1 (Dropout)             (None, 57, 64)       0           embedding_1[0][0]                
__________________________________________________________________________________________________
lambda_2 (Lambda)               (None, 57, 128)      0           bidirectional_1[0][0]            
__________________________________________________________________________________________________
concatenate_1 (Concatenate)     (None, 57, 192)      0           dropout_1[0][0]                  
                                                                 lambda_2[0][0]                   
__________________________________________________________________________________________________
bidirectional_2 (Bidirectional) (None, 57, 384)      443520      concatenate_1[0][0]              
__________________________________________________________________________________________________
crf_1 (CRF)                     (None, 57, 10)       3970        bidirectional_2[0][0]            
==================================================================================================
Total params: 7,139,394
Trainable params: 7,139,394
Non-trainable params: 0
__________________________________________________________________________________________________
Loading layer 0
Loading layer 1
Loading layer 2
Loading layer 3
Loading layer 4
Loading layer 5
…
Padding...
Data padded!
Padding...
Data padded!
Padded until 57 tokens.
Mapping...
Data mapped!
Mapping...
Data mapped!
Padding...
Data padded!
Padding...
Data padded!
Padded until 24 chars.
Padded until 57 tokens.
Padded until 24 chars.
Padded until 57 tokens.
Model Choice:
__________________________________________________________________________________________________
Layer (type)                    Output Shape         Param #     Connected to                     
==================================================================================================
input_2 (InputLayer)            (None, 57, 24)       0                                            
__________________________________________________________________________________________________
embedding_2 (Embedding)         (None, 24, 64)       11648       input_2[0][0]                    
__________________________________________________________________________________________________
dropout_2 (Dropout)             (None, 24, 64)       0           embedding_2[0][0]                
__________________________________________________________________________________________________
input_1 (InputLayer)            (None, 57)           0                                            
__________________________________________________________________________________________________
lambda_1 (Lambda)               (None, 24, 64)       0           dropout_2[0][0]                  
__________________________________________________________________________________________________
embedding_1 (Embedding)         (None, 57, 64)       6630464     input_1[0][0]                    
__________________________________________________________________________________________________
bidirectional_1 (Bidirectional) (None, 128)          49536       lambda_1[0][0]                   
__________________________________________________________________________________________________
dropout_1 (Dropout)             (None, 57, 64)       0           embedding_1[0][0]                
__________________________________________________________________________________________________
lambda_2 (Lambda)               (None, 57, 128)      0           bidirectional_1[0][0]            
__________________________________________________________________________________________________
concatenate_1 (Concatenate)     (None, 57, 192)      0           dropout_1[0][0]                  
                                                                 lambda_2[0][0]                   
__________________________________________________________________________________________________
bidirectional_2 (Bidirectional) (None, 57, 384)      443520      concatenate_1[0][0]              
__________________________________________________________________________________________________
crf_1 (CRF)                     (None, 57, 10)       3970        bidirectional_2[0][0]            
==================================================================================================
Total params: 7,139,138
Trainable params: 7,139,138
Non-trainable params: 0
__________________________________________________________________________________________________
Loading layer 0
Loading layer 1
Loading layer 2
Loading layer 3
Loading layer 4
Loading layer 5
…
Padding...
Data padded!
Padding...
Data padded!
Padded until 57 tokens.
Mapping...
Data mapped!
Mapping...
Data mapped!
Padding...
Data padded!
Padding...
Data padded!
Padded until 24 chars.
Padded until 57 tokens.
Padded until 24 chars.
Padded until 57 tokens.
Model Choice:
__________________________________________________________________________________________________
Layer (type)                    Output Shape         Param #     Connected to                     
==================================================================================================
input_2 (InputLayer)            (None, 57, 24)       0                                            
__________________________________________________________________________________________________
embedding_2 (Embedding)         (None, 24, 64)       11648       input_2[0][0]                    
__________________________________________________________________________________________________
dropout_2 (Dropout)             (None, 24, 64)       0           embedding_2[0][0]                
__________________________________________________________________________________________________
input_1 (InputLayer)            (None, 57)           0                                            
__________________________________________________________________________________________________
lambda_1 (Lambda)               (None, 24, 64)       0           dropout_2[0][0]                  
__________________________________________________________________________________________________
embedding_1 (Embedding)         (None, 57, 64)       6630400     input_1[0][0]                    
__________________________________________________________________________________________________
bidirectional_1 (Bidirectional) (None, 128)          49536       lambda_1[0][0]                   
__________________________________________________________________________________________________
dropout_1 (Dropout)             (None, 57, 64)       0           embedding_1[0][0]                
__________________________________________________________________________________________________
lambda_2 (Lambda)               (None, 57, 128)      0           bidirectional_1[0][0]            
__________________________________________________________________________________________________
concatenate_1 (Concatenate)     (None, 57, 192)      0           dropout_1[0][0]                  
                                                                 lambda_2[0][0]                   
__________________________________________________________________________________________________
bidirectional_2 (Bidirectional) (None, 57, 384)      443520      concatenate_1[0][0]              
__________________________________________________________________________________________________
crf_1 (CRF)                     (None, 57, 10)       3970        bidirectional_2[0][0]            
==================================================================================================
Total params: 7,139,074
Trainable params: 7,139,074
Non-trainable params: 0
__________________________________________________________________________________________________
Loading layer 0
Loading layer 1
Loading layer 2
Loading layer 3
Loading layer 4
Loading layer 5
…
Padding...
Data padded!
Padding...
Data padded!
Padded until 57 tokens.
Mapping...
Data mapped!
Mapping...
Data mapped!
Padding...
Data padded!
Padding...
Data padded!
Padded until 24 chars.
Padded until 57 tokens.
Padded until 24 chars.
Padded until 57 tokens.
Model Choice:
__________________________________________________________________________________________________
Layer (type)                    Output Shape         Param #     Connected to                     
==================================================================================================
input_2 (InputLayer)            (None, 57, 24)       0                                            
__________________________________________________________________________________________________
embedding_2 (Embedding)         (None, 24, 64)       11648       input_2[0][0]                    
__________________________________________________________________________________________________
dropout_2 (Dropout)             (None, 24, 64)       0           embedding_2[0][0]                
__________________________________________________________________________________________________
input_1 (InputLayer)            (None, 57)           0                                            
__________________________________________________________________________________________________
lambda_1 (Lambda)               (None, 24, 64)       0           dropout_2[0][0]                  
__________________________________________________________________________________________________
embedding_1 (Embedding)         (None, 57, 64)       6630080     input_1[0][0]                    
__________________________________________________________________________________________________
bidirectional_1 (Bidirectional) (None, 128)          49536       lambda_1[0][0]                   
__________________________________________________________________________________________________
dropout_1 (Dropout)             (None, 57, 64)       0           embedding_1[0][0]                
__________________________________________________________________________________________________
lambda_2 (Lambda)               (None, 57, 128)      0           bidirectional_1[0][0]            
__________________________________________________________________________________________________
concatenate_1 (Concatenate)     (None, 57, 192)      0           dropout_1[0][0]                  
                                                                 lambda_2[0][0]                   
__________________________________________________________________________________________________
bidirectional_2 (Bidirectional) (None, 57, 384)      443520      concatenate_1[0][0]              
__________________________________________________________________________________________________
crf_1 (CRF)                     (None, 57, 9)        3564        bidirectional_2[0][0]            
==================================================================================================
Total params: 7,138,348
Trainable params: 7,138,348
Non-trainable params: 0
__________________________________________________________________________________________________
Loading layer 0
Loading layer 1
Loading layer 2
Loading layer 3
Loading layer 4
Loading layer 5
…
Padding...
Data padded!
Padding...
Data padded!
Padded until 57 tokens.
Mapping...
Data mapped!
Mapping...
Data mapped!
Padding...
Data padded!
Padding...
Data padded!
Padded until 24 chars.
Padded until 57 tokens.
Padded until 24 chars.
Padded until 57 tokens.
Model Choice:
__________________________________________________________________________________________________
Layer (type)                    Output Shape         Param #     Connected to                     
==================================================================================================
input_2 (InputLayer)            (None, 57, 24)       0                                            
__________________________________________________________________________________________________
embedding_2 (Embedding)         (None, 24, 64)       11648       input_2[0][0]                    
__________________________________________________________________________________________________
dropout_2 (Dropout)             (None, 24, 64)       0           embedding_2[0][0]                
__________________________________________________________________________________________________
input_1 (InputLayer)            (None, 57)           0                                            
__________________________________________________________________________________________________
lambda_1 (Lambda)               (None, 24, 64)       0           dropout_2[0][0]                  
__________________________________________________________________________________________________
embedding_1 (Embedding)         (None, 57, 64)       6630016     input_1[0][0]                    
__________________________________________________________________________________________________
bidirectional_1 (Bidirectional) (None, 128)          49536       lambda_1[0][0]                   
__________________________________________________________________________________________________
dropout_1 (Dropout)             (None, 57, 64)       0           embedding_1[0][0]                
__________________________________________________________________________________________________
lambda_2 (Lambda)               (None, 57, 128)      0           bidirectional_1[0][0]            
__________________________________________________________________________________________________
concatenate_1 (Concatenate)     (None, 57, 192)      0           dropout_1[0][0]                  
                                                                 lambda_2[0][0]                   
__________________________________________________________________________________________________
bidirectional_2 (Bidirectional) (None, 57, 384)      443520      concatenate_1[0][0]              
__________________________________________________________________________________________________
crf_1 (CRF)                     (None, 57, 9)        3564        bidirectional_2[0][0]            
==================================================================================================
Total params: 7,138,284
Trainable params: 7,138,284
Non-trainable params: 0
__________________________________________________________________________________________________
Loading layer 0
Loading layer 1
Loading layer 2
Loading layer 3
Loading layer 4
Loading layer 5
…
Padding...
Data padded!
Padding...
Data padded!
Padded until 57 tokens.
Mapping...
Data mapped!
Mapping...
Data mapped!
Padding...
Data padded!
Padding...
Data padded!
Padded until 24 chars.
Padded until 57 tokens.
Padded until 24 chars.
Padded until 57 tokens.
Model Choice:
__________________________________________________________________________________________________
Layer (type)                    Output Shape         Param #     Connected to                     
==================================================================================================
input_2 (InputLayer)            (None, 57, 24)       0                                            
__________________________________________________________________________________________________
embedding_2 (Embedding)         (None, 24, 64)       11648       input_2[0][0]                    
__________________________________________________________________________________________________
dropout_2 (Dropout)             (None, 24, 64)       0           embedding_2[0][0]                
__________________________________________________________________________________________________
input_1 (InputLayer)            (None, 57)           0                                            
__________________________________________________________________________________________________
lambda_1 (Lambda)               (None, 24, 64)       0           dropout_2[0][0]                  
__________________________________________________________________________________________________
embedding_1 (Embedding)         (None, 57, 64)       6630720     input_1[0][0]                    
__________________________________________________________________________________________________
bidirectional_1 (Bidirectional) (None, 128)          49536       lambda_1[0][0]                   
__________________________________________________________________________________________________
dropout_1 (Dropout)             (None, 57, 64)       0           embedding_1[0][0]                
__________________________________________________________________________________________________
lambda_2 (Lambda)               (None, 57, 128)      0           bidirectional_1[0][0]            
__________________________________________________________________________________________________
concatenate_1 (Concatenate)     (None, 57, 192)      0           dropout_1[0][0]                  
                                                                 lambda_2[0][0]                   
__________________________________________________________________________________________________
bidirectional_2 (Bidirectional) (None, 57, 384)      443520      concatenate_1[0][0]              
__________________________________________________________________________________________________
crf_1 (CRF)                     (None, 57, 9)        3564        bidirectional_2[0][0]            
==================================================================================================
Total params: 7,138,988
Trainable params: 7,138,988
Non-trainable params: 0
__________________________________________________________________________________________________
Loading layer 0
Loading layer 1
Loading layer 2
Loading layer 3
Loading layer 4
Loading layer 5
…
Padding...
Data padded!
Padding...
Data padded!
Padded until 57 tokens.
Mapping...
Data mapped!
Mapping...
Data mapped!
Padding...
Data padded!
Padding...
Data padded!
Padded until 24 chars.
Padded until 57 tokens.
Padded until 24 chars.
Padded until 57 tokens.
Model Choice:
__________________________________________________________________________________________________
Layer (type)                    Output Shape         Param #     Connected to                     
==================================================================================================
input_2 (InputLayer)            (None, 57, 24)       0                                            
__________________________________________________________________________________________________
embedding_2 (Embedding)         (None, 24, 64)       11648       input_2[0][0]                    
__________________________________________________________________________________________________
dropout_2 (Dropout)             (None, 24, 64)       0           embedding_2[0][0]                
__________________________________________________________________________________________________
input_1 (InputLayer)            (None, 57)           0                                            
__________________________________________________________________________________________________
lambda_1 (Lambda)               (None, 24, 64)       0           dropout_2[0][0]                  
__________________________________________________________________________________________________
embedding_1 (Embedding)         (None, 57, 64)       6630144     input_1[0][0]                    
__________________________________________________________________________________________________
bidirectional_1 (Bidirectional) (None, 128)          49536       lambda_1[0][0]                   
__________________________________________________________________________________________________
dropout_1 (Dropout)             (None, 57, 64)       0           embedding_1[0][0]                
__________________________________________________________________________________________________
lambda_2 (Lambda)               (None, 57, 128)      0           bidirectional_1[0][0]            
__________________________________________________________________________________________________
concatenate_1 (Concatenate)     (None, 57, 192)      0           dropout_1[0][0]                  
                                                                 lambda_2[0][0]                   
__________________________________________________________________________________________________
bidirectional_2 (Bidirectional) (None, 57, 384)      443520      concatenate_1[0][0]              
__________________________________________________________________________________________________
crf_1 (CRF)                     (None, 57, 10)       3970        bidirectional_2[0][0]            
==================================================================================================
Total params: 7,138,818
Trainable params: 7,138,818
Non-trainable params: 0
__________________________________________________________________________________________________
Loading layer 0
Loading layer 1
Loading layer 2
Loading layer 3
Loading layer 4
Loading layer 5
…
Padding...
Data padded!
Padding...
Data padded!
Padded until 58 tokens.
Mapping...
Data mapped!
Mapping...
Data mapped!
Padding...
Data padded!
Padding...
Data padded!
Padded until 24 chars.
Padded until 58 tokens.
Padded until 24 chars.
Padded until 58 tokens.
Model Choice:
__________________________________________________________________________________________________
Layer (type)                    Output Shape         Param #     Connected to                     
==================================================================================================
input_2 (InputLayer)            (None, 58, 24)       0                                            
__________________________________________________________________________________________________
embedding_2 (Embedding)         (None, 24, 64)       11648       input_2[0][0]                    
__________________________________________________________________________________________________
dropout_2 (Dropout)             (None, 24, 64)       0           embedding_2[0][0]                
__________________________________________________________________________________________________
input_1 (InputLayer)            (None, 58)           0                                            
__________________________________________________________________________________________________
lambda_1 (Lambda)               (None, 24, 64)       0           dropout_2[0][0]                  
__________________________________________________________________________________________________
embedding_1 (Embedding)         (None, 58, 64)       6630528     input_1[0][0]                    
__________________________________________________________________________________________________
bidirectional_1 (Bidirectional) (None, 128)          49536       lambda_1[0][0]                   
__________________________________________________________________________________________________
dropout_1 (Dropout)             (None, 58, 64)       0           embedding_1[0][0]                
__________________________________________________________________________________________________
lambda_2 (Lambda)               (None, 58, 128)      0           bidirectional_1[0][0]            
__________________________________________________________________________________________________
concatenate_1 (Concatenate)     (None, 58, 192)      0           dropout_1[0][0]                  
                                                                 lambda_2[0][0]                   
__________________________________________________________________________________________________
bidirectional_2 (Bidirectional) (None, 58, 384)      443520      concatenate_1[0][0]              
__________________________________________________________________________________________________
crf_1 (CRF)                     (None, 58, 10)       3970        bidirectional_2[0][0]            
==================================================================================================
Total params: 7,139,202
Trainable params: 7,139,202
Non-trainable params: 0
__________________________________________________________________________________________________
Loading layer 0
Loading layer 1
Loading layer 2
Loading layer 3
Loading layer 4
Loading layer 5
…
Padding...
Data padded!
Padding...
Data padded!
Padded until 57 tokens.
Mapping...
Data mapped!
Mapping...
Data mapped!
Padding...
Data padded!
Padding...
Data padded!
Padded until 24 chars.
Padded until 57 tokens.
Padded until 24 chars.
Padded until 57 tokens.
Model Choice:
__________________________________________________________________________________________________
Layer (type)                    Output Shape         Param #     Connected to                     
==================================================================================================
input_2 (InputLayer)            (None, 57, 24)       0                                            
__________________________________________________________________________________________________
embedding_2 (Embedding)         (None, 24, 64)       11648       input_2[0][0]                    
__________________________________________________________________________________________________
dropout_2 (Dropout)             (None, 24, 64)       0           embedding_2[0][0]                
__________________________________________________________________________________________________
input_1 (InputLayer)            (None, 57)           0                                            
__________________________________________________________________________________________________
lambda_1 (Lambda)               (None, 24, 64)       0           dropout_2[0][0]                  
__________________________________________________________________________________________________
embedding_1 (Embedding)         (None, 57, 64)       6630208     input_1[0][0]                    
__________________________________________________________________________________________________
bidirectional_1 (Bidirectional) (None, 128)          49536       lambda_1[0][0]                   
__________________________________________________________________________________________________
dropout_1 (Dropout)             (None, 57, 64)       0           embedding_1[0][0]                
__________________________________________________________________________________________________
lambda_2 (Lambda)               (None, 57, 128)      0           bidirectional_1[0][0]            
__________________________________________________________________________________________________
concatenate_1 (Concatenate)     (None, 57, 192)      0           dropout_1[0][0]                  
                                                                 lambda_2[0][0]                   
__________________________________________________________________________________________________
bidirectional_2 (Bidirectional) (None, 57, 384)      443520      concatenate_1[0][0]              
__________________________________________________________________________________________________
crf_1 (CRF)                     (None, 57, 8)        3160        bidirectional_2[0][0]            
==================================================================================================
Total params: 7,138,072
Trainable params: 7,138,072
Non-trainable params: 0
__________________________________________________________________________________________________
Loading layer 0
Loading layer 1
Loading layer 2
Loading layer 3
Loading layer 4
Loading layer 5
…
Padding...
Data padded!
Padding...
Data padded!
Padded until 57 tokens.
Mapping...
Data mapped!
Mapping...
Data mapped!
Padding...
Data padded!
Padding...
Data padded!
Padded until 24 chars.
Padded until 57 tokens.
Padded until 24 chars.
Padded until 57 tokens.
Model Choice:
__________________________________________________________________________________________________
Layer (type)                    Output Shape         Param #     Connected to                     
==================================================================================================
input_2 (InputLayer)            (None, 57, 24)       0                                            
__________________________________________________________________________________________________
embedding_2 (Embedding)         (None, 24, 64)       11648       input_2[0][0]                    
__________________________________________________________________________________________________
dropout_2 (Dropout)             (None, 24, 64)       0           embedding_2[0][0]                
__________________________________________________________________________________________________
input_1 (InputLayer)            (None, 57)           0                                            
__________________________________________________________________________________________________
lambda_1 (Lambda)               (None, 24, 64)       0           dropout_2[0][0]                  
__________________________________________________________________________________________________
embedding_1 (Embedding)         (None, 57, 64)       6630400     input_1[0][0]                    
__________________________________________________________________________________________________
bidirectional_1 (Bidirectional) (None, 128)          49536       lambda_1[0][0]                   
__________________________________________________________________________________________________
dropout_1 (Dropout)             (None, 57, 64)       0           embedding_1[0][0]                
__________________________________________________________________________________________________
lambda_2 (Lambda)               (None, 57, 128)      0           bidirectional_1[0][0]            
__________________________________________________________________________________________________
concatenate_1 (Concatenate)     (None, 57, 192)      0           dropout_1[0][0]                  
                                                                 lambda_2[0][0]                   
__________________________________________________________________________________________________
bidirectional_2 (Bidirectional) (None, 57, 384)      443520      concatenate_1[0][0]              
__________________________________________________________________________________________________
crf_1 (CRF)                     (None, 57, 8)        3160        bidirectional_2[0][0]            
==================================================================================================
Total params: 7,138,264
Trainable params: 7,138,264
Non-trainable params: 0
__________________________________________________________________________________________________
Loading layer 0
Loading layer 1
Loading layer 2
Loading layer 3
Loading layer 4
Loading layer 5
…
Padding...
Data padded!
Padding...
Data padded!
Padded until 67 tokens.
Mapping...
Data mapped!
Mapping...
Data mapped!
Padding...
Data padded!
Padding...
Data padded!
Padded until 24 chars.
Padded until 67 tokens.
Padded until 24 chars.
Padded until 67 tokens.
Model Choice:
__________________________________________________________________________________________________
Layer (type)                    Output Shape         Param #     Connected to                     
==================================================================================================
input_2 (InputLayer)            (None, 67, 24)       0                                            
__________________________________________________________________________________________________
embedding_2 (Embedding)         (None, 24, 64)       11648       input_2[0][0]                    
__________________________________________________________________________________________________
dropout_2 (Dropout)             (None, 24, 64)       0           embedding_2[0][0]                
__________________________________________________________________________________________________
input_1 (InputLayer)            (None, 67)           0                                            
__________________________________________________________________________________________________
lambda_1 (Lambda)               (None, 24, 64)       0           dropout_2[0][0]                  
__________________________________________________________________________________________________
embedding_1 (Embedding)         (None, 67, 64)       6630400     input_1[0][0]                    
__________________________________________________________________________________________________
bidirectional_1 (Bidirectional) (None, 128)          49536       lambda_1[0][0]                   
__________________________________________________________________________________________________
dropout_1 (Dropout)             (None, 67, 64)       0           embedding_1[0][0]                
__________________________________________________________________________________________________
lambda_2 (Lambda)               (None, 67, 128)      0           bidirectional_1[0][0]            
__________________________________________________________________________________________________
concatenate_1 (Concatenate)     (None, 67, 192)      0           dropout_1[0][0]                  
                                                                 lambda_2[0][0]                   
__________________________________________________________________________________________________
bidirectional_2 (Bidirectional) (None, 67, 384)      443520      concatenate_1[0][0]              
__________________________________________________________________________________________________
crf_1 (CRF)                     (None, 67, 10)       3970        bidirectional_2[0][0]            
==================================================================================================
Total params: 7,139,074
Trainable params: 7,139,074
Non-trainable params: 0
__________________________________________________________________________________________________
Loading layer 0
Loading layer 1
Loading layer 2
Loading layer 3
Loading layer 4
Loading layer 5
…
