…
Found additional 104845 unique words.
4841 unique words not found in embedding.
97 unique chars not found in embedding.
Number of OOV: 230
OOV word occurences: 314
Padded until 83 tokens.
Padded until 24 chars.
Padded until 83 tokens.
Padded until 24 chars.
Padded until 83 tokens.
Model Choice:
__________________________________________________________________________________________________
Layer (type)                    Output Shape         Param #     Connected to                     
==================================================================================================
input_2 (InputLayer)            (None, 83, 24)       0                                            
__________________________________________________________________________________________________
embedding_2 (Embedding)         (None, 24, 64)       11648       input_2[0][0]                    
__________________________________________________________________________________________________
dropout_2 (Dropout)             (None, 24, 64)       0           embedding_2[0][0]                
__________________________________________________________________________________________________
input_1 (InputLayer)            (None, 83)           0                                            
__________________________________________________________________________________________________
lambda_1 (Lambda)               (None, 24, 64)       0           dropout_2[0][0]                  
__________________________________________________________________________________________________
embedding_1 (Embedding)         (None, 83, 64)       6710144     input_1[0][0]                    
__________________________________________________________________________________________________
bidirectional_1 (Bidirectional) (None, 128)          49536       lambda_1[0][0]                   
__________________________________________________________________________________________________
dropout_1 (Dropout)             (None, 83, 64)       0           embedding_1[0][0]                
__________________________________________________________________________________________________
lambda_2 (Lambda)               (None, 83, 128)      0           bidirectional_1[0][0]            
__________________________________________________________________________________________________
concatenate_1 (Concatenate)     (None, 83, 192)      0           dropout_1[0][0]                  
                                                                 lambda_2[0][0]                   
__________________________________________________________________________________________________
bidirectional_2 (Bidirectional) (None, 83, 384)      443520      concatenate_1[0][0]              
__________________________________________________________________________________________________
crf_1 (CRF)                     (None, 83, 10)       3970        bidirectional_2[0][0]            
==================================================================================================
Total params: 7,218,818
Trainable params: 7,218,818
Non-trainable params: 0
__________________________________________________________________________________________________
Train on 1506 samples, validate on 168 samples
Epoch 1/70

1506/1506 [==============================] - 49s 33ms/step - loss: 0.1614 - acc: 0.8253 - val_loss: 0.1356 - val_acc: 0.8840
…
Found additional 104328 unique words.
4324 unique words not found in embedding.
97 unique chars not found in embedding.
Number of OOV: 247
OOV word occurences: 371
Padded until 83 tokens.
Padded until 24 chars.
Padded until 83 tokens.
Padded until 24 chars.
Padded until 83 tokens.
Model Choice:
__________________________________________________________________________________________________
Layer (type)                    Output Shape         Param #     Connected to                     
==================================================================================================
input_2 (InputLayer)            (None, 83, 24)       0                                            
__________________________________________________________________________________________________
embedding_2 (Embedding)         (None, 24, 64)       11648       input_2[0][0]                    
__________________________________________________________________________________________________
dropout_2 (Dropout)             (None, 24, 64)       0           embedding_2[0][0]                
__________________________________________________________________________________________________
input_1 (InputLayer)            (None, 83)           0                                            
__________________________________________________________________________________________________
lambda_1 (Lambda)               (None, 24, 64)       0           dropout_2[0][0]                  
__________________________________________________________________________________________________
embedding_1 (Embedding)         (None, 83, 64)       6677056     input_1[0][0]                    
__________________________________________________________________________________________________
bidirectional_1 (Bidirectional) (None, 128)          49536       lambda_1[0][0]                   
__________________________________________________________________________________________________
dropout_1 (Dropout)             (None, 83, 64)       0           embedding_1[0][0]                
__________________________________________________________________________________________________
lambda_2 (Lambda)               (None, 83, 128)      0           bidirectional_1[0][0]            
__________________________________________________________________________________________________
concatenate_1 (Concatenate)     (None, 83, 192)      0           dropout_1[0][0]                  
                                                                 lambda_2[0][0]                   
__________________________________________________________________________________________________
bidirectional_2 (Bidirectional) (None, 83, 384)      443520      concatenate_1[0][0]              
__________________________________________________________________________________________________
crf_1 (CRF)                     (None, 83, 10)       3970        bidirectional_2[0][0]            
==================================================================================================
Total params: 7,185,730
Trainable params: 7,185,730
Non-trainable params: 0
__________________________________________________________________________________________________
Train on 753 samples, validate on 84 samples
Epoch 1/70

753/753 [==============================] - 26s 34ms/step - loss: 0.1837 - acc: 0.7798 - val_loss: 0.1477 - val_acc: 0.8479
…
Found additional 104325 unique words.
4321 unique words not found in embedding.
97 unique chars not found in embedding.
Number of OOV: 244
OOV word occurences: 351
Padded until 83 tokens.
Padded until 24 chars.
Padded until 83 tokens.
Padded until 24 chars.
Padded until 83 tokens.
Model Choice:
__________________________________________________________________________________________________
Layer (type)                    Output Shape         Param #     Connected to                     
==================================================================================================
input_2 (InputLayer)            (None, 83, 24)       0                                            
__________________________________________________________________________________________________
embedding_2 (Embedding)         (None, 24, 64)       11648       input_2[0][0]                    
__________________________________________________________________________________________________
dropout_2 (Dropout)             (None, 24, 64)       0           embedding_2[0][0]                
__________________________________________________________________________________________________
input_1 (InputLayer)            (None, 83)           0                                            
__________________________________________________________________________________________________
lambda_1 (Lambda)               (None, 24, 64)       0           dropout_2[0][0]                  
__________________________________________________________________________________________________
embedding_1 (Embedding)         (None, 83, 64)       6676864     input_1[0][0]                    
__________________________________________________________________________________________________
bidirectional_1 (Bidirectional) (None, 128)          49536       lambda_1[0][0]                   
__________________________________________________________________________________________________
dropout_1 (Dropout)             (None, 83, 64)       0           embedding_1[0][0]                
__________________________________________________________________________________________________
lambda_2 (Lambda)               (None, 83, 128)      0           bidirectional_1[0][0]            
__________________________________________________________________________________________________
concatenate_1 (Concatenate)     (None, 83, 192)      0           dropout_1[0][0]                  
                                                                 lambda_2[0][0]                   
__________________________________________________________________________________________________
bidirectional_2 (Bidirectional) (None, 83, 384)      443520      concatenate_1[0][0]              
__________________________________________________________________________________________________
crf_1 (CRF)                     (None, 83, 10)       3970        bidirectional_2[0][0]            
==================================================================================================
Total params: 7,185,538
Trainable params: 7,185,538
Non-trainable params: 0
__________________________________________________________________________________________________
Train on 753 samples, validate on 84 samples
Epoch 1/70

753/753 [==============================] - 25s 33ms/step - loss: 0.1854 - acc: 0.7760 - val_loss: 0.1532 - val_acc: 0.8225
…
Found additional 103885 unique words.
3881 unique words not found in embedding.
97 unique chars not found in embedding.
Number of OOV: 267
OOV word occurences: 434
Padded until 57 tokens.
Padded until 24 chars.
Padded until 57 tokens.
Padded until 24 chars.
Padded until 57 tokens.
Model Choice:
__________________________________________________________________________________________________
Layer (type)                    Output Shape         Param #     Connected to                     
==================================================================================================
input_2 (InputLayer)            (None, 57, 24)       0                                            
__________________________________________________________________________________________________
embedding_2 (Embedding)         (None, 24, 64)       11648       input_2[0][0]                    
__________________________________________________________________________________________________
dropout_2 (Dropout)             (None, 24, 64)       0           embedding_2[0][0]                
__________________________________________________________________________________________________
input_1 (InputLayer)            (None, 57)           0                                            
__________________________________________________________________________________________________
lambda_1 (Lambda)               (None, 24, 64)       0           dropout_2[0][0]                  
__________________________________________________________________________________________________
embedding_1 (Embedding)         (None, 57, 64)       6648704     input_1[0][0]                    
__________________________________________________________________________________________________
bidirectional_1 (Bidirectional) (None, 128)          49536       lambda_1[0][0]                   
__________________________________________________________________________________________________
dropout_1 (Dropout)             (None, 57, 64)       0           embedding_1[0][0]                
__________________________________________________________________________________________________
lambda_2 (Lambda)               (None, 57, 128)      0           bidirectional_1[0][0]            
__________________________________________________________________________________________________
concatenate_1 (Concatenate)     (None, 57, 192)      0           dropout_1[0][0]                  
                                                                 lambda_2[0][0]                   
__________________________________________________________________________________________________
bidirectional_2 (Bidirectional) (None, 57, 384)      443520      concatenate_1[0][0]              
__________________________________________________________________________________________________
crf_1 (CRF)                     (None, 57, 10)       3970        bidirectional_2[0][0]            
==================================================================================================
Total params: 7,157,378
Trainable params: 7,157,378
Non-trainable params: 0
__________________________________________________________________________________________________
Train on 300 samples, validate on 34 samples
Epoch 1/70

300/300 [==============================] - 8s 28ms/step - loss: 0.2241 - acc: 0.7082 - val_loss: 0.1625 - val_acc: 0.7967
…
Found additional 103920 unique words.
3916 unique words not found in embedding.
97 unique chars not found in embedding.
Number of OOV: 261
OOV word occurences: 380
Padded until 58 tokens.
Padded until 24 chars.
Padded until 58 tokens.
Padded until 24 chars.
Padded until 58 tokens.
Model Choice:
__________________________________________________________________________________________________
Layer (type)                    Output Shape         Param #     Connected to                     
==================================================================================================
input_2 (InputLayer)            (None, 58, 24)       0                                            
__________________________________________________________________________________________________
embedding_2 (Embedding)         (None, 24, 64)       11648       input_2[0][0]                    
__________________________________________________________________________________________________
dropout_2 (Dropout)             (None, 24, 64)       0           embedding_2[0][0]                
__________________________________________________________________________________________________
input_1 (InputLayer)            (None, 58)           0                                            
__________________________________________________________________________________________________
lambda_1 (Lambda)               (None, 24, 64)       0           dropout_2[0][0]                  
__________________________________________________________________________________________________
embedding_1 (Embedding)         (None, 58, 64)       6650944     input_1[0][0]                    
__________________________________________________________________________________________________
bidirectional_1 (Bidirectional) (None, 128)          49536       lambda_1[0][0]                   
__________________________________________________________________________________________________
dropout_1 (Dropout)             (None, 58, 64)       0           embedding_1[0][0]                
__________________________________________________________________________________________________
lambda_2 (Lambda)               (None, 58, 128)      0           bidirectional_1[0][0]            
__________________________________________________________________________________________________
concatenate_1 (Concatenate)     (None, 58, 192)      0           dropout_1[0][0]                  
                                                                 lambda_2[0][0]                   
__________________________________________________________________________________________________
bidirectional_2 (Bidirectional) (None, 58, 384)      443520      concatenate_1[0][0]              
__________________________________________________________________________________________________
crf_1 (CRF)                     (None, 58, 10)       3970        bidirectional_2[0][0]            
==================================================================================================
Total params: 7,159,618
Trainable params: 7,159,618
Non-trainable params: 0
__________________________________________________________________________________________________
Train on 300 samples, validate on 34 samples
Epoch 1/70

300/300 [==============================] - 9s 28ms/step - loss: 0.2054 - acc: 0.7154 - val_loss: 0.1693 - val_acc: 0.8013
…
Found additional 103739 unique words.
3735 unique words not found in embedding.
97 unique chars not found in embedding.
Number of OOV: 272
OOV word occurences: 452
Padded until 57 tokens.
Padded until 24 chars.
Padded until 57 tokens.
Padded until 24 chars.
Padded until 57 tokens.
Model Choice:
__________________________________________________________________________________________________
Layer (type)                    Output Shape         Param #     Connected to                     
==================================================================================================
input_2 (InputLayer)            (None, 57, 24)       0                                            
__________________________________________________________________________________________________
embedding_2 (Embedding)         (None, 24, 64)       11648       input_2[0][0]                    
__________________________________________________________________________________________________
dropout_2 (Dropout)             (None, 24, 64)       0           embedding_2[0][0]                
__________________________________________________________________________________________________
input_1 (InputLayer)            (None, 57)           0                                            
__________________________________________________________________________________________________
lambda_1 (Lambda)               (None, 24, 64)       0           dropout_2[0][0]                  
__________________________________________________________________________________________________
embedding_1 (Embedding)         (None, 57, 64)       6639360     input_1[0][0]                    
__________________________________________________________________________________________________
bidirectional_1 (Bidirectional) (None, 128)          49536       lambda_1[0][0]                   
__________________________________________________________________________________________________
dropout_1 (Dropout)             (None, 57, 64)       0           embedding_1[0][0]                
__________________________________________________________________________________________________
lambda_2 (Lambda)               (None, 57, 128)      0           bidirectional_1[0][0]            
__________________________________________________________________________________________________
concatenate_1 (Concatenate)     (None, 57, 192)      0           dropout_1[0][0]                  
                                                                 lambda_2[0][0]                   
__________________________________________________________________________________________________
bidirectional_2 (Bidirectional) (None, 57, 384)      443520      concatenate_1[0][0]              
__________________________________________________________________________________________________
crf_1 (CRF)                     (None, 57, 10)       3970        bidirectional_2[0][0]            
==================================================================================================
Total params: 7,148,034
Trainable params: 7,148,034
Non-trainable params: 0
__________________________________________________________________________________________________
Train on 150 samples, validate on 17 samples
Epoch 1/70

150/150 [==============================] - 5s 34ms/step - loss: 0.2217 - acc: 0.6708 - val_loss: 0.1777 - val_acc: 0.7819
…
Found additional 103772 unique words.
3768 unique words not found in embedding.
97 unique chars not found in embedding.
Number of OOV: 271
OOV word occurences: 423
Padded until 57 tokens.
Padded until 24 chars.
Padded until 57 tokens.
Padded until 24 chars.
Padded until 57 tokens.
Model Choice:
__________________________________________________________________________________________________
Layer (type)                    Output Shape         Param #     Connected to                     
==================================================================================================
input_2 (InputLayer)            (None, 57, 24)       0                                            
__________________________________________________________________________________________________
embedding_2 (Embedding)         (None, 24, 64)       11648       input_2[0][0]                    
__________________________________________________________________________________________________
dropout_2 (Dropout)             (None, 24, 64)       0           embedding_2[0][0]                
__________________________________________________________________________________________________
input_1 (InputLayer)            (None, 57)           0                                            
__________________________________________________________________________________________________
lambda_1 (Lambda)               (None, 24, 64)       0           dropout_2[0][0]                  
__________________________________________________________________________________________________
embedding_1 (Embedding)         (None, 57, 64)       6641472     input_1[0][0]                    
__________________________________________________________________________________________________
bidirectional_1 (Bidirectional) (None, 128)          49536       lambda_1[0][0]                   
__________________________________________________________________________________________________
dropout_1 (Dropout)             (None, 57, 64)       0           embedding_1[0][0]                
__________________________________________________________________________________________________
lambda_2 (Lambda)               (None, 57, 128)      0           bidirectional_1[0][0]            
__________________________________________________________________________________________________
concatenate_1 (Concatenate)     (None, 57, 192)      0           dropout_1[0][0]                  
                                                                 lambda_2[0][0]                   
__________________________________________________________________________________________________
bidirectional_2 (Bidirectional) (None, 57, 384)      443520      concatenate_1[0][0]              
__________________________________________________________________________________________________
crf_1 (CRF)                     (None, 57, 10)       3970        bidirectional_2[0][0]            
==================================================================================================
Total params: 7,150,146
Trainable params: 7,150,146
Non-trainable params: 0
__________________________________________________________________________________________________
Train on 150 samples, validate on 17 samples
Epoch 1/70

150/150 [==============================] - 5s 34ms/step - loss: 0.2425 - acc: 0.6283 - val_loss: 0.1798 - val_acc: 0.7933
…
Found additional 103663 unique words.
3659 unique words not found in embedding.
97 unique chars not found in embedding.
Number of OOV: 275
OOV word occurences: 468
Padded until 57 tokens.
Padded until 24 chars.
Padded until 57 tokens.
Padded until 24 chars.
Padded until 57 tokens.
Model Choice:
__________________________________________________________________________________________________
Layer (type)                    Output Shape         Param #     Connected to                     
==================================================================================================
input_2 (InputLayer)            (None, 57, 24)       0                                            
__________________________________________________________________________________________________
embedding_2 (Embedding)         (None, 24, 64)       11648       input_2[0][0]                    
__________________________________________________________________________________________________
dropout_2 (Dropout)             (None, 24, 64)       0           embedding_2[0][0]                
__________________________________________________________________________________________________
input_1 (InputLayer)            (None, 57)           0                                            
__________________________________________________________________________________________________
lambda_1 (Lambda)               (None, 24, 64)       0           dropout_2[0][0]                  
__________________________________________________________________________________________________
embedding_1 (Embedding)         (None, 57, 64)       6634496     input_1[0][0]                    
__________________________________________________________________________________________________
bidirectional_1 (Bidirectional) (None, 128)          49536       lambda_1[0][0]                   
__________________________________________________________________________________________________
dropout_1 (Dropout)             (None, 57, 64)       0           embedding_1[0][0]                
__________________________________________________________________________________________________
lambda_2 (Lambda)               (None, 57, 128)      0           bidirectional_1[0][0]            
__________________________________________________________________________________________________
concatenate_1 (Concatenate)     (None, 57, 192)      0           dropout_1[0][0]                  
                                                                 lambda_2[0][0]                   
__________________________________________________________________________________________________
bidirectional_2 (Bidirectional) (None, 57, 384)      443520      concatenate_1[0][0]              
__________________________________________________________________________________________________
crf_1 (CRF)                     (None, 57, 10)       3970        bidirectional_2[0][0]            
==================================================================================================
Total params: 7,143,170
Trainable params: 7,143,170
Non-trainable params: 0
__________________________________________________________________________________________________
Train on 74 samples, validate on 9 samples
Epoch 1/70

74/74 [==============================] - 4s 47ms/step - loss: 0.2525 - acc: 0.4787 - val_loss: 0.2640 - val_acc: 0.6513
…
Found additional 103694 unique words.
3690 unique words not found in embedding.
97 unique chars not found in embedding.
Number of OOV: 276
OOV word occurences: 511
Padded until 57 tokens.
Padded until 24 chars.
Padded until 57 tokens.
Padded until 24 chars.
Padded until 57 tokens.
Model Choice:
__________________________________________________________________________________________________
Layer (type)                    Output Shape         Param #     Connected to                     
==================================================================================================
input_2 (InputLayer)            (None, 57, 24)       0                                            
__________________________________________________________________________________________________
embedding_2 (Embedding)         (None, 24, 64)       11648       input_2[0][0]                    
__________________________________________________________________________________________________
dropout_2 (Dropout)             (None, 24, 64)       0           embedding_2[0][0]                
__________________________________________________________________________________________________
input_1 (InputLayer)            (None, 57)           0                                            
__________________________________________________________________________________________________
lambda_1 (Lambda)               (None, 24, 64)       0           dropout_2[0][0]                  
__________________________________________________________________________________________________
embedding_1 (Embedding)         (None, 57, 64)       6636480     input_1[0][0]                    
__________________________________________________________________________________________________
bidirectional_1 (Bidirectional) (None, 128)          49536       lambda_1[0][0]                   
__________________________________________________________________________________________________
dropout_1 (Dropout)             (None, 57, 64)       0           embedding_1[0][0]                
__________________________________________________________________________________________________
lambda_2 (Lambda)               (None, 57, 128)      0           bidirectional_1[0][0]            
__________________________________________________________________________________________________
concatenate_1 (Concatenate)     (None, 57, 192)      0           dropout_1[0][0]                  
                                                                 lambda_2[0][0]                   
__________________________________________________________________________________________________
bidirectional_2 (Bidirectional) (None, 57, 384)      443520      concatenate_1[0][0]              
__________________________________________________________________________________________________
crf_1 (CRF)                     (None, 57, 10)       3970        bidirectional_2[0][0]            
==================================================================================================
Total params: 7,145,154
Trainable params: 7,145,154
Non-trainable params: 0
__________________________________________________________________________________________________
Train on 74 samples, validate on 9 samples
Epoch 1/70

74/74 [==============================] - 4s 47ms/step - loss: 0.2679 - acc: 0.4611 - val_loss: 0.2245 - val_acc: 0.7850
…
Found additional 103615 unique words.
3611 unique words not found in embedding.
97 unique chars not found in embedding.
Number of OOV: 281
OOV word occurences: 562
Padded until 57 tokens.
Padded until 24 chars.
Padded until 57 tokens.
Padded until 24 chars.
Padded until 57 tokens.
Model Choice:
__________________________________________________________________________________________________
Layer (type)                    Output Shape         Param #     Connected to                     
==================================================================================================
input_2 (InputLayer)            (None, 57, 24)       0                                            
__________________________________________________________________________________________________
embedding_2 (Embedding)         (None, 24, 64)       11648       input_2[0][0]                    
__________________________________________________________________________________________________
dropout_2 (Dropout)             (None, 24, 64)       0           embedding_2[0][0]                
__________________________________________________________________________________________________
input_1 (InputLayer)            (None, 57)           0                                            
__________________________________________________________________________________________________
lambda_1 (Lambda)               (None, 24, 64)       0           dropout_2[0][0]                  
__________________________________________________________________________________________________
embedding_1 (Embedding)         (None, 57, 64)       6631424     input_1[0][0]                    
__________________________________________________________________________________________________
bidirectional_1 (Bidirectional) (None, 128)          49536       lambda_1[0][0]                   
__________________________________________________________________________________________________
dropout_1 (Dropout)             (None, 57, 64)       0           embedding_1[0][0]                
__________________________________________________________________________________________________
lambda_2 (Lambda)               (None, 57, 128)      0           bidirectional_1[0][0]            
__________________________________________________________________________________________________
concatenate_1 (Concatenate)     (None, 57, 192)      0           dropout_1[0][0]                  
                                                                 lambda_2[0][0]                   
__________________________________________________________________________________________________
bidirectional_2 (Bidirectional) (None, 57, 384)      443520      concatenate_1[0][0]              
__________________________________________________________________________________________________
crf_1 (CRF)                     (None, 57, 10)       3970        bidirectional_2[0][0]            
==================================================================================================
Total params: 7,140,098
Trainable params: 7,140,098
Non-trainable params: 0
__________________________________________________________________________________________________
Train on 29 samples, validate on 4 samples
Epoch 1/70

29/29 [==============================] - 3s 89ms/step - loss: 0.3187 - acc: 0.1510 - val_loss: 0.2033 - val_acc: 0.7938
…
Found additional 103629 unique words.
3625 unique words not found in embedding.
97 unique chars not found in embedding.
Number of OOV: 282
OOV word occurences: 558
Padded until 57 tokens.
Padded until 24 chars.
Padded until 57 tokens.
Padded until 24 chars.
Padded until 57 tokens.
Model Choice:
__________________________________________________________________________________________________
Layer (type)                    Output Shape         Param #     Connected to                     
==================================================================================================
input_2 (InputLayer)            (None, 57, 24)       0                                            
__________________________________________________________________________________________________
embedding_2 (Embedding)         (None, 24, 64)       11648       input_2[0][0]                    
__________________________________________________________________________________________________
dropout_2 (Dropout)             (None, 24, 64)       0           embedding_2[0][0]                
__________________________________________________________________________________________________
input_1 (InputLayer)            (None, 57)           0                                            
__________________________________________________________________________________________________
lambda_1 (Lambda)               (None, 24, 64)       0           dropout_2[0][0]                  
__________________________________________________________________________________________________
embedding_1 (Embedding)         (None, 57, 64)       6632320     input_1[0][0]                    
__________________________________________________________________________________________________
bidirectional_1 (Bidirectional) (None, 128)          49536       lambda_1[0][0]                   
__________________________________________________________________________________________________
dropout_1 (Dropout)             (None, 57, 64)       0           embedding_1[0][0]                
__________________________________________________________________________________________________
lambda_2 (Lambda)               (None, 57, 128)      0           bidirectional_1[0][0]            
__________________________________________________________________________________________________
concatenate_1 (Concatenate)     (None, 57, 192)      0           dropout_1[0][0]                  
                                                                 lambda_2[0][0]                   
__________________________________________________________________________________________________
bidirectional_2 (Bidirectional) (None, 57, 384)      443520      concatenate_1[0][0]              
__________________________________________________________________________________________________
crf_1 (CRF)                     (None, 57, 10)       3970        bidirectional_2[0][0]            
==================================================================================================
Total params: 7,140,994
Trainable params: 7,140,994
Non-trainable params: 0
__________________________________________________________________________________________________
Train on 29 samples, validate on 4 samples
Epoch 1/70

29/29 [==============================] - 3s 89ms/step - loss: 0.3325 - acc: 0.0824 - val_loss: 0.1728 - val_acc: 0.8795
…
Found additional 103602 unique words.
3598 unique words not found in embedding.
97 unique chars not found in embedding.
Number of OOV: 281
OOV word occurences: 562
Padded until 57 tokens.
Padded until 24 chars.
Padded until 57 tokens.
Padded until 24 chars.
Padded until 57 tokens.
Model Choice:
__________________________________________________________________________________________________
Layer (type)                    Output Shape         Param #     Connected to                     
==================================================================================================
input_2 (InputLayer)            (None, 57, 24)       0                                            
__________________________________________________________________________________________________
embedding_2 (Embedding)         (None, 24, 64)       11648       input_2[0][0]                    
__________________________________________________________________________________________________
dropout_2 (Dropout)             (None, 24, 64)       0           embedding_2[0][0]                
__________________________________________________________________________________________________
input_1 (InputLayer)            (None, 57)           0                                            
__________________________________________________________________________________________________
lambda_1 (Lambda)               (None, 24, 64)       0           dropout_2[0][0]                  
__________________________________________________________________________________________________
embedding_1 (Embedding)         (None, 57, 64)       6630592     input_1[0][0]                    
__________________________________________________________________________________________________
bidirectional_1 (Bidirectional) (None, 128)          49536       lambda_1[0][0]                   
__________________________________________________________________________________________________
dropout_1 (Dropout)             (None, 57, 64)       0           embedding_1[0][0]                
__________________________________________________________________________________________________
lambda_2 (Lambda)               (None, 57, 128)      0           bidirectional_1[0][0]            
__________________________________________________________________________________________________
concatenate_1 (Concatenate)     (None, 57, 192)      0           dropout_1[0][0]                  
                                                                 lambda_2[0][0]                   
__________________________________________________________________________________________________
bidirectional_2 (Bidirectional) (None, 57, 384)      443520      concatenate_1[0][0]              
__________________________________________________________________________________________________
crf_1 (CRF)                     (None, 57, 10)       3970        bidirectional_2[0][0]            
==================================================================================================
Total params: 7,139,266
Trainable params: 7,139,266
Non-trainable params: 0
__________________________________________________________________________________________________
Train on 14 samples, validate on 2 samples
Epoch 1/70

14/14 [==============================] - 2s 173ms/step - loss: 0.3700 - acc: 0.0107 - val_loss: 0.1662 - val_acc: 0.9333
…
Found additional 103611 unique words.
3607 unique words not found in embedding.
97 unique chars not found in embedding.
Number of OOV: 283
OOV word occurences: 567
Padded until 57 tokens.
Padded until 24 chars.
Padded until 57 tokens.
Padded until 24 chars.
Padded until 57 tokens.
Model Choice:
__________________________________________________________________________________________________
Layer (type)                    Output Shape         Param #     Connected to                     
==================================================================================================
input_2 (InputLayer)            (None, 57, 24)       0                                            
__________________________________________________________________________________________________
embedding_2 (Embedding)         (None, 24, 64)       11648       input_2[0][0]                    
__________________________________________________________________________________________________
dropout_2 (Dropout)             (None, 24, 64)       0           embedding_2[0][0]                
__________________________________________________________________________________________________
input_1 (InputLayer)            (None, 57)           0                                            
__________________________________________________________________________________________________
lambda_1 (Lambda)               (None, 24, 64)       0           dropout_2[0][0]                  
__________________________________________________________________________________________________
embedding_1 (Embedding)         (None, 57, 64)       6631168     input_1[0][0]                    
__________________________________________________________________________________________________
bidirectional_1 (Bidirectional) (None, 128)          49536       lambda_1[0][0]                   
__________________________________________________________________________________________________
dropout_1 (Dropout)             (None, 57, 64)       0           embedding_1[0][0]                
__________________________________________________________________________________________________
lambda_2 (Lambda)               (None, 57, 128)      0           bidirectional_1[0][0]            
__________________________________________________________________________________________________
concatenate_1 (Concatenate)     (None, 57, 192)      0           dropout_1[0][0]                  
                                                                 lambda_2[0][0]                   
__________________________________________________________________________________________________
bidirectional_2 (Bidirectional) (None, 57, 384)      443520      concatenate_1[0][0]              
__________________________________________________________________________________________________
crf_1 (CRF)                     (None, 57, 10)       3970        bidirectional_2[0][0]            
==================================================================================================
Total params: 7,139,842
Trainable params: 7,139,842
Non-trainable params: 0
__________________________________________________________________________________________________
Train on 14 samples, validate on 2 samples
Epoch 1/70

14/14 [==============================] - 2s 165ms/step - loss: 0.3656 - acc: 0.0211 - val_loss: 0.1775 - val_acc: 0.9000
…
Found additional 103598 unique words.
3594 unique words not found in embedding.
97 unique chars not found in embedding.
Number of OOV: 284
OOV word occurences: 568
Padded until 57 tokens.
Padded until 24 chars.
Padded until 57 tokens.
Padded until 24 chars.
Padded until 57 tokens.
Model Choice:
__________________________________________________________________________________________________
Layer (type)                    Output Shape         Param #     Connected to                     
==================================================================================================
input_2 (InputLayer)            (None, 57, 24)       0                                            
__________________________________________________________________________________________________
embedding_2 (Embedding)         (None, 24, 64)       11648       input_2[0][0]                    
__________________________________________________________________________________________________
dropout_2 (Dropout)             (None, 24, 64)       0           embedding_2[0][0]                
__________________________________________________________________________________________________
input_1 (InputLayer)            (None, 57)           0                                            
__________________________________________________________________________________________________
lambda_1 (Lambda)               (None, 24, 64)       0           dropout_2[0][0]                  
__________________________________________________________________________________________________
embedding_1 (Embedding)         (None, 57, 64)       6630336     input_1[0][0]                    
__________________________________________________________________________________________________
bidirectional_1 (Bidirectional) (None, 128)          49536       lambda_1[0][0]                   
__________________________________________________________________________________________________
dropout_1 (Dropout)             (None, 57, 64)       0           embedding_1[0][0]                
__________________________________________________________________________________________________
lambda_2 (Lambda)               (None, 57, 128)      0           bidirectional_1[0][0]            
__________________________________________________________________________________________________
concatenate_1 (Concatenate)     (None, 57, 192)      0           dropout_1[0][0]                  
                                                                 lambda_2[0][0]                   
__________________________________________________________________________________________________
bidirectional_2 (Bidirectional) (None, 57, 384)      443520      concatenate_1[0][0]              
__________________________________________________________________________________________________
crf_1 (CRF)                     (None, 57, 9)        3564        bidirectional_2[0][0]            
==================================================================================================
Total params: 7,138,604
Trainable params: 7,138,604
Non-trainable params: 0
__________________________________________________________________________________________________
Train on 7 samples, validate on 1 samples
Epoch 1/70

7/7 [==============================] - 2s 309ms/step - loss: 0.3431 - acc: 0.1429 - val_loss: 0.1996 - val_acc: 0.8276
…
Found additional 103600 unique words.
3596 unique words not found in embedding.
97 unique chars not found in embedding.
Number of OOV: 283
OOV word occurences: 567
Padded until 57 tokens.
Padded until 24 chars.
Padded until 57 tokens.
Padded until 24 chars.
Padded until 57 tokens.
Model Choice:
__________________________________________________________________________________________________
Layer (type)                    Output Shape         Param #     Connected to                     
==================================================================================================
input_2 (InputLayer)            (None, 57, 24)       0                                            
__________________________________________________________________________________________________
embedding_2 (Embedding)         (None, 24, 64)       11648       input_2[0][0]                    
__________________________________________________________________________________________________
dropout_2 (Dropout)             (None, 24, 64)       0           embedding_2[0][0]                
__________________________________________________________________________________________________
input_1 (InputLayer)            (None, 57)           0                                            
__________________________________________________________________________________________________
lambda_1 (Lambda)               (None, 24, 64)       0           dropout_2[0][0]                  
__________________________________________________________________________________________________
embedding_1 (Embedding)         (None, 57, 64)       6630464     input_1[0][0]                    
__________________________________________________________________________________________________
bidirectional_1 (Bidirectional) (None, 128)          49536       lambda_1[0][0]                   
__________________________________________________________________________________________________
dropout_1 (Dropout)             (None, 57, 64)       0           embedding_1[0][0]                
__________________________________________________________________________________________________
lambda_2 (Lambda)               (None, 57, 128)      0           bidirectional_1[0][0]            
__________________________________________________________________________________________________
concatenate_1 (Concatenate)     (None, 57, 192)      0           dropout_1[0][0]                  
                                                                 lambda_2[0][0]                   
__________________________________________________________________________________________________
bidirectional_2 (Bidirectional) (None, 57, 384)      443520      concatenate_1[0][0]              
__________________________________________________________________________________________________
crf_1 (CRF)                     (None, 57, 10)       3970        bidirectional_2[0][0]            
==================================================================================================
Total params: 7,139,138
Trainable params: 7,139,138
Non-trainable params: 0
__________________________________________________________________________________________________
Train on 7 samples, validate on 1 samples
Epoch 1/70

7/7 [==============================] - 2s 310ms/step - loss: 0.3347 - acc: 0.0679 - val_loss: 0.1965 - val_acc: 0.8421
…
