…
Found 16 unique labels.
3577 unique words not found in embedding.
97 unique chars not found in embedding.
Mapping...
Data mapped!
Mapping...
Data mapped!
Padding...
Data padded!
Padded until 152 tokens.
Mapping...
Data mapped!
Mapping...
Data mapped!
Padding...
Data padded!
Padded until 25 chars.
Padded until 152 tokens.
Merge Mode: sum
Model Choice:
CE only
Model Choice:
_________________________________________________________________
Layer (type)                 Output Shape              Param #   
=================================================================
input_2 (InputLayer)         (None, 152, 25)           0         
_________________________________________________________________
embedding_2 (Embedding)      (None, 25, 64)            11648     
_________________________________________________________________
lambda_1 (Lambda)            (None, 25, 64)            0         
_________________________________________________________________
bidirectional_1 (Bidirection (None, 64)                49536     
_________________________________________________________________
lambda_2 (Lambda)            (None, 152, 64)           0         
_________________________________________________________________
bidirectional_2 (Bidirection (None, 152, 128)          49536     
_________________________________________________________________
crf_1 (CRF)                  (None, 152, 17)           2516      
=================================================================
Total params: 113,236
Trainable params: 113,236
Non-trainable params: 0
_________________________________________________________________
Epoch 1/3

   8/4475 [..............................] - ETA: 27:55 - loss: 2.8006 - acc: 0.0074
  16/4475 [..............................] - ETA: 17:36 - loss: 2.6581 - acc: 0.4248
  24/4475 [..............................] - ETA: 14:09 - loss: 2.2214 - acc: 0.5644
…
Found 16 unique labels.
3577 unique words not found in embedding.
97 unique chars not found in embedding.
Mapping...
Data mapped!
Mapping...
Data mapped!
Padding...
Data padded!
Padded until 152 tokens.
Mapping...
Data mapped!
Mapping...
Data mapped!
Padding...
Data padded!
Padded until 25 chars.
Padded until 152 tokens.
Merge Mode: concat
Model Choice:
CE only
Model Choice:
_________________________________________________________________
Layer (type)                 Output Shape              Param #   
=================================================================
input_2 (InputLayer)         (None, 152, 25)           0         
_________________________________________________________________
embedding_2 (Embedding)      (None, 25, 64)            11648     
_________________________________________________________________
lambda_1 (Lambda)            (None, 25, 64)            0         
_________________________________________________________________
bidirectional_1 (Bidirection (None, 128)               49536     
_________________________________________________________________
lambda_2 (Lambda)            (None, 152, 64)           0         
_________________________________________________________________
bidirectional_2 (Bidirection (None, 152, 128)          49536     
_________________________________________________________________
crf_1 (CRF)                  (None, 152, 17)           2516      
=================================================================
Total params: 113,236
Trainable params: 113,236
Non-trainable params: 0
_________________________________________________________________
Epoch 1/3
Opening file id-ud-train.pos
Loading data...
Creating words and labels...
Data loaded! 4477 sentences!
Opening file id-ud-dev.pos
Loading data...
Creating words and labels...
Data loaded! 559 sentences!
…
