…
-ud-train.pos
Opening file id-ud-dev.pos
Found 100004 word vectors.
Found 84 char vectors.
Found 103581 unique words.
Found 181 unique chars.
Found 16 unique labels.
3577 unique words not found in embedding.
97 unique chars not found in embedding.
Padded until 152 tokens.
Padded until 25 chars.
Padded until 152 tokens.
Merge Mode: sum
Model Choice:
CE only
Model Choice:
_________________________________________________________________
Layer (type)                 Output Shape              Param #   
=================================================================
input_2 (InputLayer)         (None, 152, 25)           0         
_________________________________________________________________
embedding_2 (Embedding)      (None, 25, 64)            11648     
_________________________________________________________________
lambda_1 (Lambda)            (None, 25, 64)            0         
_________________________________________________________________
bidirectional_1 (Bidirection (None, 64)                49536     
_________________________________________________________________
lambda_2 (Lambda)            (None, 152, 64)           0         
_________________________________________________________________
bidirectional_2 (Bidirection (None, 152, 128)          49536     
_________________________________________________________________
crf_1 (CRF)                  (None, 152, 17)           2516      
=================================================================
Total params: 113,236
Trainable params: 113,236
Non-trainable params: 0
_________________________________________________________________
Epoch 1/3

4475/4475 [==============================] - 447s 100ms/step - loss: 0.1943 - acc: 0.9416
Epoch 2/3

4475/4475 [==============================] - 440s 98ms/step - loss: 0.1260 - acc: 0.9632
…
Opening file id-ud-train.pos
Opening file id-ud-dev.pos
Found 100004 word vectors.
Found 84 char vectors.
Found 103581 unique words.
Found 181 unique chars.
Found 16 unique labels.
3577 unique words not found in embedding.
97 unique chars not found in embedding.
Padded until 152 tokens.
Padded until 25 chars.
Padded until 152 tokens.
Merge Mode: concat
Model Choice:
CE only
Model Choice:
_________________________________________________________________
Layer (type)                 Output Shape              Param #   
=================================================================
input_2 (InputLayer)         (None, 152, 25)           0         
_________________________________________________________________
embedding_2 (Embedding)      (None, 25, 64)            11648     
_________________________________________________________________
lambda_1 (Lambda)            (None, 25, 64)            0         
_________________________________________________________________
bidirectional_1 (Bidirection (None, 128)               49536     
_________________________________________________________________
lambda_2 (Lambda)            (None, 152, 64)           0         
_________________________________________________________________
bidirectional_2 (Bidirection (None, 152, 128)          49536     
_________________________________________________________________
crf_1 (CRF)                  (None, 152, 17)           2516      
=================================================================
Total params: 113,236
Trainable params: 113,236
Non-trainable params: 0
_________________________________________________________________
Epoch 1/3
Opening file id-ud-train.pos
Opening file id-ud-dev.pos
Found 100004 word vectors.
Found 84 char vectors.
Found 103581 unique words.
Found 181 unique chars.
Found 16 unique labels.
3577 unique words not found in embedding.
97 unique chars not found in embedding.
Padded until 152 tokens.
Padded until 25 chars.
Padded until 152 tokens.
Merge Mode: ave
Model Choice:
CE only
Model Choice:
_________________________________________________________________
Layer (type)                 Output Shape              Param #   
=================================================================
input_2 (InputLayer)         (None, 152, 25)           0         
_________________________________________________________________
embedding_2 (Embedding)      (None, 25, 64)            11648     
_________________________________________________________________
lambda_1 (Lambda)            (None, 25, 64)            0         
_________________________________________________________________
bidirectional_1 (Bidirection (None, 64)                49536     
_________________________________________________________________
lambda_2 (Lambda)            (None, 152, 64)           0         
_________________________________________________________________
bidirectional_2 (Bidirection (None, 152, 128)          49536     
_________________________________________________________________
crf_1 (CRF)                  (None, 152, 17)           2516      
=================================================================
Total params: 113,236
Trainable params: 113,236
Non-trainable params: 0
_________________________________________________________________
Epoch 1/3

4475/4475 [==============================] - 443s 99ms/step - loss: 0.2346 - acc: 0.9246
Epoch 2/3

4475/4475 [==============================] - 439s 98ms/step - loss: 0.1429 - acc: 0.9586
…
