…
Opening file id-ud-train.pos
Opening file id-ud-dev.pos
Found 110561 word vectors.
Found 67 char vectors.
Found 121353 unique words.
Found 181 unique chars.
Found 16 unique labels.
10792 unique words not found in embedding.
114 unique chars not found in embedding.
Padded until 152 tokens.
Padded until 25 chars.
Padded until 152 tokens.
Model Choice:
CE only
Model Choice:
_________________________________________________________________
Layer (type)                 Output Shape              Param #   
=================================================================
input_2 (InputLayer)         (None, 152, 25)           0         
_________________________________________________________________
embedding_2 (Embedding)      (None, 25, 100)           18200     
_________________________________________________________________
lambda_1 (Lambda)            (None, 25, 100)           0         
_________________________________________________________________
bidirectional_1 (Bidirection (None, 100)               120600    
_________________________________________________________________
lambda_2 (Lambda)            (None, 152, 100)          0         
_________________________________________________________________
bidirectional_2 (Bidirection (None, 152, 200)          120600    
_________________________________________________________________
crf_1 (CRF)                  (None, 152, 17)           3740      
=================================================================
Total params: 263,140
Trainable params: 244,940
Non-trainable params: 18,200
_________________________________________________________________
Epoch 1/3

4475/4475 [==============================] - 305s 68ms/step - loss: 0.2133 - acc: 0.9310
Epoch 2/3

4475/4475 [==============================] - 304s 68ms/step - loss: 0.1500 - acc: 0.9511
…
Found 121353 unique words.
Found 181 unique chars.
Found 16 unique labels.
10792 unique words not found in embedding.
114 unique chars not found in embedding.
Padded until 152 tokens.
Padded until 25 chars.
Padded until 152 tokens.
Model Choice:
Both WE & CE
Model Choice:
__________________________________________________________________________________________________
Layer (type)                    Output Shape         Param #     Connected to                     
==================================================================================================
input_2 (InputLayer)            (None, 152, 25)      0                                            
__________________________________________________________________________________________________
embedding_2 (Embedding)         (None, 25, 100)      18200       input_2[0][0]                    
__________________________________________________________________________________________________
lambda_1 (Lambda)               (None, 25, 100)      0           embedding_2[0][0]                
__________________________________________________________________________________________________
input_1 (InputLayer)            (None, 152)          0                                            
__________________________________________________________________________________________________
bidirectional_1 (Bidirectional) (None, 100)          120600      lambda_1[0][0]                   
__________________________________________________________________________________________________
embedding_1 (Embedding)         (None, 152, 100)     12135400    input_1[0][0]                    
__________________________________________________________________________________________________
lambda_2 (Lambda)               (None, 152, 100)     0           bidirectional_1[0][0]            
__________________________________________________________________________________________________
add_1 (Add)                     (None, 152, 100)     0           embedding_1[0][0]                
                                                                 lambda_2[0][0]                   
__________________________________________________________________________________________________
bidirectional_2 (Bidirectional) (None, 152, 200)     120600      add_1[0][0]                      
__________________________________________________________________________________________________
crf_1 (CRF)                     (None, 152, 17)      3740        bidirectional_2[0][0]            
==================================================================================================
Total params: 12,398,540
Trainable params: 244,940
Non-trainable params: 12,153,600
__________________________________________________________________________________________________
Epoch 1/3

4475/4475 [==============================] - 305s 68ms/step - loss: 0.4363 - acc: 0.8715
…
0.877083157093
Opening file id-ud-train.pos
Opening file id-ud-dev.pos
Found 100004 word vectors.
Found 84 char vectors.
Found 103581 unique words.
Found 181 unique chars.
Found 16 unique labels.
3577 unique words not found in embedding.
97 unique chars not found in embedding.
Padded until 152 tokens.
Padded until 25 chars.
Padded until 152 tokens.
Model Choice:
CE only
Model Choice:
_________________________________________________________________
Layer (type)                 Output Shape              Param #   
=================================================================
input_2 (InputLayer)         (None, 152, 25)           0         
_________________________________________________________________
embedding_2 (Embedding)      (None, 25, 64)            11648     
_________________________________________________________________
lambda_1 (Lambda)            (None, 25, 64)            0         
_________________________________________________________________
bidirectional_1 (Bidirection (None, 64)                49536     
_________________________________________________________________
lambda_2 (Lambda)            (None, 152, 64)           0         
_________________________________________________________________
bidirectional_2 (Bidirection (None, 152, 128)          49536     
_________________________________________________________________
crf_1 (CRF)                  (None, 152, 17)           2516      
=================================================================
Total params: 113,236
Trainable params: 101,588
Non-trainable params: 11,648
_________________________________________________________________
Epoch 1/3

4475/4475 [==============================] - 194s 43ms/step - loss: 0.2656 - acc: 0.9171
Epoch 2/3

4475/4475 [==============================] - 193s 43ms/step - loss: 0.2029 - acc: 0.9320
…
Found 103581 unique words.
Found 181 unique chars.
Found 16 unique labels.
3577 unique words not found in embedding.
97 unique chars not found in embedding.
Padded until 152 tokens.
Padded until 25 chars.
Padded until 152 tokens.
Model Choice:
Both WE & CE
Model Choice:
__________________________________________________________________________________________________
Layer (type)                    Output Shape         Param #     Connected to                     
==================================================================================================
input_2 (InputLayer)            (None, 152, 25)      0                                            
__________________________________________________________________________________________________
embedding_2 (Embedding)         (None, 25, 64)       11648       input_2[0][0]                    
__________________________________________________________________________________________________
lambda_1 (Lambda)               (None, 25, 64)       0           embedding_2[0][0]                
__________________________________________________________________________________________________
input_1 (InputLayer)            (None, 152)          0                                            
__________________________________________________________________________________________________
bidirectional_1 (Bidirectional) (None, 64)           49536       lambda_1[0][0]                   
__________________________________________________________________________________________________
embedding_1 (Embedding)         (None, 152, 64)      6629248     input_1[0][0]                    
__________________________________________________________________________________________________
lambda_2 (Lambda)               (None, 152, 64)      0           bidirectional_1[0][0]            
__________________________________________________________________________________________________
add_1 (Add)                     (None, 152, 64)      0           embedding_1[0][0]                
                                                                 lambda_2[0][0]                   
__________________________________________________________________________________________________
bidirectional_2 (Bidirectional) (None, 152, 128)     49536       add_1[0][0]                      
__________________________________________________________________________________________________
crf_1 (CRF)                     (None, 152, 17)      2516        bidirectional_2[0][0]            
==================================================================================================
Total params: 6,742,484
Trainable params: 101,588
Non-trainable params: 6,640,896
__________________________________________________________________________________________________
Epoch 1/3

4475/4475 [==============================] - 186s 41ms/step - loss: 0.5639 - acc: 0.8406
…
0.449052649961
Opening file id-ud-train.pos
Opening file id-ud-dev.pos
Found 79170 word vectors.
Found 67 char vectors.
Found 90824 unique words.
Found 181 unique chars.
Found 16 unique labels.
11654 unique words not found in embedding.
114 unique chars not found in embedding.
Padded until 152 tokens.
Padded until 25 chars.
Padded until 152 tokens.
Model Choice:
CE only
Model Choice:
_________________________________________________________________
Layer (type)                 Output Shape              Param #   
=================================================================
input_2 (InputLayer)         (None, 152, 25)           0         
_________________________________________________________________
embedding_2 (Embedding)      (None, 25, 200)           36400     
_________________________________________________________________
lambda_1 (Lambda)            (None, 25, 200)           0         
_________________________________________________________________
bidirectional_1 (Bidirection (None, 200)               481200    
_________________________________________________________________
lambda_2 (Lambda)            (None, 152, 200)          0         
_________________________________________________________________
bidirectional_2 (Bidirection (None, 152, 400)          481200    
_________________________________________________________________
crf_1 (CRF)                  (None, 152, 17)           7140      
=================================================================
Total params: 1,005,940
Trainable params: 969,540
Non-trainable params: 36,400
_________________________________________________________________
Epoch 1/3

4475/4475 [==============================] - 726s 162ms/step - loss: 0.2437 - acc: 0.9193
Epoch 2/3

4475/4475 [==============================] - 727s 162ms/step - loss: 0.1903 - acc: 0.9346
…
Found 90824 unique words.
Found 181 unique chars.
Found 16 unique labels.
11654 unique words not found in embedding.
114 unique chars not found in embedding.
Padded until 152 tokens.
Padded until 25 chars.
Padded until 152 tokens.
Model Choice:
Both WE & CE
Model Choice:
__________________________________________________________________________________________________
Layer (type)                    Output Shape         Param #     Connected to                     
==================================================================================================
input_2 (InputLayer)            (None, 152, 25)      0                                            
__________________________________________________________________________________________________
embedding_2 (Embedding)         (None, 25, 200)      36400       input_2[0][0]                    
__________________________________________________________________________________________________
lambda_1 (Lambda)               (None, 25, 200)      0           embedding_2[0][0]                
__________________________________________________________________________________________________
input_1 (InputLayer)            (None, 152)          0                                            
__________________________________________________________________________________________________
bidirectional_1 (Bidirectional) (None, 200)          481200      lambda_1[0][0]                   
__________________________________________________________________________________________________
embedding_1 (Embedding)         (None, 152, 200)     18165000    input_1[0][0]                    
__________________________________________________________________________________________________
lambda_2 (Lambda)               (None, 152, 200)     0           bidirectional_1[0][0]            
__________________________________________________________________________________________________
add_1 (Add)                     (None, 152, 200)     0           embedding_1[0][0]                
                                                                 lambda_2[0][0]                   
__________________________________________________________________________________________________
bidirectional_2 (Bidirectional) (None, 152, 400)     481200      add_1[0][0]                      
__________________________________________________________________________________________________
crf_1 (CRF)                     (None, 152, 17)      7140        bidirectional_2[0][0]            
==================================================================================================
Total params: 19,170,940
Trainable params: 969,540
Non-trainable params: 18,201,400
__________________________________________________________________________________________________
Epoch 1/3

4475/4475 [==============================] - 705s 157ms/step - loss: 1.2260 - acc: 0.6043
…
Opening file id-ud-train.pos
Opening file id-ud-dev.pos
Found 300687 word vectors.
Found 55 char vectors.
Found 311178 unique words.
Found 181 unique chars.
Found 16 unique labels.
10491 unique words not found in embedding.
126 unique chars not found in embedding.
Padded until 152 tokens.
Padded until 25 chars.
Padded until 152 tokens.
Model Choice:
CE only
Model Choice:
_________________________________________________________________
Layer (type)                 Output Shape              Param #   
=================================================================
input_2 (InputLayer)         (None, 152, 25)           0         
_________________________________________________________________
embedding_2 (Embedding)      (None, 25, 300)           54600     
_________________________________________________________________
lambda_1 (Lambda)            (None, 25, 300)           0         
_________________________________________________________________
bidirectional_1 (Bidirection (None, 300)               1081800   
_________________________________________________________________
lambda_2 (Lambda)            (None, 152, 300)          0         
_________________________________________________________________
bidirectional_2 (Bidirection (None, 152, 600)          1081800   
_________________________________________________________________
crf_1 (CRF)                  (None, 152, 17)           10540     
=================================================================
Total params: 2,228,740
Trainable params: 2,174,140
Non-trainable params: 54,600
_________________________________________________________________
Epoch 1/3

4475/4475 [==============================] - 1431s 320ms/step - loss: 0.2259 - acc: 0.9258
Epoch 2/3

4475/4475 [==============================] - 1425s 318ms/step - loss: 0.1774 - acc: 0.9380
…
Found 311178 unique words.
Found 181 unique chars.
Found 16 unique labels.
10491 unique words not found in embedding.
126 unique chars not found in embedding.
Padded until 152 tokens.
Padded until 25 chars.
Padded until 152 tokens.
Model Choice:
Both WE & CE
Model Choice:
__________________________________________________________________________________________________
Layer (type)                    Output Shape         Param #     Connected to                     
==================================================================================================
input_2 (InputLayer)            (None, 152, 25)      0                                            
__________________________________________________________________________________________________
embedding_2 (Embedding)         (None, 25, 300)      54600       input_2[0][0]                    
__________________________________________________________________________________________________
lambda_1 (Lambda)               (None, 25, 300)      0           embedding_2[0][0]                
__________________________________________________________________________________________________
input_1 (InputLayer)            (None, 152)          0                                            
__________________________________________________________________________________________________
bidirectional_1 (Bidirectional) (None, 300)          1081800     lambda_1[0][0]                   
__________________________________________________________________________________________________
embedding_1 (Embedding)         (None, 152, 300)     93353700    input_1[0][0]                    
__________________________________________________________________________________________________
lambda_2 (Lambda)               (None, 152, 300)     0           bidirectional_1[0][0]            
__________________________________________________________________________________________________
add_1 (Add)                     (None, 152, 300)     0           embedding_1[0][0]                
                                                                 lambda_2[0][0]                   
__________________________________________________________________________________________________
bidirectional_2 (Bidirectional) (None, 152, 600)     1081800     add_1[0][0]                      
__________________________________________________________________________________________________
crf_1 (CRF)                     (None, 152, 17)      10540       bidirectional_2[0][0]            
==================================================================================================
Total params: 95,582,440
Trainable params: 2,174,140
Non-trainable params: 93,408,300
__________________________________________________________________________________________________
Epoch 1/3

4475/4475 [==============================] - 1406s 314ms/step - loss: 0.6292 - acc: 0.8266
…
